OrderedByEnvironments/Hopper/Hopper_td3/Hopper_td3_s456/pyt_save/model.pt (torch_old, 844414 bytes, 16 tensors)

weight f4 [256, 11]
000000 1e 97 1e bf 5a 26 47 bf ba 28 5c 3f 5b 23 8f 3f
       -0.61949337 -0.77792895 0.85999644 1.1182665
000010 9a 95 4c bf b5 03 32 bf 80 03 dd 3e e9 48 8f be
       -0.79915774 -0.69536906 0.43166733 -0.27985314
000020 af 8d 30 3e c5 f8 30 3e a1 b4 83 bd a9 44 1e c1
       0.17241548 0.17282398 -0.064309366 -9.891763
000030 f2 e6 8a 3f 2f 2a 37 40 e4 7e 17 bf 3f 94 27 c0
       1.0851729 2.8619497 -0.59177995 -2.6184232
000040 82 61 f2 be 59 58 df be 98 75 43 bf 0a 8a a8 3f
       -0.47340018 -0.4362209 -0.7635131 1.3167126
000050 c2 89 1c 3e 22 5a 11 3e f3 9e ac bf b2 c1 01 c0
       0.15286925 0.14194539 -1.3486007 -2.0274472
000060 6d dc 36 40 71 8b c6 40 a8 4e 42 bd 46 2c cc bf
       2.8572037 6.2045217 -0.047438294 -1.5951011
000070 8f 31 ba be 4d a0 cb 3c a5 6a 2b be f8 9a fb 3d
       -0.36365935 0.02485671 -0.167399 0.12285417
000080 cf 33 13 bf 2c 52 55 bf 54 19 94 bf 76 78 7b 40
       -0.5750093 -0.8332851 -1.157023 3.9292274
000090 d6 6d 04 bf 32 34 49 bf 45 0a 0a bf b0 65 b9 bd
       -0.51730096 -0.7859527 -0.5392192 -0.090525985
0000a0 97 08 b3 3f 2f 61 bf bc d6 9e c0 3e c7 b4 ce 3d
       1.3986996 -0.02336177 0.37621182 0.10093074
0000b0 2e 0d af c0 6b 64 ed bf 62 8b 0e c0 a8 00 ae c0
       -5.470359 -1.854627 -2.2272573 -5.43758
0000c0 3a 51 11 c0 a3 9d 2e be c0 14 23 3f ba b4 a5 bf
       -2.2705827 -0.17052321 0.63703537 -1.2945778
0000d0 76 e8 8b 3f 0b 51 77 3f 81 15 8d 3e 07 6a 45 c0
       1.0930316 0.96608037 0.2755547 -3.0845964
0000e0 66 24 48 3f b4 01 df 3f bc 5b 41 40 a4 33 b8 40
       0.7818054 1.7422395 3.021224 5.756304
0000f0 f0 35 2e bf ac 8e f0 3e 3c 0d 08 3f b5 f6 fc bd
       -0.6805105 0.4698385 0.53145194 -0.12351743
000100 b5 98 f5 bc 7f ff 6c 3e 37 88 40 3f 6f 8b 27 be
       -0.029980043 0.23144339 0.7520785 -0.16361783
000110 28 5c 05 40 06 3e 59 3f 6f 78 6a 40 b7 fd af bf
       2.0837498 0.84860265 3.6636007 -1.3749303
000120 a3 ce d3 3e 6f 1a 22 bf b9 5b 66 3f c1 ac 04 3f
       0.4136859 -0.63321584 0.8998371 0.518261
000130 03 d0 e5 be 17 12 ff bf 64 f3 be 3e 9f a6 27 40
       -0.44885263 -1.9927396 0.37295067 2.6195447
000140 8f d8 69 3e 1d 01 e9 3e 20 32 20 c0 77 30 1d bd
       0.22836517 0.45508662 -2.5030594 -0.038376298
000150 3f bd 07 be 3f 65 e3 be 1e 14 be be 6e 39 cd 3e
       -0.13255785 -0.44413182 -0.37124723 0.40082878
000160 f8 29 10 c0 5f 6a ff bf 61 ac 4f bf 3b c5 07 c0
       -2.2525616 -1.9954337 -0.81122404 -2.121413
000170 eb 39 78 bd bc 86 e4 3e 78 f9 82 3e 90 13 a1 be
       -0.06060211 0.44634044 0.25580955 -0.31460238
000180 c4 98 66 3f b5 ea f9 3e 41 d8 7e be 65 22 b1 bf
       0.9007685 0.4881188 -0.24887182 -1.3838621
000190 a0 f6 a5 bf a1 ed 19 40 39 1f 9a 40 38 a4 48 bf
       -1.2965889 2.4051287 4.8163114 -0.7837558
0001a0 66 f2 81 bf 15 33 b4 bf ce 39 83 be 1a 88 ef 3e
       -1.0152099 -1.4078089 -0.2563004 0.46783525
0001b0 3b eb 69 3f 65 35 b0 be 94 68 9b c0 51 aa e8 bf
       0.9137456 -0.34415737 -4.856516 -1.8176976
0001c0 f6 f0 1c 3f 89 ff 1c 3f ff cb 85 bf 0c 5c 0c 40
       0.6130518 0.61327416 -1.045288 2.193118
0001d0 12 42 81 bf 2a fd dd bf cf cb 9e 3f 7b ec 23 3f
       -1.0098288 -1.7342885 1.2405947 0.64032716
0001e0 62 3a 46 bc 99 54 56 c0 67 3c 22 bf 9b 0d cb bf
       -0.0120988805 -3.3489134 -0.63373417 -1.5863527
0001f0 93 3e b6 3f 67 f3 b7 3e 9c 26 c8 be 66 40 ab bf
       1.4237846 0.3592789 -0.39091957 -1.3379028
000200 9c 3c 04 3f 23 0b 57 bf d0 6f f0 be 4e 7e b9 be
       0.5165498 -0.8400137 -0.46960306 -0.36229175
000210 d1 fd 4c c0 b1 ea f2 bf 1f 89 55 40 67 a4 43 40
       -3.2029917 -1.8977872 3.3364942 3.0569093
000220 0b a9 43 3f 4c 48 c0 bf b2 9b a8 3d ed d9 c3 be
       0.76429814 -1.5022063 0.082328215 -0.38252202
000230 f2 db 0f 3f 7e 36 8b 3e 53 bf 1b 3d 28 2e 43 c0
       0.56194985 0.27190012 0.038024258 -3.0496922
000240 a9 d2 87 bd 49 23 14 3f 29 0e e0 bf ed f7 d7 c0
       -0.06631977 0.5786634 -1.7504321 -6.7490144
000250 7f 77 28 bf 4e 3b 7c bf 3f f0 8f bf 69 43 4e 3f
       -0.65807337 -0.9852799 -1.1245192 0.8057161
000260 22 9c 29 3f 4d 57 d9 be 7f 6c 54 c0 8f 04 91 bf
       0.66253865 -0.42449418 -3.319122 -1.1329516
000270 75 17 b8 3f fb 87 3f 3e 73 e8 9c bf 25 d8 ca bf
       1.4382159 0.18704216 -1.2258438 -1.5847212
000280 6c 54 89 3e 7d 57 de 3e 74 42 a4 3e d2 ec 17 3f
       0.2682222 0.43426123 0.3208195 0.59345734
000290 5b ba 02 3e a7 d9 8c c0 b9 23 27 be 90 e5 2d 40
       0.12766401 -4.401569 -0.16322221 2.7171364
0002a0 a9 03 d6 3f e7 bf ae c0 2e 60 8e 3e a2 a2 44 40
       1.6719867 -5.4609256 0.27807754 3.0724263
0002b0 8c 5d 1b be f9 37 c3 3d 65 23 e4 3d b5 57 2b 3e
       -0.15172404 0.0953216 0.111395635 0.16732676
0002c0 fc fb 3b c0 2c 83 f4 3e 0d c2 1d bf b6 e0 23 be
       -2.937255 0.47756326 -0.61624223 -0.16003689
0002d0 6b b0 91 bf 7e ea b9 bf b0 32 ef bf b5 a6 71 3d
       -1.1381963 -1.4524686 -1.8687344 0.058996875
0002e0 87 0e 4c be d9 48 dd be 3f 05 fb 3c dd bb 1b c0
       -0.19927417 -0.4321964 0.03064215 -2.4333413
0002f0 13 95 9c bf 38 65 87 40 aa 98 a0 bf 43 fd e3 be
       -1.2232994 4.231106 -1.2546589 -0.4452916
000300 bf 5f ca bf 84 b7 be bd 2e 7f a7 be 0d 0b b0 3e
       -1.5810469 -0.093123466 -0.32714218 0.3438343
000310 15 1c f7 bc 4f 1d 1b 3e 0f ec 20 c0 7c be de bf
       -0.030164758 0.15147899 -2.5144079 -1.7401881
000320 41 ce 8b bd 71 8d c8 40 52 e3 fb bf 25 d4 11 bf
       -0.06826449 6.267266 -1.9678748 -0.5696433
000330 e6 62 19 bf 80 41 ba bf 26 c8 79 3f 3c 2f 15 3f
       -0.5991653 -1.4551239 0.9757103 0.582752
000340 e3 ad 61 3f 52 55 d3 bf 6a dc 58 bf e6 bc 2d 3f
       0.88155955 -1.6510413 -0.84711325 0.6786636
000350 b9 45 81 bf c1 0f 17 3e d8 0b 19 c0 d1 99 1e bf
       -1.0099403 0.14752103 -2.391348 -0.61953455
000360 f4 a6 f1 be 06 94 c2 be c1 27 61 3f 05 08 b2 bd
       -0.47197688 -0.38003558 0.87951285 -0.08692936
000370 b6 a6 83 3f 13 f5 6a 3f 19 f9 82 bf da 17 f8 be
       1.0285251 0.91780204 -1.0232269 -0.48455697
000380 67 37 3f 3f cd cc 2d bf 6c f9 92 bf 96 b4 9c be
       0.7469391 -0.67890626 -1.1482368 -0.30606526
000390 f9 62 db 3e 94 ad f0 3c 03 97 de bd 4e 0c b6 bf
       0.42848948 0.029379643 -0.10868647 -1.4222505
0003a0 0b 93 dc 3c 34 f2 14 40 c4 60 fb bd 7b 25 94 bf
       0.026925584 2.327283 -0.12274316 -1.1573938
0003b0 db c1 29 bf a1 5b af 3d fc b1 7c 3e db 53 bd bd
       -0.66311425 0.08562399 0.2467727 -0.0924451
0003c0 d5 e2 12 be 0e 22 2f bd cc 24 e3 bf e4 09 09 c0
       -0.14344342 -0.042757086 -1.7745605 -2.1412287
0003d0 1d 78 d6 3f 4b 82 c9 be f2 81 be 3e a2 92 29 c0
       1.6755406 -0.39357218 0.37208515 -2.6495748
0003e0 00 5f 50 3f 3c ab 2b be 8f 71 b5 3e 7f 7f 30 3c
       0.8139496 -0.1676454 0.354382 0.010772585
0003f0 ff c8 a3 be 39 a9 8e 3f 87 57 ee 3e 4a a7 1e 40
       -0.31989285 1.1145393 0.46551153 2.4789605

bias f4 [256]
000000 6d 21 3d c0 50 c3 84 bf 3e ab fd be dd 06 11 c0
       -2.9551651 -1.0372105 -0.4954471 -2.266044
000010 6c 0b ad be 52 4a ba 3f bd 92 3f 3f 42 95 bb 3f
       -0.33797777 1.4553931 0.7483328 1.4654925
000020 47 ec dd bf ea 2b 16 c0 11 df bb bf 8b cd 31 3f
       -1.7337731 -2.3464303 -1.467745 0.6945426
000030 38 5b 8c 3f 2a e0 94 be d2 0f 35 bf 0e d5 25 be
       1.0965338 -0.29077274 -0.70727265 -0.16194555
000040 36 22 91 bf 00 20 86 bf 84 a7 ce bf 36 63 d4 bf
       -1.1338565 -1.0478516 -1.6144872 -1.6592777
000050 4e 86 00 40 2d 93 0b c0 40 99 cb bf c9 25 9c bf
       2.0081973 -2.180858 -1.5906143 -1.2199031
000060 bd e2 31 c0 ed 14 bc be 58 a0 48 bf 8f c3 11 bf
       -2.779464 -0.36734715 -0.78369665 -0.56939024
000070 2a af 94 be f4 c3 a1 bf fc 2a 4b be c8 99 1e be
       -0.2903989 -1.2637925 -0.19840616 -0.1548835
000080 0b f0 97 bf 7f d3 21 c0 08 c8 3a bf 22 fa f4 bf
       -1.187013 -2.5285337 -0.72961473 -1.9138834
000090 ee e9 be 3e f2 95 71 be ba f5 ac bf f9 98 48 bf
       0.3728785 -0.23592356 -1.351249 -0.7835842
0000a0 89 8e 0b c0 89 87 94 be 88 61 b1 bf 38 b0 0f c0
       -2.1805747 -0.29009655 -1.3857889 -2.2451305
0000b0 f0 d0 7b bf 93 32 2d c0 9d fb 03 bf ee 3c 2b bf
       -0.9836569 -2.7062118 -0.51555806 -0.66889846
0000c0 4b e6 b3 3f 14 1f 3e bf 4d c3 d8 bf d0 2f 89 bf
       1.4054655 -0.7426617 -1.6934601 -1.0717716
0000d0 84 f1 6c bf 9d 2f 1f c0 6e a7 2f be 87 10 51 3e
       -0.92556024 -2.487281 -0.17153713 0.20416461
0000e0 39 9a 10 3e 95 17 c2 bf fc 2b 0c c0 34 b8 d8 bf
       0.14121331 -1.5163447 -2.1901846 -1.6931214
0000f0 82 2a 43 be 5e 06 ef 3d 4b 69 cf bf 7e 7b 4e bf
       -0.19059184 0.11671136 -1.6204008 -0.80657184
000100 18 3a 0d bf 2e 83 a2 bf 58 b8 24 c0 8d 29 13 c0
       -0.5516677 -1.2696283 -2.5737514 -2.299411
000110 d8 4f aa bf 4f e6 ae bf 58 7a 84 bf 51 02 3f bf
       -1.3305616 -1.3664035 -1.0349836 -0.7461291
000120 fd 79 b2 bf 30 60 4a bf aa bd ca 3f e8 cb 16 c0
       -1.3943478 -0.7905302 1.5839131 -2.3561954
000130 6c d5 0c c0 a8 46 7a bf 9f e1 1d c0 0e 54 9b bf
       -2.2005262 -0.9776406 -2.4668958 -1.2135026
000140 41 93 10 c0 08 d4 56 bf 7e d8 8e bf 71 a6 2a c0
       -2.2589877 -0.83917284 -1.1159818 -2.6664088
000150 fc dd dd bf 79 0d fe 3f fd 5c 0c bf 42 36 9d 3e
       -1.7333369 1.9847862 -0.5482939 0.30705458
000160 a9 fc 19 c0 28 24 fc bb bf 06 18 c0 af 5f e7 bf
       -2.4060462 -0.00769474 -2.3754117 -1.8076075
000170 91 62 c7 3f bc b8 80 bf a6 35 71 3f 2d 7c 1a c0
       1.5576955 -1.0056376 0.94222486 -2.413829
000180 c1 49 e6 bf 60 61 cc bf 0a 82 75 bf 84 1e 4c c0
       -1.7991258 -1.5967216 -0.9590155 -3.1893625
000190 46 13 28 c0 38 53 a2 bf bd df 72 3e c3 48 02 3f
       -2.6261764 -1.2681646 0.23718162 0.50892276
0001a0 35 35 ab bf 99 10 50 c0 17 7e 0d c0 c7 cc 22 3f
       -1.3375612 -3.251013 -2.210821 0.63593715
0001b0 bc d6 34 c0 ea 63 83 bf 1a 3e 73 c0 bc 90 eb 3e
       -2.8256063 -1.0264866 -3.8006654 0.4600886
0001c0 06 e1 d2 bf 3f 66 93 bf fe 4a 5e c0 06 64 21 c0
       -1.6474922 -1.1515578 -3.4733272 -2.52173
0001d0 d0 11 58 bf 7a db fa bf 7f 45 1b c0 47 8f f8 bf
       -0.8440218 -1.9598229 -2.4261167 -1.9418725
0001e0 59 da 16 c0 fc 65 b8 bf 82 b2 f1 bf dc 0d 44 bf
       -2.357077 -1.4406123 -1.8882601 -0.7658365
0001f0 82 a8 9e bf 0b 27 de bf 47 08 11 c0 56 f3 c8 bf
       -1.2395175 -1.7355665 -2.2661302 -1.569926
000200 63 2d 1d c0 58 eb fb be 41 d7 29 bf dc 82 a6 bf
       -2.4558952 -0.4920299 -0.66344076 -1.3008685
000210 2d 3b 26 bf a2 44 3a c0 dc 32 75 bf c8 4c 56 be
       -0.64934045 -2.910439 -0.9578073 -0.20927727
000220 e5 2c c2 bf be 1c 07 bf de d5 0e bf b1 2a 3f c0
       -1.5169951 -0.5277823 -0.55795085 -2.9869807
000230 99 7f 2a c0 cd c4 b9 3e 7b 09 37 c0 8b f1 ac bf
       -2.664038 0.3628296 -2.8599536 -1.3511213
000240 ed 5f 28 c0 6e 99 b2 bf a3 c8 2c bf 59 ed 0d 3e
       -2.6308548 -1.3953073 -0.6749365 0.13860072
000250 0c aa b9 3e ab 31 f7 bf 6b 0c 21 c0 c6 94 0c c0
       0.36262548 -1.9312032 -2.516383 -2.1965804
000260 b3 c4 f9 3e 5d a5 83 bf 6e c9 a7 3e f1 4b c3 bf
       0.48782882 -1.028484 0.32770866 -1.525755
000270 34 42 1c c0 85 eb 91 be 84 ad d7 be 53 fd 66 c0
       -2.4415407 -0.285 -0.4212457 -3.6092117
000280 13 b3 1a c0 db 66 05 3f fa 62 9a bf 43 da 58 bf
       -2.4171798 0.5211007 -1.2061455 -0.8470804
000290 41 c9 a9 bf 06 87 37 be f2 f3 9e bf 99 f8 25 c0
       -1.3264543 -0.17922601 -1.2418196 -2.5932982
0002a0 f4 63 53 c0 b0 1d f7 bf e9 f8 02 c0 4d 53 4e bf
       -3.3029757 -1.9305935 -2.0464423 -0.80595857
0002b0 11 d0 65 bf d4 c6 1b c0 13 95 8c bf 33 9b e0 bf
       -0.8977061 -2.4340105 -1.0982994 -1.7547363
0002c0 31 2b 7a be df ef 06 c0 d9 4f 96 be 81 07 16 bf
       -0.24430539 -2.1083906 -0.29357794 -0.586052
0002d0 3a 9b 26 3e 70 ba 35 bf c8 a1 25 c0 c9 8e 55 3f
       0.16270152 -0.70987606 -2.5879993 0.83421
0002e0 7b bb d8 3e a3 ae ea bf 02 9e 1f c0 6a 8f 9c 3f
       0.42330536 -1.8334545 -2.494019 1.2231266
0002f0 a2 aa d1 bf 35 1f 10 c0 8a 55 13 c0 a6 95 1d 3f
       -1.6380198 -2.2519047 -2.302096 0.6155647
000300 21 48 41 3e c6 99 aa bf ea 11 62 bf 66 a1 46 c0
       0.18875171 -1.3328178 -0.88308585 -3.103601
000310 74 e7 10 40 09 41 a6 bf bd d0 12 bf 93 26 0c c0
       2.2641268 -1.2988597 -0.5734976 -2.1898544
000320 17 fb 94 bf 47 71 47 c0 37 12 a9 be d9 98 22 c0
       -1.1639127 -3.116289 -0.3302171 -2.540579
000330 fe 18 d6 bf a9 47 2e c0 25 b4 08 c0 84 c0 85 be
       -1.6726377 -2.7231238 -2.1359951 -0.2612344
000340 7b a8 cc 3f f2 74 db be 3c 85 9b be c3 3f 3c c0
       1.5988916 -0.4286266 -0.30375087 -2.9413917
000350 3f b6 c2 bf 7b 04 c6 3e 8e ca f8 bf 06 64 16 3f
       -1.5211867 0.38675293 -1.9436815 0.58746374
000360 23 c5 ed bf c6 43 26 c0 5b 55 b8 3e 7e 97 24 c0
       -1.8575786 -2.5978866 0.3600262 -2.5717463
000370 5f e0 3c c0 38 e1 e2 bd 54 ff b6 be 82 c7 fc bf
       -2.9511945 -0.11078113 -0.35741675 -1.9748385
000380 41 a2 1b 3f 22 75 1a c0 25 9e fd bf be 3a 2d c0
       0.60794455 -2.4133992 -1.9813887 -2.7067103
000390 cf da 18 c0 f7 35 ca bf 69 54 de bf f8 d4 11 c0
       -2.388355 -1.5797719 -1.736951 -2.2786236
0003a0 52 d0 6c bf b1 48 04 c0 19 a7 02 c0 f4 0a 22 bf
       -0.9250537 -2.0669367 -2.0414488 -0.63297963
0003b0 5d 3f ea bf d4 8d 8f bf 9d 9a b8 bf 55 30 82 bf
       -1.8300587 -1.1215158 -1.4422184 -1.0171
0003c0 5f ea 32 c0 12 62 22 c0 73 a3 2e c0 df fc a8 bf
       -2.7955549 -2.5372357 -2.7287261 -1.320217
0003d0 a3 08 11 c0 0a 84 f3 bf e5 3f f3 bf d1 53 a7 bf
       -2.2661521 -1.902467 -1.9003874 -1.3072454
0003e0 b2 8a 29 c0 2b a2 8f bf be 54 76 bf a1 54 f3 bf
       -2.6490903 -1.1221365 -0.96223056 -1.9010202
0003f0 4c cd d1 bf 9a da ff bf 41 d2 04 c0 b6 b4 ab 3e
       -1.6390777 -1.9988587 -2.0753329 0.3353631

weight f4 [256, 256]
000000 87 f2 97 bd d8 93 00 bc f5 3f 7e bc 0c 47 af bd
       -0.07419305 -0.007847749 -0.015518178 -0.08558473
000010 e7 1a ff bd 53 c4 1b bd ee 2a 56 bb c0 65 4d 3c
       -0.12456303 -0.038029026 -0.0032679397 0.012536466
000020 f3 85 0c bd f8 c3 c2 bd e7 84 4b bd 5d 03 a2 bd
       -0.03430743 -0.09510034 -0.049687292 -0.07910798
000030 72 8f 80 bd 7c c9 96 bd 14 62 0a bd 92 b6 71 3d
       -0.0627736 -0.07362649 -0.03378494 0.059012003
000040 9c 1b 20 bd 81 19 05 bd 70 a4 9a bd ea dc c8 bc
       -0.03908883 -0.032495026 -0.07550895 -0.024519403
000050 c0 90 3a bd c0 a9 5e 3d f3 60 80 bd 8c 68 c2 bd
       -0.0455482 0.054361105 -0.062684916 -0.09492597
000060 a8 75 af 3c 33 92 2b 3d 66 bb bc bd 02 fb 55 3c
       0.021418408 0.041887473 -0.09215431 0.013060333
000070 94 79 12 be 23 3c e1 bc 34 57 d7 3c 49 73 ac bc
       -0.14304191 -0.027494496 0.026286699 -0.021051066
000080 d1 8e 39 bd 05 87 57 bd af d1 c6 bd 02 ae 7c bd
       -0.045302216 -0.052619 -0.09707963 -0.061689384
000090 3f 24 9f 3d af 70 a3 bd 6c 79 aa bd e9 3e 26 3b
       0.07770585 -0.07980477 -0.08323941 0.0025367087
0000a0 6e 0f 5c bd 6c cb a9 bd f7 37 8b bc 1c 13 68 3d
       -0.053725652 -0.08290753 -0.01699446 0.05665885
0000b0 a0 b8 a2 bd 18 a5 fc bd d4 44 ae 3c 08 d9 25 bc
       -0.07945371 -0.12336177 0.021273054 -0.010122545
0000c0 c5 d6 42 3c 49 47 17 3e 1d 33 a7 bd 42 19 6a bd
       0.011892025 0.14773287 -0.08164046 -0.057152994
0000d0 4e a4 0d be e7 ad 63 bb fc 13 ca bd b5 27 38 3c
       -0.13832209 -0.0034741105 -0.09867093 0.011239936
0000e0 96 f5 00 3d 6a b1 74 bd 57 1d 8b bd ee 51 dd 3c
       0.03148421 -0.059739508 -0.067927055 0.027016606
0000f0 a2 c3 9f bd b2 04 ac bd f8 c5 02 3d ec c0 9f 3d
       -0.07800986 -0.08399333 0.03192708 0.07800469
000100 b3 5f f2 bc 47 4d 0e bd 86 aa 50 bd 1a 70 3b bd
       -0.029586649 -0.034741666 -0.050943874 -0.045761205
000110 cd 21 e9 bd 72 ea 74 bd 98 e0 67 bd 45 f1 cd bc
       -0.113834 -0.059793897 -0.056610674 -0.02513946
000120 92 12 e8 3c 00 a8 7d bd 31 20 fc 3b e0 62 82 bc
       0.028329168 -0.061927795 0.007694267 -0.015916288
000130 58 7e 6d bb 25 0a ef 3d 5a e5 28 bc f9 8e 4c bd
       -0.0036238637 0.11671857 -0.010308588 -0.049941037
000140 2c c9 7a bd 61 9f 85 3c aa d7 14 be 39 d9 bd bd
       -0.06122701 0.01631135 -0.14535394 -0.092699476
000150 9d f0 99 bd 54 42 42 bd 11 45 44 bd ea 11 5f bd
       -0.075165965 -0.047426537 -0.04791743 -0.054460444
000160 cf 7b ce bc 22 25 13 bd a4 a9 44 bc 5d 48 58 bd
       -0.02520552 -0.035924084 -0.012003336 -0.052803386
000170 1a 08 4f bd 41 a3 37 bd d5 24 50 bb 82 f6 66 3c
       -0.050544836 -0.044833425 -0.0031760235 0.014096858
000180 5e 7f a9 bd 24 b7 83 bd e2 2c 6c bd 62 a7 5b 3c
       -0.082762465 -0.06431416 -0.05765999 0.013406606
000190 4e b1 24 bd 60 40 07 bd 67 74 74 bd 65 d7 6d ba
       -0.040208153 -0.033020377 -0.059681322 -0.0009072929
0001a0 82 46 de bd 40 38 bc 3b 83 28 62 3b 57 59 96 ba
       -0.10853292 0.00574401 0.003450901 -0.0011470717
0001b0 ae f6 f1 bc 3e f4 ba bd 8d 9c e7 bc 06 20 2e 3c
       -0.029536571 -0.09128617 -0.028272891 0.010627752
0001c0 0e 51 13 3c 69 0e b7 bd 62 cb d0 3d a4 b8 5a bd
       0.008991493 -0.089382954 0.10195042 -0.053398743
0001d0 6c 3f 07 be 02 cf c1 bc 3b 54 d4 bd 31 54 b0 bd
       -0.13207787 -0.02365828 -0.10367628 -0.08609808
0001e0 ee d4 4a bd 58 c5 fc bc ca a9 10 3d d8 6a f4 bc
       -0.04951947 -0.03085582 0.035318173 -0.029836103
0001f0 2c b1 ba bd 5a bb 10 3d 82 6a e1 bc 0e d2 ae bd
       -0.09115824 0.035334922 -0.027516607 -0.085361585
000200 cf 48 c7 3b c8 35 6d bd 6d 33 98 3a db d6 b6 3c
       0.0060816775 -0.057912618 0.0011612006 0.022319248
000210 b9 b1 35 bd c5 8a 80 bd 8e 64 73 bd 17 5b c6 3c
       -0.044358943 -0.06276468 -0.05942207 0.024213357
000220 ae 4f 9b bd d2 8e ba bd 17 7a 3b 3d 3f 35 12 be
       -0.07583557 -0.09109272 0.04577073 -0.14278124
000230 58 5d bf 3c b8 4c db bc 96 76 04 bd be 2f 45 bd
       0.02335994 -0.02676998 -0.032339655 -0.048141234
000240 71 73 2a be ce 36 1a 3b cf 19 bc bc 8f 56 6a 3d
       -0.166456 0.0023531201 -0.022961525 0.057211455
000250 65 ea 6d bd 9e 42 42 bd 55 80 74 bd 55 54 dc bd
       -0.058084864 -0.047426812 -0.0596927 -0.107582726
000260 9d a7 7e bd ab d8 24 bd be 04 6e bc 4c 98 94 bd
       -0.062171567 -0.040245693 -0.014527498 -0.07255611
000270 e4 73 a7 bd 93 62 fc bc 29 48 16 bd 52 4c 0b 3d
       -0.08176401 -0.030808723 -0.03668991 0.03400833
000280 e4 67 a7 bd c0 77 08 be 48 a6 44 bd 04 da fa bc
       -0.081741124 -0.13326931 -0.04801014 -0.030621536
000290 66 d5 a1 bd a0 6f 91 bd 67 98 43 bd 9a 45 29 3b
       -0.07902031 -0.07101369 -0.047752764 0.002582884
0002a0 27 c1 bd bd 36 d8 63 bd 9e d5 75 bd 3a 7d 94 bd
       -0.092653565 -0.055626117 -0.060018174 -0.072504476
0002b0 fd 5e a6 bd 0a 2b e3 bd 87 ca ab bd c6 e0 14 3d
       -0.08123586 -0.110921934 -0.083882384 0.036347173
0002c0 10 50 16 3b 0b 86 2d 3e 73 33 88 bd ef 37 9e bc
       0.0022935905 0.16945665 -0.06650438 -0.01931378
0002d0 34 d4 7e bc 26 9a 01 3c cc 88 f4 bd 26 c9 82 3a
       -0.015553523 0.007910287 -0.119401544 0.000997816
0002e0 79 91 0d bd a2 13 a8 3c d7 f8 33 bc 72 3c 4c 3c
       -0.03456256 0.020517174 -0.010984621 0.012465583
0002f0 4c d5 13 bd d7 dc 68 bd 72 48 ec 3c fa 27 2a bc
       -0.036092088 -0.056851234 0.028843138 -0.010385508
000300 f2 f5 5e bc 1f 21 a1 bd ba 1d aa 3c ef 55 08 bd
       -0.013608443 -0.078676455 0.020766128 -0.033285078
000310 60 81 81 bd 34 5c a2 bd 56 4c 78 bd 58 1c f7 bd
       -0.063235044 -0.079277426 -0.060619675 -0.12065953
000320 53 a5 64 3c a6 6e 35 ba 9a b4 5b bd 36 dc 22 bd
       0.013955432 -0.000692109 -0.053639032 -0.03976079
000330 e7 33 c0 bc 94 24 83 3c d9 f4 de 3c 72 f5 8e bd
       -0.023462249 0.016008653 0.027216362 -0.06980409
000340 c0 f4 2b bd 5b a1 28 bd 13 57 c5 bc 25 d0 2e 3d
       -0.04198146 -0.041169506 -0.024089372 0.04267897
000350 a2 dd cd bd c3 ef 29 3a 5d 65 a0 bd d5 0b 65 bd
       -0.10052039 0.00064825657 -0.078318335 -0.055919487
000360 ef 7b 25 be 75 1d 80 bd 4d 2e 61 bc 3f ab 58 3c
       -0.16160558 -0.062556185 -0.013743949 0.013224422
000370 86 55 84 bd 74 5d a2 bc 52 79 a6 bc ca bc df 3d
       -0.06461625 -0.019819953 -0.020321522 0.109246805
000380 48 7e 82 bd 84 8d 35 3d ba 5c 2a 3d 40 f1 b8 bd
       -0.063717425 0.044324413 0.041592337 -0.0903039
000390 2d 5d 57 bd a6 65 6c bd 9c b8 f3 bc 71 6a 71 bd
       -0.052579094 -0.057714127 -0.029751115 -0.0589394
0003a0 0e ec a2 bc b0 9f 4f bd 39 f7 9d bd 7d a5 c9 bd
       -0.01988795 -0.0506894 -0.077131696 -0.098460175
0003b0 b3 d3 7f 3c a5 55 d5 bd ae 6e c6 ba 09 ed bc bd
       0.015614438 -0.10416726 -0.0015139186 -0.09224898
0003c0 1f 5a d9 bd 32 ff 91 bd f2 0a 1e bd 3d 45 69 bd
       -0.10612892 -0.07128753 -0.038584657 -0.056950796
0003d0 0e 82 83 bd 52 cf 5c bd b4 d6 ee bc 62 c7 f6 bc
       -0.0642129 -0.053908654 -0.029155113 -0.03012437
0003e0 00 35 b1 bd 0a 10 cf 3d 52 ae 05 bd 4b bb 4a bd
       -0.08652687 0.10110481 -0.032636948 -0.049495023
0003f0 ce 09 04 bd 49 df f5 bb 99 06 83 3b 9d 16 1a bd
       -0.032235913 -0.0075034243 0.0039985892 -0.037619222

bias f4 [256]
000000 e7 00 25 be ef 63 af bf a7 36 a8 3d ba 8f 11 bd
       -0.16113625 -1.3702372 0.08213549 -0.03553746
000010 81 45 bd bd d3 3b 9a bd 1e 0a e5 bd 08 ef 0b c0
       -0.092417724 -0.07530942 -0.1118357 -2.1864643
000020 ed 4e 8e bd 52 d8 18 bf 3a 7a f7 bd cf 82 ae 3e
       -0.06948648 -0.5970508 -0.1208386 0.34084174
000030 58 99 cc 3f 36 6c 35 bd 2a 0c 94 3d 43 d7 a7 3e
       1.5984297 -0.04429265 0.072288826 0.3278142
000040 87 44 00 be 9b 23 70 3f b2 85 71 be 58 8b 37 be
       -0.12526141 0.9380433 -0.23586157 -0.17924249
000050 16 84 77 3e 6b f4 8a 3e d6 4d b9 bd c4 cc 1a bf
       0.2417148 0.271396 -0.09048049 -0.604687
000060 32 79 97 3f b1 6e 1c c0 3c da 9b bf ca 5c 7f bf
       1.1833861 -2.444256 -1.2175975 -0.9975096
000070 ea 43 99 bf ac 16 4c bf fa ab 06 3f 5b 47 5c bd
       -1.1973851 -0.79722095 0.52606165 -0.053778987
000080 39 9a d6 bd 85 3b a7 bd 04 3d 31 bf ed 64 de be
       -0.104786344 -0.08165649 -0.6923373 -0.43436375
000090 e9 eb c2 be 17 7d 0a bf 34 f5 7d be 73 59 52 c0
       -0.3807061 -0.5409712 -0.24800569 -3.2867095
0000a0 af 6b 32 bf b3 8d b6 be cc cd 1a bd de 27 9f bf
       -0.6969556 -0.35654983 -0.03779392 -1.2434042
0000b0 92 65 4c bf 0f 05 de bd 1e 84 76 3e d6 38 a9 bd
       -0.79842484 -0.108408086 0.24073836 -0.08262794
0000c0 c3 ad 58 bf db 52 d6 be fd b5 08 3f 9c a0 e5 bf
       -0.8464014 -0.4186009 0.5340269 -1.7939639
0000d0 09 f7 00 3f 61 b9 1a bd ee 24 67 bf 0c 7c 6e 3e
       0.50376946 -0.037774447 -0.90290725 0.23289508
0000e0 80 69 3e bf fa 5a 48 bf 4c da 03 bf 01 37 b7 be
       -0.7437973 -0.7826382 -0.5150497 -0.35784152
0000f0 89 0b 2e be cb b6 66 bd a2 02 65 3e b7 08 ff bd
       -0.16996588 -0.05632667 0.22364286 -0.12452834
000100 27 ed 30 be bb d6 0a be b1 f9 6a bf ff 4c 29 bf
       -0.17277966 -0.13558476 -0.9178725 -0.6613311
000110 84 60 b5 bf 6b 73 83 be 10 93 ba bf 7f 61 38 be
       -1.4170079 -0.25673994 -1.457613 -0.18005942
000120 64 fe 26 bf e7 11 9e bf 3e 44 3e bf ce d6 07 be
       -0.6523192 -1.2349213 -0.7432288 -0.13265535
000130 da 9a 8b bf 16 19 35 be 55 f8 c4 bf e8 b4 da bf
       -1.0906632 -0.17685351 -1.5388285 -1.7086458
000140 d5 d5 f2 bd fe 71 f7 bf d2 38 bd bf a5 1e 80 3f
       -0.118571915 -1.9331663 -1.4782965 1.0009352
000150 3b 03 c8 3f 49 43 30 bf 11 30 0b bd 42 45 91 bd
       1.5625986 -0.6885267 -0.033981387 -0.07093288
000160 ba 4c 8d bf 62 1c a2 bd 62 01 0c be 82 97 48 be
       -1.103904 -0.0791557 -0.13672403 -0.19589046
000170 27 8a 97 bd 70 0e 30 bf 73 41 71 bd eb 83 04 c0
       -0.07399397 -0.6877203 -0.058900308 -2.0705516
000180 53 f2 d8 bf 5d a1 16 c0 9e 1b 26 be dc d5 ec be
       -1.6948951 -2.3535988 -0.16221473 -0.46256912
000190 9d 8f 21 bc b6 3d e4 bf ac 0b d6 bd 25 f9 e1 bf
       -0.0098609 -1.7831333 -0.10451445 -1.7654158
0001a0 da 57 71 bf 45 79 04 c0 30 8b 79 3f 6d 6e 03 be
       -0.94274676 -2.0699017 0.9747801 -0.12835093
0001b0 bd f2 b4 bf 7a c1 be bf 14 2f 14 be 3f 6e 62 be
       -1.4136578 -1.4902794 -0.14471084 -0.22112368
0001c0 5b e2 1c c0 e2 be 50 bf 64 c0 cc bd 4c ae f4 be
       -2.4513156 -0.81541264 -0.09997633 -0.47789228
0001d0 45 21 86 3e 07 9c 8d bf 1b 3f 76 be c2 d2 56 bf
       0.26197258 -1.1063241 -0.2404751 -0.8391534
0001e0 f0 85 f7 be b4 4c bf bd ed 6a 95 bd e0 29 29 3f
       -0.48344374 -0.09340802 -0.07295785 0.6607952
0001f0 da 28 b6 3d 45 33 89 bd 31 1b ee bd f7 88 80 3e
       0.088945106 -0.06699232 -0.1162628 0.25104496
000200 f0 ec b9 bf 06 96 0a bf 62 b6 48 be de 86 06 be
       -1.4525433 -0.5413517 -0.19600824 -0.13137385
000210 47 c9 be bc 42 38 ba bf 4f 1e d5 be 56 f2 48 bf
       -0.023289336 -1.4548419 -0.41624686 -0.78494775
000220 fd 38 ab bf dc db 69 be f0 dc 5a be 23 86 f0 bd
       -1.3376766 -0.22837776 -0.21373343 -0.117443345
000230 64 db 36 3e 78 2d 3a 3e b3 10 7a bf b7 51 52 bd
       0.17857128 0.18181407 -0.9768173 -0.05134746
000240 33 b7 cd bd 74 56 db bf 0d 9b 08 c0 c3 e7 1c bf
       -0.10044708 -1.7135758 -2.1344635 -0.6129114
000250 32 11 12 be 99 79 cf bf 0b 76 5e bf fe 93 56 bd
       -0.14264372 -1.6208984 -0.8689887 -0.05238723
000260 b7 fb 2f bd f8 b1 0d 3f 53 a4 25 be 73 02 04 bc
       -0.042964663 0.55349684 -0.16175966 -0.008057225
000270 6d 39 42 bd a6 12 20 3f 57 1e f1 bd 19 ea 36 bf
       -0.047418047 0.62528455 -0.11773365 -0.71450955
000280 d2 58 16 bf ec cc bf bd 1e 5a 2a 3e 4f 2b ee be
       -0.5872928 -0.093652576 0.1663594 -0.46517417
000290 39 c8 dc bc 39 89 62 3a 77 73 aa bd 97 a1 e7 bf
       -0.026950942 0.00086416636 -0.083228044 -1.8096188
0002a0 7c f6 13 bd 78 6a 88 bf 9d 9a f4 bd 11 3a da 3f
       -0.036123738 -1.0657492 -0.11943553 1.704897
0002b0 5e 77 b2 bf 1e c5 e6 bf 69 2f 9e be 42 fc ae bd
       -1.3942678 -1.8028905 -0.30895546 -0.08544208
0002c0 f5 b6 eb bf e2 4b 80 bd 81 bc 1f be f0 a1 92 3e
       -1.8415209 -0.062644735 -0.15599252 0.28639174
0002d0 c5 4d 9b 3e 10 8d 1d bf 6d cd 62 bd ab 67 12 bf
       0.3033277 -0.6154337 -0.05537169 -0.57189435
0002e0 f4 94 6a be 13 0e dc bf 4f 1d 16 c0 62 dc 81 be
       -0.22908384 -1.7191795 -2.3455389 -0.2536345
0002f0 c7 2d 27 3e 2f 7e 16 bd f7 b7 6f bf 4c df 28 bd
       0.16326056 -0.03674143 -0.93640083 -0.041228577
000300 60 8f 98 3f 35 1a 09 3e 88 2d 07 bf 2a 0f bf be
       1.1918755 0.13388903 -0.5280385 -0.37316257
000310 1b cc ac bf dd 78 02 bf 91 a3 00 be ba dd e6 bf
       -1.3499788 -0.5096567 -0.12562396 -1.8036416
000320 66 d8 04 bf f0 ad c3 bc c3 bb 24 bf 9c e0 be be
       -0.518927 -0.02388665 -0.64349 -0.37280738
000330 3a 13 f8 bf ae b7 79 be 20 29 05 bf 7d 3f f4 be
       -1.9380867 -0.24386474 -0.52015877 -0.47704688
000340 05 80 b3 be 05 97 9b be 65 94 09 3f 7f 45 14 bd
       -0.3505861 -0.30388656 0.5374206 -0.03619909
000350 d6 43 54 bf e9 8f ef 3c 89 b8 51 3f a6 1a 07 bf
       -0.8291601 0.029243426 0.81922203 -0.5277504
000360 e2 7d 88 bf 95 31 65 3f 31 8b f3 3d a7 51 e0 bf
       -1.0663416 0.8952878 0.11891783 -1.7524918
000370 40 35 ab 3f ae 52 09 c0 c2 91 28 bf 7a d0 77 bf
       1.3375626 -2.1456714 -0.6584741 -0.96802485
000380 40 29 22 bf 19 24 df bb fa fd 4a 3f 72 d4 fc bf
       -0.6334419 -0.006809723 0.7929379 -1.9752333
000390 a9 1e bf bc de ef 4b bd c7 71 f3 bd c2 87 18 be
       -0.02333005 -0.049789302 -0.11886936 -0.14895537
0003a0 61 84 8c bf 54 08 0a bf 61 30 de bd 7b 0d c6 be
       -1.0977899 -0.5391896 -0.10849071 -0.3868216
0003b0 11 13 96 bd 2f 99 26 bf de 3d ed 3d d1 5e 79 bf
       -0.073278554 -0.6507749 0.11584066 -0.97410303
0003c0 8a cd f3 be 5b 26 8b bf 9f e3 a2 bd 5f c3 f7 bd
       -0.4761775 -1.087108 -0.079535715 -0.12097811
0003d0 b4 22 52 c0 37 02 ab bd d7 37 b2 be 4c 42 98 bf
       -3.283368 -0.08350032 -0.34808227 -1.1895232
0003e0 25 d5 aa bf b1 32 00 c0 e9 f2 b1 be 2f 21 15 be
       -1.3346297 -2.003094 -0.34755638 -0.1456344
0003f0 a0 03 c3 bd ba bb e1 bf 64 48 da be 1d 3f c4 be
       -0.09522176 -1.7635415 -0.42633355 -0.38329402

weight f4 [3, 256]
000000 3d 88 0d bd 43 51 1a 3e 8b 59 53 be 34 7d bd bc
       -0.034553755 0.15070061 -0.20639627 -0.02313099
000010 ba 37 31 bb cb 01 9c 3d 2e bc 9e 3c d5 6e b6 3c
       -0.0027041272 0.076175295 0.01937684 0.022269646
000020 02 ed 20 bc f3 7a 56 3f 5c de 0b 3d fa 18 15 be
       -0.009822132 0.83781356 0.034147605 -0.14560309
000030 09 da 4b 3e e4 fd 73 bc 5a fd 5d be 63 81 ae 3d
       0.19907393 -0.014892075 -0.21678677 0.08520772
000040 85 32 91 bf 42 be c6 3e 53 f6 c0 bd be 9c a3 bc
       -1.1343542 0.3881703 -0.094219826 -0.019972201
000050 11 b4 16 3e a2 ed 01 be 34 66 93 bb 6c 28 70 bf
       0.14717127 -0.12688306 -0.0044982675 -0.9381168
000060 6c 14 d1 bc 92 d6 92 bd 5a 39 80 ba ab 41 a6 3c
       -0.025522433 -0.07169832 -0.0009782717 0.020294985
000070 9a 2e 8d be 2c 24 31 3f 9d 79 c8 be 94 52 8f 3c
       -0.27574617 0.6919582 -0.39155284 0.017495431
000080 f7 5d f5 bc 1c f6 94 bb 0d dd 06 3f 12 de 74 3d
       -0.029952032 -0.00454594 0.52681047 0.059782095
000090 ca c2 d1 3c 92 d9 cf 3d db 13 a4 bd 0c ca a4 be
       0.025605578 0.1014892 -0.080116 -0.321854
0000a0 54 b0 40 bd d6 01 78 3f e2 c1 3a bd af 19 9a bc
       -0.04704316 0.968778 -0.045595057 -0.018811075
0000b0 cc 4c 68 bf 01 19 9b 3d 11 00 5a 3e c1 38 a0 bc
       -0.9074218 0.075731285 0.21289088 -0.019558312
0000c0 81 36 2d bf 89 83 99 3c 14 3c a8 be a3 09 f8 bd
       -0.6766129 0.018739479 -0.32858336 -0.12111213
0000d0 8f 28 f2 3d e8 32 03 bd 41 8b 86 3e 2a 1a aa bd
       0.11824142 -0.03203097 0.26278117 -0.08305772
0000e0 b5 a8 62 3f 69 f2 06 3e 13 8f 0b 3e 38 97 4d 3f
       0.88538677 0.1317841 0.13628797 0.80308867
0000f0 3b ad 4c be 54 3a bd bc 4a de 6c bd 3d 3c ab bc
       -0.19987957 -0.023099102 -0.05782918 -0.020902747
000100 3b b4 39 bf c0 0f b0 3c 27 74 11 be 51 60 33 3f
       -0.72540635 0.021491885 -0.14204465 0.7006884
000110 e5 57 63 bf cb 29 2f 3f 2e 4c 42 3c fe 21 77 3d
       -0.8880599 0.68423146 0.011858983 0.06033515
000120 0b c5 1b 3b bf f4 13 3e 1d fd 75 3f ff 93 21 bd
       0.002376857 0.14448832 0.96089345 -0.03944778
000130 07 77 9e 3d 6d 32 96 bf 0b 9b ad bf 87 c0 54 3f
       0.077375464 -1.1734139 -1.356294 0.83106273
000140 f8 ee ba bb 78 13 67 be 9b 92 0d be a9 d5 a6 3d
       -0.005704757 -0.2256602 -0.13825457 0.08146221
000150 e1 78 05 3e b3 4a dc 3f c0 e1 0a bd e1 03 f8 bb
       0.13034393 1.7210296 -0.0339067 -0.007568822
000160 f4 c9 0b 3d d5 89 99 bc 5b 73 52 bc f7 0a c6 3e
       0.034128144 -0.018742481 -0.012844886 0.3868024
000170 88 77 ff 3a cb cc 0d bf 09 d0 8d 3d 7e 09 5c bd
       0.0019490579 -0.55390614 0.06924445 -0.05371999
000180 ac 9a 5a be 7c 0c 81 3e b0 86 d6 3d 4d 5a 59 bd
       -0.21348065 0.25204837 0.10474908 -0.053064633
000190 33 09 b8 bc 35 f0 3a 3f 3d 84 0c 3d c1 20 38 be
       -0.022465324 0.73022777 0.0343058 -0.17981245
0001a0 01 98 ef 3d 48 28 e1 3e 8c cb 02 3d b8 9c dc bc
       0.11698914 0.43976045 0.0319324 -0.026930198
0001b0 ef 96 3c be 9e 38 7a 3e 8e 49 24 bf 37 8c ac bd
       -0.18416952 0.2443566 -0.64174736 -0.08425181
0001c0 4e 05 21 3f d9 e4 15 bd 64 6f e0 3d 2d 24 13 be
       0.6289872 -0.0365952 0.10958746 -0.14369269
0001d0 63 fd 33 3e ae ec 0f 3e a8 b9 7f bd 03 86 08 3f
       0.17577128 0.1405513 -0.062432915 0.53329486
0001e0 93 f1 e1 3e ea 9f 85 bc bd d8 e8 bc cd 24 bd 3d
       0.4412962 -0.016311605 -0.028423661 0.09235535
0001f0 f4 c9 bf be 69 53 e6 3c 0b bd c2 bc 5f cf cd be
       -0.37458766 0.028115945 -0.023771783 -0.40197274
000200 60 ba 5b 3e 81 91 bc be 0a a8 08 3e d0 d3 d4 bc
       0.21457815 -0.3682976 0.13345352 -0.025979906
000210 01 15 8c 3d d1 37 90 bf 4d da 82 3e 4b 89 88 bf
       0.06839944 -1.1267034 0.25557175 -1.0666898
000220 a0 6b 85 bb d7 4c 4d 3d 78 8c 05 bd 34 0a 73 bc
       -0.004071668 0.05012211 -0.032604665 -0.014833976
000230 5d be 0b be 15 46 bd bf 33 3f 21 bd 95 f4 43 bc
       -0.13646837 -1.4787012 -0.039366912 -0.011960168
000240 cf 58 60 3c e4 cc 70 3e 06 bf c4 bd c5 89 3f 3e
       0.013693049 0.2351566 -0.09606747 0.18704899
000250 3c e4 9c bd 50 7b d9 bf 33 1a 4e 3d c3 a3 00 bd
       -0.0766072 -1.6990757 0.050317954 -0.031406175
000260 1f c5 b9 bc 05 c1 dd bd f1 3c 62 3c fd c6 d8 3f
       -0.022677002 -0.10827831 0.013808475 1.6935726
000270 f0 ea 99 bd 51 3f 39 3f 3b fa 4b 3c 5c cc ca bd
       -0.07515514 0.7236224 0.012449796 -0.0990226
000280 5f 6a 4b 3e 7d 1a e1 3d 13 60 a6 3e f4 e3 4f 3f
       0.19864796 0.1099138 0.32495174 0.81207204
000290 be f2 cc bc e3 e7 91 bd c0 e4 57 3d 5d 79 c5 bd
       -0.025018092 -0.07124307 0.052708387 -0.09642289
0002a0 1c 74 01 3c 59 af 4e bf 29 58 08 3d 88 6b f0 3d
       0.007901218 -0.8073631 0.0332872 0.1173926
0002b0 a6 c5 25 3e 14 86 81 3e 77 70 98 3d 7e 07 35 bc
       0.16188678 0.25297606 0.07443326 -0.01104915
0002c0 3b cc ad bf f0 72 c1 3d d4 df 05 3d 23 e6 b3 3e
       -1.3577951 0.09445751 0.032684162 0.35136518
0002d0 08 4e 4d 3f f8 37 d1 3d 02 2b cf bc 81 98 04 3f
       0.8019719 0.10215753 -0.025289062 0.517952
0002e0 93 9f ce be 54 8a 70 bc 71 c1 dd bc db b5 ec 3e
       -0.4035612 -0.0146814175 -0.02706978 0.46232495
0002f0 ee bb 66 3e 86 ce 86 bd d3 f4 a0 3f fc fd 2f bd
       0.22532627 -0.0658236 1.2574714 -0.042966828
000300 e5 9c fe bc 55 9b 73 3c 93 65 8b bf 5a d4 76 3e
       -0.031080673 0.014868577 -1.0890373 0.24104443
000310 a3 b4 3b bf 52 81 69 bd d3 d3 35 ba b2 4c 5a 3f
       -0.73322505 -0.057008095 -0.00069361663 0.8527328
000320 da ed d4 3f b2 c8 6f 3c ac be e4 3e ec f4 ab bd
       1.6635087 0.014635252 0.4467672 -0.083963245
000330 f8 d7 58 be a0 da 0b bf a1 7e f6 3a 9a 0b 07 3f
       -0.21176136 -0.5463047 0.0018806049 0.5275208
000340 a3 a0 88 be 69 c3 5f bd fd bb 35 3e 74 04 b5 3c
       -0.26685056 -0.054629717 0.17747493 0.02209685
000350 39 fb 44 be f7 11 85 bf 87 f1 76 3e 41 79 0b be
       -0.19236459 -1.0396107 0.24115573 -0.13620473
000360 2e a0 ae bd 03 6e db 3f b1 e8 b2 bf dd 47 79 3e
       -0.085266456 1.7142948 -1.3977262 0.2434382
000370 16 07 d9 3d d1 8c f1 be bb cb 6b be 9c 9f 19 3c
       0.10597055 -0.47177747 -0.23026936 0.009376433
000380 73 fb b3 3e 58 ce 23 3e f2 5c 9b 3d 27 17 cc bd
       0.35152778 0.15996683 0.07586087 -0.099653535
000390 15 79 10 3c ca 71 3b bb df 02 81 bc 65 92 9a bf
       0.008817931 -0.002860176 -0.01574844 -1.2075926
0003a0 b9 cc 47 3e b3 53 7a be 09 49 fe bc ca d0 7e 3f
       0.19511689 -0.24445991 -0.031040685 0.99537337
0003b0 33 4f 05 be 98 7d 3c be a2 a6 35 bf 4b 7b 3a 3e
       -0.13018493 -0.18407285 -0.70957386 0.18211095
0003c0 ab f5 60 3f 8a 79 e1 3d 7b a6 39 3c 1e 27 0f ba
       0.8787486 0.1100951 0.011331196 -0.0005460846
0003d0 1e 50 02 bf 58 93 ec be 30 9f 94 3c 35 29 45 3e
       -0.509035 -0.46206164 0.018142313 0.19254
0003e0 ec 66 94 3d 6e 56 37 3e 96 b8 0f be a9 65 25 3c
       0.07246193 0.17904064 -0.14035258 0.010095038
0003f0 16 02 c4 bc dc c6 02 3d 56 b7 05 3e 53 13 5d 3c
       -0.023926776 0.03192793 0.13058218 0.013493377

bias f4 [3]
000000 6e 07 42 bf 8e 1b 3d bf 37 40 28 40
       -0.75792587 -0.7387017 2.6289194

weight f4 [256, 14]
000000 46 98 46 c0 ee ba d6 3e 5d d7 5c be 0c a7 b5 bf
       -3.103044 0.4193949 -0.2156653 -1.4191604
000010 56 a6 aa c0 56 e1 15 bf e1 ff de 3f 30 1b 19 40
       -5.3328047 -0.5854696 1.7421838 2.3922844
000020 4e 07 06 c0 e5 8e 95 bf 9e 88 e2 be 22 d1 ea bd
       -2.0941958 -1.1684233 -0.44244856 -0.1146567
000030 1b a3 9e bc 16 ee 79 be 37 c0 05 c1 0f 75 b7 bf
       -0.019364884 -0.24407229 -8.359427 -1.4332598
000040 07 81 4f 40 59 c8 21 3e 4e ee d3 be e4 71 3a bf
       3.2422502 0.15799083 -0.4139275 -0.72830033
000050 55 c6 25 40 4b f4 32 bf 43 c4 af 3e c8 ef a5 3f
       2.5902302 -0.6990401 0.34329423 1.29638
000060 96 a6 09 3f af 9d 50 3e 7f ba 64 3f 83 67 98 3f
       0.53769815 0.20372652 0.8934707 1.1906589
000070 c0 26 09 3f ef 61 1d c0 48 0b 54 3f 9a d1 04 40
       0.5357475 -2.4591024 0.82829714 2.075293
000080 0e de bb 3f 8f e4 39 bf 59 3a 2c 40 2b c8 a7 3f
       1.4677141 -0.7261438 2.6910613 1.3107961
000090 dc 3f 92 bf f8 58 c1 be c3 52 d2 be 6b 92 ae bd
       -1.1425738 -0.3776319 -0.41078767 -0.08524021
0000a0 d2 bf 43 bd 41 b6 2c bf 55 76 c1 c0 d2 69 05 c0
       -0.047790356 -0.674656 -6.045695 -2.0845838
0000b0 b9 b9 45 40 41 d7 12 3f ea e0 c3 be 74 71 69 3d
       3.0894606 0.573597 -0.38257533 0.056992963
0000c0 2c ae e1 bc fa 17 39 3e 50 91 73 bc 22 14 32 bd
       -0.027548872 0.18075553 -0.014866188 -0.04347623
0000d0 28 b0 d6 3c e5 72 7c 3e 60 3b ce 3d b0 1b e1 bd
       0.026207045 0.24653204 0.10069919 -0.10991609
0000e0 66 ef 69 c0 20 0b a1 be 7d de 02 40 35 93 17 40
       -3.6552367 -0.314538 2.0448296 2.3683598
0000f0 e7 3b 3e be 3c ad af c0 e6 d1 21 c0 1e 55 a0 3e
       -0.18577538 -5.489897 -2.5284362 0.3131494
000100 aa c9 9f be d6 4d 92 bf 54 24 97 3e 92 22 43 3f
       -0.31208545 -1.1430004 0.29519904 0.76224625
000110 c0 3b 6a bf 80 ad 74 3f 49 97 76 c0 5b cf 59 bf
       -0.9149742 0.9557724 -3.8529837 -0.85082024
000120 39 b8 dc 3f 8b 9f 3e 41 bc c2 10 c0 5b ac ac 3d
       1.724372 11.913951 -2.2618856 0.08431312
000130 f6 e7 9f 3f 22 99 a0 3f 41 ca 03 bf a0 7c a9 3c
       1.2492664 1.2546732 -0.5148049 0.020689309
000140 01 e4 cb bd 4c 6d e1 3d 01 1f 36 3a de a8 ec 3e
       -0.09955598 0.11007175 0.0006947369 0.46222585
000150 fa f6 6c 3f 87 ba 6f be bf d1 b5 3f 5e 4c 05 40
       0.92564356 -0.23410998 1.4204634 2.082786
000160 60 e9 4a be c4 27 8c c0 ee 63 0f bf 0b 77 61 bf
       -0.19815588 -4.379854 -0.56011856 -0.8807227
000170 fe fa 2e 3f 9f f4 5a be be 18 8e be 5b 20 a2 bc
       0.68351734 -0.21382378 -0.27753252 -0.019790819
000180 d8 02 65 bf a6 0c d9 be 6f 99 df c0 2b 27 00 3f
       -0.89457464 -0.42392462 -6.9874797 0.50059766
000190 a3 3a 08 c0 2b 5e 39 bf 8a 9d ee 3f d3 2a 67 bf
       -2.128579 -0.72409314 1.8641827 -0.9029972
0001a0 d7 3f 80 bf 44 df 61 be f2 dd 4e bf dd d2 b8 be
       -1.0019482 -0.22057825 -0.8080741 -0.36098376
0001b0 07 c1 1a 3f 71 ca 20 bf e7 4e 77 be 1f 89 b0 3e
       0.60450786 -0.628089 -0.24151193 0.34479615
0001c0 68 32 60 3f 3a cb 17 40 73 54 e1 bf 3d 54 97 c0
       0.87576914 2.371779 -1.7603897 -4.729033
0001d0 51 93 cb bf f5 cf 71 3e ce ae 96 bf e3 de 87 bf
       -1.5904332 0.23614486 -1.1772096 -1.0614895
0001e0 b4 38 66 3f 2d 77 ed 3e 55 72 e8 bd 83 a0 49 3d
       0.8993027 0.46379986 -0.11349932 0.04922534
0001f0 9f 1b b1 3d 18 f1 98 be 0e c0 c6 bf 4c cc 1b c0
       0.086478464 -0.2987144 -1.552736 -2.4343443
000200 6a 90 56 40 f3 d3 18 40 74 10 ec be a3 31 81 3d
       3.3525643 2.3879364 -0.46106303 0.063082956
000210 a2 eb 6c be 40 ac c8 bc bd 98 01 3d 9d 9a b2 3d
       -0.23136762 -0.024496198 0.031639803 0.087208964
000220 e6 41 51 3c ac d3 e8 bd e1 96 83 3d 20 a3 79 be
       0.012772059 -0.11368498 0.06425262 -0.24378633
000230 17 3f 38 c1 56 94 3c 3f 09 bb bd bf 16 27 a3 3e
       -11.515403 0.7366384 -1.4822704 0.31865758
000240 ab 4d 59 40 37 bc c7 be 2e 6e 61 3f 7c e5 33 be
       3.3953655 -0.39010784 0.88058746 -0.1756801
000250 4d 25 3c 3f d5 09 c6 3e 98 52 8b 3e 19 bf 89 bc
       0.73494416 0.38679376 0.27211452 -0.016814755
000260 2a 4c 28 3e b2 63 99 3d c9 e4 3f c0 7f 8d a6 3e
       0.16435304 0.074897185 -2.998339 0.32529828
000270 39 da 4f be 47 44 f9 40 aa d0 c6 3e fe f5 b6 3e
       -0.20298089 7.7895846 0.38831073 0.35734552
000280 60 91 58 bf ef eb b4 3e c2 08 cf be 0b 9e 19 bf
       -0.84596825 0.35336253 -0.4043637 -0.6000678
000290 cc b8 aa bc b9 e7 54 bd dc af 35 3e 09 12 e0 3d
       -0.020840071 -0.0519788 0.17742866 0.1094094
0002a0 41 2c 58 c0 1b d7 cc bf 8b 19 83 40 c8 0f 0b bf
       -3.377701 -1.6003145 4.096868 -0.54320955
0002b0 05 17 8b bf a7 87 c9 bf 69 a5 08 c0 38 3c e3 3e
       -1.08664 -1.5744523 -2.1350958 0.4438188
0002c0 b2 2f 35 be 8c bd 23 bf 83 fd af 3e dd 0c 1b 3f
       -0.17693976 -0.639611 0.34373102 0.605665
0002d0 c9 63 75 3e b0 d6 0c 3f b5 1a ff bf b4 de 4d be
       0.23963846 0.5501509 -1.9930025 -0.20104486
0002e0 20 04 07 c0 fb 84 3c 40 12 6f 73 c0 76 0a 6b c0
       -2.1096268 2.9456165 -3.8036542 -3.6725135
0002f0 d8 1d 55 3e ae 68 3e be 89 e7 2d 3e a9 70 86 bf
       0.20812166 -0.1859462 0.16982855 -1.0503131
000300 99 0f 0b bf 49 85 8f bd 4c 08 cc bf fe a0 f9 be
       -0.54320675 -0.07007844 -1.5940032 -0.4875564
000310 75 6c 75 c0 fa b7 d9 bf db e7 7d bf e5 10 be 3e
       -3.8347447 -1.700927 -0.9918191 0.37122265
000320 41 a0 23 3f f6 03 a7 bd 85 40 9d bf a7 4d 98 bf
       0.63916403 -0.08155052 -1.2285315 -1.1898698
000330 65 9a 6d 3f 8d fa b2 3e f7 fe 72 3e 76 b6 b4 bd
       0.9281371 0.3495678 0.23730074 -0.08823864
000340 d9 11 38 bd d3 a5 40 3e fa 59 62 40 77 31 5e 40
       -0.044938896 0.18813257 3.5367417 3.471769
000350 2e b4 5d c0 06 4a 99 3f 29 67 60 3f 0c ef 69 3e
       -3.4641223 1.1975715 0.8765741 0.22845095
000360 c6 97 80 bd 0e d9 6a 3e 07 f4 e2 bd 55 aa 94 3d
       -0.062789485 0.22934362 -0.11081701 0.07259051
000370 b0 c8 df 3c e0 08 fb bc 19 08 0f 3e 84 36 9d 3d
       0.027317375 -0.03064388 0.13967933 0.07676414
000380 0e 6a 7d 40 5b 6e 03 c0 bf 98 83 bf 4e 6e b1 bf
       3.959598 -2.0536106 -1.028099 -1.3861787
000390 24 86 21 40 e0 10 e6 bf be 63 0d 40 69 f3 a6 bf
       2.5238123 -1.79739 2.2092128 -1.3043033
0003a0 f2 87 94 3f ca b6 8c 3d b5 a0 3a 3d 42 87 18 be
       1.1603987 0.06870802 0.04556342 -0.14895347
0003b0 a9 26 c1 be 1d 58 ce 3d 8b 71 d6 bf 16 58 c2 3d
       -0.37724808 0.100754 -1.67534 0.09489457
0003c0 1a b0 7f c0 1d 76 a5 be 89 5a cc bf 6d 08 53 c0
       -3.9951234 -0.32316676 -1.5965129 -3.2973893
0003d0 a9 22 0f bf 62 06 5f be 29 28 26 be e5 e6 41 3f
       -0.5591226 -0.21779779 -0.16226257 0.7574294
0003e0 e3 2e 73 be 09 97 82 bf 1e 40 9b 3d c6 3c cd 3e
       -0.23748355 -1.0202342 0.07580589 0.4008543
0003f0 c7 71 fd 3f d8 5a 92 bf 27 8f dd bf d7 09 65 be
       1.9800347 -1.1433973 -1.7309312 -0.22367035

bias f4 [256]
000000 55 af 65 c0 aa d9 30 c0 2f 2d 87 3f c0 9d 90 40
       -3.5888264 -2.7632852 1.0560664 4.5192566
000010 30 e2 2b c0 27 a6 c3 3f e0 94 85 c0 3a 8e d6 bf
       -2.6856804 1.5285081 -4.174423 -1.6762154
000020 6b 1f 38 c0 eb 17 c3 40 bb 51 8a c0 25 0d e9 be
       -2.8769176 6.0966697 -4.322477 -0.4551784
000030 fe f6 12 c0 3e 23 3b c0 84 1b 6c 40 ca a2 a0 c0
       -2.2963252 -2.924026 3.6891794 -5.0198717
000040 3f f4 7c c0 03 90 e3 bf 8e 90 12 bf 59 1c d4 3e
       -3.9524076 -1.7778324 -0.5725182 0.41427878
000050 d1 77 65 c0 31 33 a9 c0 f7 a7 ba be cd a1 f6 bf
       -3.585438 -5.287499 -0.36456272 -1.9268128
000060 6f 60 73 3f bd f9 5a c0 a8 06 9d 3f b9 3b 07 3f
       0.9506902 -3.4214928 1.2267656 0.52825505
000070 84 7f 70 bf af 5e eb 3f 25 56 4d 3e 3d 06 7c bf
       -0.93944573 1.838827 0.20052393 -0.9844702
000080 c2 2b cd 40 3f 56 27 bf 7a 69 b0 3f c8 a7 9d c0
       6.4115915 -0.65365976 1.3782189 -4.926731
000090 40 8b 7f 40 f6 b0 1d c0 63 8b 80 c0 d0 a4 6e 40
       3.9928741 -2.4639258 -4.017015 3.7288094
0000a0 50 b5 07 40 fd 20 14 c0 ca 88 5a c0 d8 fa 1e c0
       2.1204414 -2.3145134 -3.414599 -2.4840603
0000b0 d4 60 2b be b1 ec 81 c0 87 b1 42 c0 a1 8c 43 c0
       -0.16736156 -4.060143 -3.0420854 -3.0554583
0000c0 24 08 85 c0 3d 36 c8 be 4a 48 85 c0 7f 25 ee bf
       -4.1572437 -0.3910388 -4.1650743 -1.8605193
0000d0 c3 5d 14 c0 3c 1f 29 c0 d1 d5 8c c0 38 a3 88 c0
       -2.3182228 -2.6425314 -4.4011006 -4.269924
0000e0 b7 95 c5 3e 44 90 c7 40 c3 f1 12 bf dc 6a 6b c0
       0.38590786 6.2363605 -0.5740015 -3.6783972
0000f0 38 38 b2 bf 0e 16 d0 40 44 24 0f 3f e9 f2 ad be
       -1.3923407 6.502692 0.5591471 -0.33974388
000100 1b ca de c0 ef e4 7d bf d1 c7 2c c0 aa ec 9d c0
       -6.962171 -0.9917745 -2.6996958 -4.9351397
000110 cd 81 c3 c0 69 36 2b 40 1a 14 81 40 50 96 22 c0
       -6.109595 2.675196 4.033704 -2.5404243
000120 d1 6a 32 c0 b3 4c 00 c0 76 32 f5 3f fd 04 f3 be
       -2.7877696 -2.0046813 1.9156024 -0.47464743
000130 02 85 84 c0 ee 91 90 c0 4b 5a 56 c0 44 47 85 c0
       -4.1412363 -4.5178137 -3.349261 -4.1649494
000140 ff 87 08 c0 03 d2 22 c0 af a7 4c c0 71 15 85 c0
       -2.1333005 -2.544068 -3.1977346 -4.1588674
000150 3f 35 0f c0 fe 7c aa 40 a7 9d ba bf b4 0a 32 c0
       -2.237625 5.327758 -1.4579362 -2.7819033
000160 10 dc cc 3f 98 0e a8 c0 e1 13 06 c0 c4 8c 25 c0
       1.6004658 -5.2517815 -2.0949633 -2.5867167
000170 33 22 18 be d3 ff b1 bf 40 3f d4 3e 00 09 bf 40
       -0.14856796 -1.3906196 0.41454506 5.9698486
000180 55 0f 4b c0 d4 64 65 c0 d0 2d 62 40 5e 09 29 c0
       -3.1728108 -3.584279 3.5340462 -2.6411967
000190 d8 fd 18 bf 3f f0 68 c0 39 e5 42 bf 06 a3 1d bf
       -0.59762335 -3.6396635 -0.76131016 -0.6157688
0001a0 ca fd 4c bf b1 35 8c 3e ca ba 17 40 6f d5 92 c0
       -0.8007475 0.27384713 2.3707757 -4.588554
0001b0 a5 ae 34 bf 2d 58 88 c0 8a e4 00 40 72 f5 4a c0
       -0.70578986 -4.2607636 2.013949 -3.1712308
0001c0 43 ea b4 c0 d7 73 ab bf 5e b8 1a c0 da f0 d8 be
       -5.6535964 -1.3394727 -2.4175029 -0.42371255
0001d0 f9 6f ea bf d4 92 4a c0 0e f0 c0 be 48 bf 1a c0
       -1.8315421 -3.1652117 -0.37683147 -2.417925
0001e0 11 f5 a8 bf fd a0 8c c0 a0 1d 77 c0 e5 66 ec bf
       -1.3199788 -4.394652 -3.8611832 -1.8468901
0001f0 98 1d 8c c0 af 7d 37 3f 18 68 0f c0 08 34 88 c0
       -4.3786125 0.7167615 -2.2407284 -4.2563515
000200 a4 d8 92 c0 17 0b 47 c0 5d 1a ff 3f 10 07 f1 bf
       -4.5889454 -3.1100519 1.992992 -1.883028
000210 79 ae 3c c0 bf 23 6b 3e 5b 42 b0 c0 4c 23 2f c0
       -2.948149 0.22962855 -5.5081 -2.7365294
000220 bb a0 ec bf 3a 0b 3d c0 02 8f 19 c0 f5 c3 ed bf
       -1.8486551 -2.9538102 -2.3993535 -1.8575426
000230 4a 29 41 c0 4f f9 45 bf 06 2b 07 c0 a1 ed 38 3f
       -3.018145 -0.7733354 -2.112001 0.7223759
000240 b3 e2 90 c0 8f 3a 87 c0 19 39 e9 3f 76 6e 87 c0
       -4.5276732 -4.2258983 1.822055 -4.232234
000250 00 21 09 3f 4d a1 00 c0 70 3a 82 c0 9f ca b5 bf
       0.5356598 -2.009845 -4.0696335 -1.420246
000260 00 ff 58 c0 db 80 5e c0 cd ed 8e c0 bc 20 83 c0
       -3.390564 -3.4766147 -4.4665284 -4.097746
000270 51 ea ac c0 91 b8 b7 40 01 bf 54 c0 8d 60 9a 40
       -5.403603 5.74128 -3.324158 4.824286
000280 82 d3 d5 40 56 86 b1 c0 f5 1c a4 c0 1d cf 9b c0
       6.682069 -5.5476484 -5.128535 -4.8690324
000290 15 19 0b c0 d0 98 9f 3f 0c 7a fd bf 63 95 01 c0
       -2.173406 1.246851 -1.9802871 -2.0247428
0002a0 6f f8 b0 40 d3 d2 ce 40 12 3b e3 bf 46 63 7f c0
       5.5303264 6.4632354 -1.7752402 -3.9904342
0002b0 da dd a4 c0 80 e9 34 c0 82 36 af 3d de 4e 4a c0
       -5.1520815 -2.8267517 0.085553184 -3.1610637
0002c0 fb 89 9b bf 55 44 70 40 0b 3f 51 40 ab 77 27 c0
       -1.2151483 3.7541707 3.2694728 -2.616679
0002d0 1d 41 8d bf 8f 03 9e bf 7c a7 0c bf 99 44 87 40
       -1.1035496 -1.2344836 -0.5494306 4.2271237
0002e0 73 32 10 bf 2d 2e 03 40 a0 65 87 c0 19 85 90 c0
       -0.5632698 2.0496933 -4.2311554 -4.5162473
0002f0 a7 36 d0 40 d0 cc 60 c0 e4 e1 ad c0 e6 bc fe 3f
       6.5066714 -3.5125008 -5.4338245 1.9901397
000300 5d ec c6 3e 58 80 79 40 44 0f 48 c0 f0 86 14 40
       0.38852206 3.8984585 -3.1259317 2.320736
000310 eb fc f6 bf 8e e4 8e 3f 12 6a 87 c0 66 db d1 bf
       -1.9295934 1.1163499 -4.231698 -1.639508
000320 9b 17 f2 3e 7e ce c8 bf 2c b4 97 bf a9 dc 9f 3f
       0.47283635 -1.5688016 -1.1851859 1.2489215
000330 32 b1 9f c0 e8 26 ba 3f b8 0d 87 c0 95 c1 81 c0
       -4.9903803 1.4543123 -4.2204247 -4.0548806
000340 32 9c 2f bf 47 82 c0 c0 83 8f 84 c0 3f 66 94 c0
       -0.6859771 -6.015903 -4.1425185 -4.637481
000350 1c 19 4b 40 cd 75 aa c0 0d 99 89 3f e8 95 89 c0
       3.1734076 -5.32688 1.0749832 -4.299549
000360 a9 38 3a 40 fc 56 83 c0 22 e3 47 c0 75 9b 5a c0
       2.9097083 -4.104368 -3.123238 -3.4157383
000370 02 73 46 40 cd ab 9d c0 c7 b0 2b c0 9b 11 be bf
       3.1007695 -4.927222 -2.6826646 -1.4849123
000380 95 6b c5 c0 bb 69 4b c0 6c 84 19 c0 32 61 2c 40
       -6.1693826 -3.1783283 -2.3987074 2.6934323
000390 c2 c1 53 c0 16 b0 95 bf 08 13 29 40 35 a2 89 40
       -3.308701 -1.1694362 2.6417866 4.3010507
0003a0 9c ac aa c0 d6 b2 5a 40 89 87 9f c0 0d 71 eb 3e
       -5.3335705 3.4171653 -4.985295 0.45984688
0003b0 9b 24 54 c0 8f 4f a1 c0 b0 6f 62 c0 59 45 03 c0
       -3.3147342 -5.0409617 -3.5380669 -2.0511076
0003c0 43 f7 38 c0 8f 99 ff bf 38 0b 57 40 2f 76 04 3f
       -2.8900917 -1.9968737 3.3600597 0.51742834
0003d0 20 18 09 40 f2 63 3c c0 1a 07 ae bf 44 c9 32 c0
       2.1420975 -2.9436002 -1.3595917 -2.7935343
0003e0 9f e9 c5 3f a5 e4 a9 40 3b c8 27 c0 5e 4a 8b c0
       1.546192 5.3091607 -2.621596 -4.352828
0003f0 a4 5c 48 c0 0a 1a 60 bc 6b 8a 68 c0 2f c1 1d c0
       -3.1306543 -0.013678083 -3.6334484 -2.464916
