OrderedByEnvironments/Hopper/Hopper_ddpg/Hopper_ddpg_s234/pyt_save/model.pt (torch_old, 562918 bytes, 11 tensors)

weight f4 [256, 11]
00000000: 0624 b7bf aa54 023f fc7b fd3e e7b9 503f
00000010: 38f2 5a40 fe60 20c0 5de6 86bf f9bc 56bf
00000020: 6c71 d03d d489 903f bc66 4cbe b155 253f
00000030: d89c 573f 9d12 47be f3b2 09bf 10ea 923d
00000040: 1456 9cbe e2f1 86be aae4 fb3e 0823 a3bf
00000050: 0940 013f 910d 1a3f ee66 78be 4b32 a4be
00000060: a8da c040 5347 b93f 9c27 44c0 a556 04c0
00000070: f59d 2240 7ac6 453e 2928 4d3f d2e7 7f3e
00000080: 7b4d 9a3e f3e3 84c0 07f1 ffbd fbad f940
00000090: 233c 203f 388d 1dc0 2547 94bf fbf8 fcbd
000000a0: 76fc 863e 5b0c 8dbe d518 7f3d 99fb 7fbd
000000b0: 46a8 f7c0 e153 14bf bc4f 103f 52d8 823f
000000c0: 3700 8640 49ed c4be 2fe5 2a3f ef27 95bf
000000d0: ad4f 86be 4974 4cbf 6be2 8a3f f9fc bdbe
000000e0: afd1 f2bf bf08 9a3f 01b4 1b40 8c25 683e
000000f0: 75a6 86c0 0b96 983f d776 003f 3444 50bf
00000100: 92e1 8a3f af94 3abf 63b9 6a3f a6bb 793c
00000110: bf02 343e 7003 7340 5631 a240 af56 a2bf
00000120: eab6 683e 2527 893f 9045 003f 192c 93bf
00000130: e294 9e3f c74a 02c1 a78a 8e3f 72d6 ca3f
00000140: 1009 0741 fc00 5940 8026 ba3f a0da 163f
00000150: de7f 3dbf a5bd 7d3f d270 953f 99ae 503d
00000160: 678a 2ec0 5c5a 903f 82f1 f840 4c44 8040
00000170: b292 d0c0 af28 77bf b73c b6be e4d7 ab3e
00000180: a799 2fbe 483f f33d a599 013e a0ab 67be
00000190: ec24 ff3e a768 043f 9555 05c0 61ce f53f
000001a0: 7050 2dc0 bd0b e0bf b1b4 91be f2b6 883d
000001b0: c1f2 473f c54b a23f dc05 65c0 da51 babe
000001c0: 9ab9 3840 c45d 6bc0 2093 18c0 4d9e 9ebf
000001d0: 4611 80bf 5c4c 1cbf dc98 69bd 633d 8fbf
000001e0: 489f 7dbf 2c77 723d c3de 843f eb8c 9c3f
000001f0: d8a4 c540 92b2 2bc0 e1ec a23e 3ab9 23c0
00000200: 779d a1bf 9b9e 8a3f 4a02 82be 8161 2bbe
00000210: 80bd ddc0 7e34 2b40 f11d 65c0 cc7b 1e3f
00000220: 501f 17bf 226d 48bf ba2f afbe dfb2 863e
00000230: 3aea ccbe f6d2 8e3f 2008 0e3f 1fd5 bec0
00000240: e0e7 5fbd 6251 1d41 a244 b5c0 caca 50c0
00000250: 38b5 eabd 79b4 883f eb38 0840 51ce bebf
00000260: 68ef a7bf a999 733e 812d 3ac1 0ac2 0c40
00000270: 51e4 2ec0 b0fd 1d40 5411 7640 1129 0abd
00000280: b527 e43f bdc3 bebd 862b 20bf 119c b5be
00000290: 1844 233f dc63 8dc0 250a d93f c0fd 39bf
000002a0: 059e 1241 cef2 ae40 7aab 6e3f 6f15 7bbe
000002b0: 3e4d f0be e5b8 b73e 2e46 653f a7ed 97bf
000002c0: cba7 8e3f 8138 bf3f 4f8b 4940 3409 e440
000002d0: 686e 673f 476a 7cbf 9895 283e c551 d73e
000002e0: c3db b23f 6f77 dbbd b2b9 b1be 6f93 ddbd
000002f0: f236 9d3f 6e50 353f 55b6 123f e73a 4b3f
00000300: 877d 1ec0 9408 e13f 045f 41bf 6e02 e13e
00000310: 8e4e 943d e128 6ebe 962d 1e40 205d 4dc0
00000320: 150f cb40 0419 c9bf 92c9 d03f ebda abbf
00000330: 8521 44bf b38e cb3e 6acb 803e 092f 32bd
00000340: df11 bc3f a1c4 39c0 a41a 2240 975c c03f
00000350: f660 0a40 c58f 3640 d757 65c0 522a 7b3f
00000360: ed5e 443f 69dd 66bf f7b9 e7be d572 3fbf
00000370: 526c 01c1 c87a f93f dd93 c640 505c b8c0
00000380: d729 20bf e016 57bf 6f5e dcbf f691 0fbf
00000390: 4b1d f53b 275a 143e 8dc5 4a3f 770c 85be
000003a0: 4c66 0fc0 cac1 cf3f 77f4 e43e ae01 d4bf
000003b0: d6e3 4cbf 8d0d 1440 d643 b23e 8fb1 193e
000003c0: a628 df3d 2b73 b53d 8891 87bf c4c9 3c40
000003d0: 7c86 a0c0 1f3c df40 8442 6640 7aea 19bf
000003e0: e663 44bf 8d9c 1a3f 530d f3be 7d96 793d
000003f0: 886c 87bd 12ff fdbf 839e abbf 7d2c 323d
-1.4307868 0.5091044 0.49508655 0.81533664 3.4210339 -2.50592 -1.0539051 -0.838821
0.101778835 1.1292062 -0.19961065 0.6458388 0.842237 -0.19440694 -0.5378868 0.0717355
-0.30534422 -0.26356417 0.49197894 -1.2745066 0.50488335 0.6017695 -0.24258015 -0.3206962
6.0266914 1.4474891 -3.0649176 -2.0677884 2.540891 0.19313994 0.80139405 0.24990776
0.30137238 -4.152826 -0.12497144 7.802488 0.6259176 -2.4617443 -1.1584212 -0.12352177
0.26364487 -0.2754849 0.06227954 -0.0624958 -7.739291 -0.5794049 0.56371665 1.0222266
4.187526 -0.38462284 0.66755956 -1.1652812 -0.26232663 -0.7986494 1.0850347 -0.37107065
-1.897024 1.2033919 2.4328616 0.22670573 -4.2078195 1.192079 0.50181335 -0.8135407
1.0850089 -0.72883123 0.9168913 0.015242493 0.17579173 3.7970848 5.0685225 -1.2682704
0.22726026 1.0715071 0.50106144 -1.1497833 1.2389185 -8.143256 1.1136063 1.5846694
8.439713 3.390685 1.4542999 0.58927345 -0.74023235 0.991175 1.1675055 0.05094776
-2.7271974 1.1277575 7.779481 4.008337 -6.517907 -0.96546453 -0.35593197 0.3356315
-0.17148457 0.11877304 0.12656267 -0.22624063 0.49832857 0.51722187 -2.0833485 1.9203607
-2.7080345 -1.7503582 -0.2845817 0.06675519 0.7810479 1.2679373 -3.5784826 -0.36390573
2.8863282 -3.677598 -2.3839798 -1.239206 -1.0005271 -0.61054015 -0.057030544 -1.1190609
-0.9907117 0.059195682 1.0380481 1.2230505 6.1763725 -2.682774 0.3182135 -2.5581803
-1.262618 1.0829653 -0.2539237 -0.16736414 -6.9293823 2.6750789 -3.5799525 0.6190765
-0.59032154 -0.78291523 -0.342161 0.26308343 -0.4002245 1.115813 0.5548115 -5.9635158
-0.054664493 9.832369 -5.664628 -3.2623773 -0.11460346 1.0680076 2.128474 -1.4906713
-1.3119936 0.23789085 -11.636109 2.1993432 -2.7326853 2.4686089 3.8448076 -0.03373057
1.7824618 -0.09314678 -0.6256641 -0.35470632 0.6377578 -4.41844 1.6956221 -0.72652817
9.163579 5.4671392 0.932304 -0.24519895 -0.4693393 0.3588325 0.8956021 -1.1869401
1.1144956 1.4939119 3.1491277 7.1261234 0.9040284 -0.98599666 0.16463315 0.42054573
1.3973316 -0.107161395 -0.34711987 -0.10819136 1.2282393 0.7082585 0.57309467 0.7938675
-2.4764116 1.7580743 -0.7553561 0.43947166 0.072415456 -0.23257782 2.4715323 -3.208809
6.345591 -1.5710759 1.6311514 -1.3426183 -0.76613647 0.39757308 0.25155193 -0.043501887
1.4692954 -2.9026263 2.532876 1.5028256 2.162168 2.852525 -3.5834863 0.9811145
0.76707345 -0.90181595 -0.45259067 -0.74784595 -8.088945 1.9490595 6.2055497 -5.7612686
-0.6256384 -0.8401928 -1.7216319 -0.56082094 0.0074802986 0.14487515 0.7920769 -0.25986072
-2.2406187 1.6231015 0.44717762 -1.6563013 -0.8003515 2.313327 0.3481738 0.1500914
0.10896425 0.08859857 -1.0591288 2.9498148 -5.0164165 6.976089 3.5978098 -0.6012341
-0.7671493 0.6039513 -0.47471103 0.060934532 -0.066124976 -1.9843466 -1.3407749 0.04349946

bias f4 [256]
00000000: 63ee 86c0 65e9 90c0 f289 8cbf 9334 24c0
00000010: f0cf b6be 2665 c2bf 445c d2bf 2ba8 c5bf
00000020: 786f 83bf 3dcd 6ac0 35dd 94bf 79a6 12c0
00000030: a3c7 96c0 f86b 3cbf 3f93 583e 3d15 febf
00000040: 9083 2ec0 10c1 77c0 4cdb d0bf 8787 bebf
00000050: 92ec 67be 79f6 c2c0 8a00 4540 351c 04c0
00000060: 1a15 46c0 5881 92bf 89fb ebbe 62d5 82c0
00000070: f02f 27c0 5846 ca40 be30 39c0 9df8 a5bf
00000080: 73fd 5bc0 334e c2bf 414d 8ac0 5e1e 37bf
00000090: fb45 1040 a2bf a4bf 96be 913f 48e7 d0bf
000000a0: 9d28 f4bf 5ed3 b5bf ddc4 78c0 71fc fd3f
000000b0: 5f1b 86bf d0c9 41be 53e7 6040 e152 2ac0
000000c0: f044 b1bf 5a78 3f40 0a95 41c0 e150 c63f
000000d0: c485 49c0 38af 17c0 a735 30c0 981c dcbf
000000e0: eb92 4d3f 368f 92c0 3b95 8b40 e560 25c0
000000f0: cfd6 59c0 d6ab 0cbf 9da6 7ec0 d39a 48c0
00000100: adc9 c5c0 2a18 6ac0 60b0 e440 1ad6 99bf
00000110: fe55 5dc0 0f7c 6cbe 9a1d b9be 6e51 25c0
00000120: aa32 81c0 e982 3dc0 5577 4ac0 9513 5cc0
00000130: c41a 8b40 3562 fdbf e2c3 03c0 29d0 98c0
00000140: 57c3 2ec0 ed00 70c0 aec1 abbf ea31 69c0
00000150: faa8 bebe d6e5 0040 3287 61c0 c114 d3bf
00000160: 5d97 b4bf f1ff 2c40 8d02 c6bf 20ee 913e
00000170: 5b01 ecbf 8aa1 2fc0 30c3 49c0 0c26 83c0
00000180: 9cbd 0040 ac0e 0fc0 80f1 25c0 5972 4b40
00000190: 668d 75c0 05cd 29c0 2ad2 3bbf dc25 0440
000001a0: a419 a9c0 48b3 e140 4862 08c0 f128 a1bf
000001b0: e4f9 7ec0 07bd cfbe 75d5 babf 3045 febf
000001c0: 3e29 7fc0 8d33 75be e3c2 3dc0 4e22 e9be
000001d0: ae4c 38c0 543f c53f 3463 d2bf ae53 94bf
000001e0: 5cd9 39c0 14d6 dcbd 4589 5840 2c7e 8ac0
000001f0: 660f bd3f c347 a83f 50a2 c7bf 118a 09c0
00000200: 71d9 74bf 5555 1ac0 c5fe 23c0 871f 0540
00000210: 40d1 81c0 91b7 5ac0 e4d1 d240 d355 83c0
00000220: 372c 02be 49fd 86bf a4de 3cc0 d7b3 8fbf
00000230: 67df bdbe 9c9f d1bf 54b1 98be 2ea2 eebf
00000240: 060e adc0 2183 9ac0 99c1 a0be 8dfb 6ac0
00000250: 80fb 84c0 3ac5 35c0 19ee d2bf b490 4fbf
00000260: 8d82 8cc0 7786 11c0 aa4d 59c0 92e8 33c0
00000270: cb41 8ec0 f06c 97c0 2991 19c0 4ea9 54c0
00000280: f1e3 fd3d cbc8 39c0 139c 85c0 977d acbf
00000290: 8408 91c0 00be 3e3e d9dd ed3f 0399 a940
000002a0: 0b09 06c0 e1bd 6abf 6dad 22c0 64b8 04c0
000002b0: 83d4 a2c0 ed55 8640 76ad 6a40 a5f1 a3be
000002c0: d4af dcbf 3259 85c0 5b05 bf3e 7f48 893f
000002d0: 05c6 21c0 4c28 48c0 da95 5bc0 b6f3 aa3f
000002e0: ecc5 b7bf fe21 403d 83c2 05c0 67aa f2be
000002f0: 2413 4dc0 d813 5bc0 04fa 55c0 3f4c 2340
00000300: 7af7 2ec0 3236 48be 3d74 0bc0 bf12 8a3d
00000310: c1b2 b03f 0768 8fc0 6916 c93f c2b0 88c0
00000320: 34f5 45c0 be9e 71c0 348f 18c0 09a5 81bf
00000330: 8966 1dc0 ef11 883f 13b2 58c0 d946 3ac0
00000340: 278e 87c0 c822 463f db1f e0bf dfcb f4bf
00000350: 1c24 b4c0 753b 4cc0 ac37 72bf a0ad 3fc0
00000360: 0f91 3fc0 3284 a5bf 057b 49bf 2ccf 86c0
00000370: 2f96 48c0 e7c4 9bc0 2d11 aa3c ef0d 383f
00000380: 9ccd 96bf 0c2d e3bf 0844 9ac0 387b 04c0
00000390: 5d27 65c0 953a 61bf 391d 95c0 2b51 8040
000003a0: 1fc2 38c0 7a20 cfbf b9ca 723f 95e0 a9c0
000003b0: 8d5b 37c0 6dae 7a40 4625 db40 f608 f2bf
000003c0: 1753 ebbf 57c4 84c0 3808 f5bf ff60 17c0
000003d0: 8c27 8cbf c723 56c0 7c89 37c0 c8fa a13e
000003e0: 2d3d 91c0 87cc 96c0 a86c 7ac0 4314 5f3f
000003f0: 73d0 f33f ed27 d2bf 427d 53c0 e1d5 56c0
-4.2166 -4.5284905 -1.0979598 -2.5657089 -0.3570552 -1.5187118 -1.6434407 -1.5441946
-1.0268393 -3.6687768 -1.1630007 -2.2914107 -4.7118697 -0.7360225 0.2114992 -1.9850231
-2.72678 -3.8711586 -1.6316924 -1.488511 -0.22648838 -6.092587 3.078158 -2.0642216
-3.095038 -1.1445723 -0.46090344 -4.0885477 -2.6123009 6.321087 -2.8936 -1.2966496
-3.4373443 -1.5180115 -4.3219304 -0.7153071 2.2542713 -1.2870982 1.1386287 -1.6320581
-1.9074894 -1.4205129 -3.8870156 1.9842664 -1.0477103 -0.18924642 3.514119 -2.6613085
-1.3849163 2.9917207 -3.0247216 1.5493432 -3.1487894 -2.3700695 -2.7532747 -1.7196226
0.80302304 -4.579982 4.3619666 -2.584039 -3.4037359 -0.549497 -3.9789193 -3.1344497
-6.1808686 -3.6577249 7.14653 -1.2018464 -3.4583735 -0.230942 -0.36155397 -2.583095
-4.0374346 -2.9611151 -3.1635334 -3.4386952 4.3470173 -1.9795595 -2.0588307 -4.77541
-2.7306726 -3.7500565 -1.3418481 -3.6436715 -0.37238294 2.014028 -3.5238767 -1.6490709
-1.4108692 2.7031214 -1.5469528 0.28501987 -1.8437914 -2.7442346 -3.1525383 -4.0983944
2.0115728 -2.2352705 -2.592865 3.1788542 -3.8367553 -2.6531384 -0.7336756 2.0648108
-5.28438 7.053135 -2.1309986 -1.2590619 -3.984002 -0.40573904 -1.4596392 -1.9864864
-3.9868922 -0.23945446 -2.96502 -0.45533985 -2.8796802 1.5409951 -1.6436524 -1.1588037
-2.9038916 -0.1078302 3.3833783 -4.327902 1.4770324 1.31469 -1.5596409 -2.149052
-0.9564429 -2.4114583 -2.562425 2.0800493 -4.056793 -3.417454 6.5881214 -4.1042266
-0.12712179 -1.0546046 -2.951089 -1.1226758 -0.37084505 -1.6376834 -0.2982279 -1.8643243
-5.407962 -4.828507 -0.31397703 -3.6716034 -4.1557007 -2.8401628 -1.6478912 -0.81080174
-4.3909364 -2.273832 -3.3953652 -2.81107 -4.4455314 -4.732048 -2.3994849 -3.3228335
0.12396992 -2.9028804 -4.175302 -1.3475827 -4.5322895 0.18627167 1.8583328 5.299928
-2.094302 -0.9169598 -2.541835 -2.0737543 -5.0884414 4.197989 3.6668372 -0.32020298
-1.7241158 -4.167138 0.37308773 1.0725249 -2.5277112 -3.1274595 -3.4310212 1.3355625
-1.4357276 0.046907417 -2.089997 -0.47395632 -3.2042933 -3.4230862 -3.3433847 2.5515287
-2.7338548 -0.19551924 -2.1789696 0.06741857 1.3804551 -4.4814487 1.5709964 -4.271577
-3.093091 -3.7753139 -2.3837404 -1.012849 -2.4593832 1.0630473 -3.3858688 -2.9105742
-4.2361026 0.7739682 -1.7509722 -1.9124717 -5.629408 -3.191129 -0.946162 -2.9949722
-2.9932287 -1.2930968 -0.7870334 -4.2127895 -3.1341665 -4.867786 0.020760143 0.7189626
-1.1781497 -1.7748122 -4.8208046 -2.0700207 -3.5805275 -0.87980014 -4.659817 4.009908
-2.8868482 -1.6181786 0.9484058 -5.308665 -2.8649628 3.916896 6.8483 -1.8908985
-1.8384732 -4.1489673 -1.9143133 -2.3652952 -1.0949569 -3.3459337 -2.8677664 0.31636643
-4.5387177 -4.7124667 -3.9128819 0.8714029 1.9047989 -1.6418434 -3.3045201 -3.3568041

weight f4 [256, 256]
00000000: f691 84bf b481 48bf e81e 31bf ce90 b1bf
00000010: fd52 173e ec0d 323f ac20 443e 36ac 363f
00000020: 7b72 95bf 4fb0 923f 4c84 78bf 7c4e 13bf
00000030: d8fd b53e 9621 02bf 9ba8 123f bf75 9f3e
00000040: 444a cdbf 9eb2 80be 1485 0ac0 45f3 37bf
00000050: e0a4 213e e997 403f 909a 36bc 382a 6fbf
00000060: 39ab c6bf 93d2 b0bf 1049 82bf 0690 6cbf
00000070: 016e 74bf 9b0d 51bf 77ee aa3e 8b4a 063f
00000080: e0c1 35bf 5ebc 393d 04da c13f 82d3 6abf
00000090: d5f0 35bf 3751 063e d628 8d3e 0914 c5be
000000a0: b5b0 26bf 1629 b7bf 81db b43f 0428 8dbf
000000b0: f707 17c0 7bfe 23be a126 84bf ecae 673e
000000c0: bba7 42be 3ba4 25c0 3833 afbe 6a46 d0bf
000000d0: d5ee d0be 59b1 a5bf 31c2 d6be 7041 2bbf
000000e0: 144e 5bbf 23e1 f1be 18b6 93bf 3145 1e3c
000000f0: 2aab a0bf 3aea 0ac0 52a0 7a3e a7a0 073f
00000100: 0bef 4e3f fd9c 673f fe7e afbf 9bcd 743f
00000110: 717a 063d 39b1 f73e 0510 913d bd68 31bf
00000120: dfa9 f1bf 2b84 66be 3e75 85bf 1bf9 1bbf
00000130: 8b4a 243f 469f cbbf 03fb 8bbf 8cc6 a63f
00000140: bd53 abbe 8983 213d 0e85 143f 0e2a d83e
00000150: b725 5b3d 5c39 8abe 5506 d4be 48a3 04bf
00000160: aec8 41be c339 bbbe 6382 bdbe 5241 93bf
00000170: fc2d e9bf c9e7 713f 216a 6ebe 0bdf 13c0
00000180: fa16 6fbf ba34 1c3f 2bc6 0dbf b4ce 91bf
00000190: cb9d d4bc f828 a2bf 5f7c 25bf 33bf f0bf
000001a0: b9e0 03c0 b0ae d0bf baf2 11bf e1f9 53bf
000001b0: 35ba 243e 5b48 4d3f f789 f1bf 0afb 1e3f
000001c0: bea1 04bf 0180 803f fa54 0f3f b3f2 98bf
000001d0: 3836 a8be 5800 20c0 f9d2 f3bf f140 173e
000001e0: 3292 82bf 6f18 aabf b7b8 62bf 9aa0 2bbb
000001f0: 2d85 04c0 962c 84bf d574 143f 8e8d 18be
00000200: 19fd c5be a70f 05c0 ca41 87bf 2ed4 83bd
00000210: 768b 2d3f 51d3 f4bc 659d a7be 9808 30be
00000220: 6045 8cbf 0025 0e3e 389b 963e fccd 2fbe
00000230: 8876 4dbc 374b 21bf abb9 4b3e 1422 533f
00000240: 9ee4 8a3e 559c 2cbf daf8 6abf 759e e3bf
00000250: b26e b9bd 3c3f 9bbf 3694 083e 52ca 09bf
00000260: b070 eb3d a97b 9bbf 3414 82be ba6d 8fbe
00000270: 62bd c5bf 718e 5e3d 3ec2 e3bf c8ce 49bd
00000280: 7c6c 473f 16a6 5c3f 5d0e 7f3f 720a 403c
00000290: bcd8 99bf d025 02c0 e20b 9ebe b640 04c0
000002a0: 8982 a5bf d83e aebe 5422 1cbf fb8c 883e
000002b0: eff5 81bf 2cfa cabf dece 65bf c1ed 1c3c
000002c0: 3ec4 b13e 6a74 073f e740 81be 5925 0bbf
000002d0: 9ee0 b6be ae89 63be 7600 693e c4a5 e6be
000002e0: 58d0 42bf 216a f7be 33b7 953d e598 91bd
000002f0: dc35 3fbf 56a9 a1bf 3316 bcbe 5b44 c8bf
00000300: 4ae6 143f 2b79 95be 99b9 9bbe a7ce cc3e
00000310: b06f e4bc 7813 cfbf e4e1 2dbf 6a70 5a3f
00000320: 96f0 533d e5d6 fa3e 18c5 38be e067 e23f
00000330: 1a42 9b3f 6966 bfbe 0570 293f 9963 c7bf
00000340: 8d7d d8be 81e6 c7bf 9419 a4bf 332d 123f
00000350: b78c c5bf 4002 a13e 5bb0 8f3f 5f9f d5be
00000360: d216 9c3d a83f 2dbf 3a13 083f f4d3 04bf
00000370: a130 983f 7fa4 89bf ece2 93bf ce94 37be
00000380: 4a0b 35be ee41 73bf a30f 833e c09b fbbf
00000390: 6168 12be 86d8 25bb 5692 0f3e 402c a4bd
000003a0: e299 13bf b070 e7be c0bc abbe 6e4d 2a3e
000003b0: cbc4 05c0 6bda 76bf dff0 d6bf b4b0 5e3f
000003c0: 99f9 01bf 6e71 e7be 237e 1bbf 7c40 ec3c
000003d0: 61a3 15be b9d0 7dbf d699 91bf 5227 0dbf
000003e0: 899b d23e 7844 f7bc 1f3a 14bf 3c97 c4bd
000003f0: 49f5 a4be 1246 443f 5adb c9bf 98f6 573d
-1.0357044 -0.7832291 -0.69187784 -1.3872316 0.14777751 0.69552493 0.19153088 0.71356523
-1.1675562 1.1460055 -0.9707687 -0.5754163 0.3554523 -0.508325 0.5728852 0.3114452
-1.6038289 -0.25136274 -2.1643724 -0.71855575 0.15785551 0.75231797 -0.011145249 -0.93423796
-1.5521003 -1.3814262 -1.0178547 -0.9240726 -0.9548035 -0.81661385 0.3338506 0.52457494
-0.70998955 0.045345657 1.5144658 -0.91728985 -0.71070606 0.13116919 0.27570218 -0.38491848
-0.65113384 -1.4309413 1.4129487 -1.1027837 -2.3598611 -0.16015045 -1.0324289 0.22625321
-0.19009297 -2.5881488 -0.34218764 -1.6271489 -0.40807214 -1.2944747 -0.4194503 -0.66896725
-0.8566601 -0.47242078 -1.1539946 0.009660051 -1.2552235 -2.170546 0.2447522 0.5297951
0.808335 0.9047392 -1.371063 0.9562623 0.032831613 0.48377398 0.070831336 -0.6930044
-1.8879966 -0.22511356 -1.0426404 -0.6092698 0.64176244 -1.5907981 -1.0935978 1.3029342
-0.33462325 0.039432082 0.58015525 0.42219585 0.053502765 -0.26996887 -0.4141108 -0.5181165
-0.1892421 -0.36567506 -0.3701354 -1.1504309 -1.8217158 0.944943 -0.23282672 -2.3104885
-0.93394434 0.61017954 -0.55380505 -1.1391206 -0.025954148 -1.2668753 -0.646429 -1.8808349
-2.060591 -1.630331 -0.57010996 -0.8280316 0.16086657 0.8018853 -1.8870229 0.62101805
-0.518093 1.0039064 0.5598904 -1.1949066 -0.32853866 -2.500021 -1.9048759 0.14770867
-1.0200865 -1.3288707 -0.885631 -0.0026188255 -2.0706284 -1.0326107 0.5799077 -0.14897749
-0.3866966 -2.0790803 -1.0566952 -0.064369544 0.67790926 -0.02988592 -0.3273727 -0.17190778
-1.0958672 0.13881302 0.29415298 -0.1716842 -0.012540467 -0.63005394 0.19895045 0.82473874
0.27127546 -0.67426044 -0.9178597 -1.7782732 -0.090543166 -1.2128673 0.13337788 -0.5382434
0.11496103 -1.2147113 -0.2540604 -0.28013402 -1.544842 0.05433506 -1.7793653 -0.049269468
0.7789991 0.8619093 0.9963129 0.01172124 -1.2019267 -2.033558 -0.3086844 -2.0664496
-1.2930461 -0.3403232 -0.6098988 0.2667006 -1.0153178 -1.5857596 -0.8976878 0.009578169
0.34720033 0.5291201 -0.2524483 -0.54353863 -0.35718244 -0.2222049 0.22754082 -0.45048344
-0.7609916 -0.48323157 0.07310333 -0.071092404 -0.7469156 -1.2629802 -0.36735687 -1.564586
0.58163893 -0.29194006 -0.30415037 0.40001413 -0.027885288 -1.6177816 -0.67922807 0.8532778
0.051743113 0.48992077 -0.18043935 1.768795 1.2129548 -0.3738282 0.66186553 -1.557727
-0.42283288 -1.5617219 -1.2820306 0.5710022 -1.5433568 0.3144703 1.1225694 -0.41723153
0.0762154 -0.67675257 0.5315434 -0.51885915 1.188984 -1.0753325 -1.1553626 -0.17927858
-0.17680088 -0.95022476 0.25597867 -1.9656906 -0.1429763 -0.002530606 0.14020666 -0.080162525
-0.5765668 -0.4520316 -0.33542442 0.166311 -2.0901363 -0.9642703 -1.6792258 0.8698838
-0.5077148 -0.45203727 -0.60739344 0.028839342 -0.14613105 -0.9914661 -1.1375072 -0.55138123
0.4113429 -0.030184016 -0.57901186 -0.09599158 -0.32218388 0.7666942 -1.5770066 0.052725405

bias f4 [256]
00000000: 2f51 c3bf 620e b4bf 2d03 dabe 53e4 31bf
00000010: 14cb 3abf a326 f2be c1e2 81bd 06c7 f7bf
00000020: e1f6 1fbd f8de e4bf 786d 44bb 0f95 5740
00000030: 6680 c93b 6a28 d4be 8e31 07c0 169c ddbf
00000040: fb3b c2bd 2bc1 94bd 8d4e 26be a431 84bf
00000050: 803d 693c 333d d23d bc5f c7bf 50a1 2ebe
00000060: 1dd7 71bd b26a 273f de7c 0cbd b8bc bbbe
00000070: a610 7bbf aafd 94be 4eee c8bf 9ea0 a4bf
00000080: ec5d 03be 545e 07bd 42da dbbf cd25 8e3f
00000090: d7f1 cb3d d21b c6bd 8c7b 23bd c416 8abe
000000a0: 9e70 b2bc 319c 58bd 1703 d1bd 8bb0 023e
000000b0: 2365 91bd 6864 13bd 4ef8 febe b0ca 0f3f
000000c0: 9cef 34bd fb6b d6bf aaec dbbc 8e30 05be
000000d0: adad e5bd 685d 79bd b522 cbbf b4c3 abbd
000000e0: a53d 42bd 5dfc e7bf bad3 09c0 1f61 33bd
000000f0: b5e9 6dbd 5142 babf a059 08bc 8505 32bd
00000100: 84cf cfbe c48a bbbd e9f5 b8bd 4cfa 7dbe
00000110: ec05 5bbd e591 33be 253f d4bd 001c 77bf
00000120: 3837 e8be a7d7 243f a644 603f ef3c 72bf
00000130: eeb9 ddbf b5cf 50bc 8a9c dabf 9bde 6d3e
00000140: 8022 aebe 84d7 603f 4771 c6bf 8b1d 5cc0
00000150: 2146 18bf d315 f4bd dd74 90bf 7d04 08c0
00000160: 7ce0 55bf 3a8c 473f 7c0c bcbe 9912 73bf
00000170: 0ecd 36be 768d de3f 8ddb 12bf 5c49 61be
00000180: 936c 13c0 e43c 3cbf e1ba 28bc 2097 be3c
00000190: 6d1b 86bd e783 243f 5428 2ec0 e8fa f23f
000001a0: a813 52c0 8ff9 4dbf 998b 8cbd e4b4 8abd
000001b0: 80ea fbbe edba 09bd 495d 88be 19ae fdba
000001c0: 7cf5 0cbe e269 1fbd 4448 0ac0 a293 5dbd
000001d0: 0120 8ebe 841d c2bf 3467 b2bf 8293 ccbc
000001e0: 1e16 1fc0 d073 13bd b051 92bf 974d 95bf
000001f0: 530e f5bf f673 7dbd 48ae c7bf 5e17 febd
00000200: 6b7d 5640 876b dfbd 40c5 a0bf ae52 c5bd
00000210: 8e7d 7ebf 7120 70bf 78a6 eabe 015d e0bd
00000220: 6efd ffbd 7101 b7bd dc11 e83f 4783 1bc0
00000230: 541a 94bd c737 14c0 5284 c1bf 67ca d8bd
00000240: fb5b 9fbe 0c5b afbd dbaa b7bd d8a3 1cbf
00000250: 416b 9ebd a899 d3bd 6579 e6bd b33d 48bd
00000260: 6451 07bd 3fae 04be f54b eabf 1a06 9abf
00000270: 9324 ef3e 6ee5 a5bf 1c67 693b e75b 08bd
00000280: 2887 a2bd 99bc 6fbc 4052 afbe adf6 5dbe
00000290: be91 76bf 1cf3 55c0 1a69 313c 4839 17bf
000002a0: b345 93bf 03ad 0140 5376 83bd d146 0dbf
000002b0: 3832 74be 5049 02c0 3806 02bc 11b4 a2bf
000002c0: 8dc0 7abf b3f5 91bf 6b6e 1fbf 41d7 20c0
000002d0: 9abe bfbc 6c85 f4bf d3c8 f6be 1bb6 dbbf
000002e0: 9efa ddbc 8183 7dbd 3664 1fbe c7e6 d7bc
000002f0: b1fd 30c0 a0b8 37c0 b5b1 ecbc 5b5a 71bf
00000300: 3c8f efbf b0e8 17be 5779 24c0 354a 833f
00000310: 5c2f a0bf 1d4a 81bf 64f7 bcbd ef9e 0bbd
00000320: 14ce 923c 2017 cd3e 86f8 d6bf db70 f93d
00000330: 0936 20be 098f 98bf fb13 0fbf eb32 6ebd
00000340: 1ca1 b1bf e0aa 04be dcc5 fdbd 7249 f1bf
00000350: 57c4 5e3c 705d a9bf 2dd7 b03f a913 d2bd
00000360: 797a 463e 1caa b6bb 3f8d 59bd a75d 8abf
00000370: b9ce 0640 8e19 85be 25f8 403d e5d2 603f
00000380: 2631 1ebd 51b7 693e 2330 29bf 1972 3bbf
00000390: c163 05be c2c7 113f d1ce 5dbe 7341 dabf
000003a0: 0f17 dbbd 3d48 553f c318 fdbe dac0 fe3e
000003b0: ae82 b9bf 8397 00be e806 1ac0 42e0 31bd
000003c0: ae8f 02c0 b104 893e da14 5abd 7527 c0bf
000003d0: 1218 52bf 288e c8bc 0079 9fbe 79dc bfbd
000003e0: 768d a5bf d90f f6bf ea82 f1be 517c 27bd
000003f0: 3aa8 66be 7d7c cbbd 1150 a0bf 07dd 19be
-1.525915 -1.4066889 -0.42580548 -0.6948902 -0.7296612 -0.47295102 -0.06342078 -1.9357612
-0.0390538 -1.7880545 -0.0029972475 3.3684728 0.0061493395 -0.41437083 -2.1123996 -1.7313259
-0.094840966 -0.07263406 -0.16240902 -1.0327649 0.014235854 0.10265579 -1.5576091 -0.17053723
-0.05904304 0.6539718 -0.03429877 -0.36667418 -0.9807228 -0.2909978 -1.5697725 -1.2861516
-0.12828797 -0.033048943 -1.7175982 1.1105286 0.09958237 -0.09673275 -0.039912745 -0.26970494
-0.021782216 -0.05288333 -0.102056675 0.12762658 -0.070993684 -0.035984427 -0.49798816 0.5616865
-0.04417382 -1.6751703 -0.026846249 -0.13006803 -0.11214767 -0.060880095 -1.5869967 -0.08386937
-0.04742207 -1.812389 -2.1535478 -0.043793794 -0.05808421 -1.4551488 -0.0083221495 -0.043462295
-0.4058801 -0.09157327 -0.09031279 -0.24802512 -0.053472444 -0.17536123 -0.10363606 -0.965271
-0.4535463 0.6439156 0.8760475 -0.9462423 -1.7322366 -0.012744834 -1.7079022 0.23229448
-0.34010696 0.8782885 -1.550332 -3.4393032 -0.5948201 -0.11918225 -1.1285664 -2.125274
-0.8354566 0.77948344 -0.36728275 -0.9495025 -0.1785166 1.738692 -0.5736626 -0.2200064
-2.3035018 -0.7353041 -0.010298462 0.023265421 -0.065482 0.64263767 -2.7212114 1.898282
-3.2824497 -0.8045892 -0.06862564 -0.067727834 -0.49202347 -0.033625532 -0.2663367 -0.0019354253
-0.1376552 -0.038919337 -2.1606607 -0.05409587 -0.27758792 -1.5165257 -1.3937745 -0.024972681
-2.485725 -0.03599912 -1.1431179 -1.1664304 -1.9144996 -0.061878167 -1.5600061 -0.12406801
3.351405 -0.10909181 -1.2560196 -0.096349105 -0.9941033 -0.937995 -0.4583013 -0.10955239
-0.1249951 -0.08935822 1.813045 -2.4298875 -0.07231584 -2.3159044 -1.5118506 -0.1058548
-0.31124863 -0.08562288 -0.08968135 -0.61187506 -0.07735301 -0.10332042 -0.11253623 -0.048886966
-0.033036605 -0.12957095 -1.830443 -1.2033112 0.4670759 -1.2960641 0.0035614436 -0.03329077
-0.07935935 -0.0146323675 -0.3424244 -0.2167613 -0.96316135 -3.3429632 0.010828281 -0.5907178
-1.1505646 2.0261848 -0.06419053 -0.5518618 -0.23847282 -2.0357246 -0.007936053 -1.2711202
-0.9795006 -1.1403106 -0.6227786 -2.513138 -0.023406316 -1.9103217 -0.48200092 -1.7164949
-0.027097043 -0.06189299 -0.15565571 -0.02635516 -2.765484 -2.8706436 -0.028893331 -0.94278497
-1.8715587 -0.14834857 -2.569906 1.0257021 -1.2514453 -1.0100743 -0.092268735 -0.034087118
0.017920531 0.40056705 -1.6794593 0.121797286 -0.15645613 -1.1918651 -0.5588986 -0.058154028
-1.3877292 -0.12955809 -0.12391254 -1.8850539 0.013596616 -1.323164 1.3815666 -0.10257656
0.19382657 -0.005574478 -0.05311322 -1.080983 2.1063673 -0.2599606 0.04711165 0.878218
-0.03862109 0.22823836 -0.66089076 -0.73220974 -0.13026334 0.5694543 -0.21660925 -1.7051224
-0.106977575 0.8331335 -0.49432954 0.4975651 -1.4493005 -0.12557797 -2.4066715 -0.04342676
-2.0400195 0.26761392 -0.05324254 -1.5012041 -0.8206798 -0.024481848 -0.31147003 -0.09368224
-1.2933795 -1.9223586 -0.47170192 -0.04089004 -0.22525111 -0.09935854 -1.2524434 -0.15025721

weight f4 [3, 256]
00000000: f46d c03f e7b8 28c0 a514 7ec0 e535 9640
00000010: efce b4bf ace7 4c40 2eba 543d e0fb 393f
00000020: f704 49bc 255d 8abf 81a7 42bd 0e31 f3be
00000030: e56b 9f3f 5315 3340 b439 debf ceda 3340
00000040: 1ac5 46bd 61b9 77bc 7ebf a63d 4a49 b6bf
00000050: a17c a1c0 2633 dd3f 6fd0 7540 b149 ebbc
00000060: a21e 4dbb 7aad 1340 218d 36bf 0c0f d73e
00000070: cca8 97bf 5543 34c0 8f5a 283f 83b4 b93f
00000080: bd44 65bd c0a7 23bc a17d 3ec0 56ef 903f
00000090: 8ecf fb3e 1b84 82bd bc58 36bb 6373 37bf
000000a0: 23cc 403f a806 a6bb bf3a 83bc f5dd e2bf
000000b0: f766 ee3b 8629 51bc a6a7 17c0 5180 00c0
000000c0: d583 f7bc 7b9d 19c0 222a 4abb d8a1 353d
000000d0: 34d5 863c 8264 373b a9a9 873f 2258 633d
000000e0: 13ef bf3c d5ef 97bf cbeb d43f 25c4 623f
000000f0: 1bf2 a03c fb48 a5bf ce10 2fbc 711d 85bd
00000100: a1de 623f 08ff 66bd 97b7 613c 2bbc 2ac0
00000110: 7dcf 26bc 644e 9abc 76b4 e9bb 07c6 b7bf
00000120: a003 5d3e 1c8a 233e 0029 0fbf f106 12be
00000130: 218d 0541 0e5c 11bd 0e8f b7bf aa33 02c0
00000140: 35c0 5abe f684 3abe 508f 82c0 8dff e4be
00000150: 7ec1 863f 5822 60bc 34f4 27c0 2027 59c0
00000160: 5644 463f 7296 aa40 cead 0c40 707b 4cc0
00000170: 5e2b a4bd b95e 82bf f7b0 9b3f 066b bebf
00000180: 92c6 3240 3e65 91bf 6476 5cbc ced7 68bd
00000190: c6ee b7bd c549 8abf a5f9 11bf e6b1 bbbe
000001a0: 9252 4b3d a52d 05c0 018c 10bc 951b 06bd
000001b0: 3d70 3c40 e8c9 79c0 f435 223e 36db 413c
000001c0: 363f 9cbe f185 223d 4415 d8bf dba9 f53c
000001d0: 34d8 903e 9592 15c0 28f7 f9be 6656 6b3d
000001e0: f397 80be 12b2 97bb e265 493f 0641 4d3f
000001f0: 80ae fabd b585 aa3c 8de3 94bf c310 ed3f
00000200: 7743 cabf b8cb 54bd a632 a6bf e666 253e
00000210: 9881 d53f 72ed 7dc0 f56e 4b3f 3a2b 0bbc
00000220: 4162 a63c 49b5 2ebd 47b4 38c0 d3ed 8e3f
00000230: 6538 d03f f432 b3bf c394 6fbf 38e2 593c
00000240: 6a30 6cbe 6626 eabb 0cfa da3c 1a44 94bf
00000250: bab6 9c40 7da7 f03c d935 ae3f 5a8a 043d
00000260: 7aad d9bc c4e0 67bd fa1b 6940 e068 6e3f
00000270: 1706 6040 f988 7bbf 529e 0cbc 32e2 843d
00000280: 6657 6f3d 0c74 e4bc 14c4 ce3f fc38 653d
00000290: 963d b740 f635 d03f 41f9 0abd 9825 75bf
000002a0: 4d19 2840 b98e d1bf 3d3b 2f3c 8aa8 723e
000002b0: 702c aa3f 6082 583f 31f4 9bbb 2335 81bf
000002c0: 8b16 34c0 2d0a 8b3f 239c e0bf 02d1 d3bf
000002d0: 68ad 8d3b 5dee 75c0 ea10 413f 1c29 1bbe
000002e0: 851d ac3c 7a3b b33b ae5f 2dbf 39e1 89bb
000002f0: bdd7 01c0 58c1 d5bc 2066 56bd d8f6 1440
00000300: 37dd 7f40 fabc 85bd b643 27bf 882d 0d3f
00000310: 5f18 8cc0 9c09 68bf 71a4 32bd f2cd 743a
00000320: d172 bebc 370d 8340 abf9 35bf 10c6 65bf
00000330: d5aa 56bf 0ad3 24c0 38b9 863f 13c7 cc3c
00000340: 6d26 39be b86a 073d c9eb 9c3d c4b6 58c0
00000350: dee5 3abb f882 3d3f 6009 13bf 01f1 ea3c
00000360: da23 a23f 4ae8 f83c d83d b9bc d2c8 4abf
00000370: 81a2 0540 d897 423c 66ed 0e3f 7744 0e3f
00000380: 3fc7 853e 8be5 e3be 3481 8440 f40f 01c0
00000390: b088 fbbb 0ca7 a13f d7f5 fe3c b233 443f
000003a0: 37d2 1abd c39d ae3f 10f6 5737 4f46 41bf
000003b0: f9a4 efbf 3fa7 313d 8abf eabf 1b11 223c
000003c0: 1903 0dc0 8e42 02be dd15 20bd ef45 1740
000003d0: ae97 59bf 71d2 773d 6bdd 69bc 5c1a 9b3d
000003e0: 3bdc e03f b170 3540 69c1 a240 cd4b e2bb
000003f0: 6271 2abe 2ddc 31bd 53f2 4bbf 9838 1dbd
1.5033555 -2.6362855 -3.97001 4.694079 -1.4125651 3.2016401 0.051935367 0.72649956
-0.01226925 -1.0809675 -0.047523025 -0.47498363 1.2454802 2.7981765 -1.736136 2.8102298
-0.048527814 -0.015119881 0.08141993 -1.4241116 -5.0464635 1.7281234 3.8408468 -0.028721662
-0.0031298776 2.3074632 -0.71309096 0.42003667 -1.1848388 -2.8166096 0.6576318 1.4508213
-0.055973757 -0.009988725 -2.9764178 1.132304 0.4918179 -0.06372853 -0.0027823886 -0.7166044
0.7531149 -0.0050667115 -0.016019223 -1.7723986 0.007275458 -0.012766248 -2.3696074 -2.0078318
-0.03021423 -2.4002368 -0.0030847867 0.0443438 0.016459085 0.0027983491 1.0598651 0.055503972
0.02342943 -1.1870066 1.6634458 0.8858054 0.019646695 -1.2912897 -0.010685159 -0.06499756
0.88620955 -0.05639556 0.013776681 -2.6677349 -0.010181305 -0.018836208 -0.0071321083 -1.4357308
0.21583414 0.15970653 -0.55921936 -0.1426046 8.346955 -0.03548818 -1.4340532 -2.0344033
-0.21362384 -0.18214783 -4.079994 -0.4472622 1.0527799 -0.013680063 -2.62428 -3.393013
0.7744802 5.330865 2.1981082 -3.195034 -0.08016084 -1.0185157 1.216338 -1.4876411
2.7933698 -1.1359022 -0.013455961 -0.056846432 -0.08981089 -1.0803763 -0.5702155 -0.36659163
0.049639292 -2.080911 -0.008822442 -0.032741148 2.9443505 -3.9029484 0.15840894 0.011832049
-0.30516976 0.039678518 -1.688149 0.02998822 0.2828995 -2.3370717 -0.48821378 0.057455443
-0.25115928 -0.004629382 0.78671086 0.8017734 -0.122403145 0.02081571 -1.1631943 1.852074
-1.5801839 -0.051952094 -1.2984207 0.16152534 1.6680174 -3.9676175 0.7946618 -0.008494193
0.020310523 -0.042653356 -2.8860033 1.1166328 1.626721 -1.3999925 -0.9358637 0.013298564
-0.23065343 -0.0071456907 0.02673056 -1.1583283 4.8973055 0.02937674 1.3610183 0.032358505
-0.026571978 -0.056610838 3.6423326 0.93128777 3.5003717 -0.9825588 -0.008582668 0.06488456
0.05843296 -0.027887367 1.6153588 0.055962548 5.726268 1.6266468 -0.033929113 -0.9576049
2.6265442 -1.637168 0.010695276 0.23697105 1.3294811 0.84573936 -0.0047593345 -1.0094341
-2.813876 1.086248 -1.7547649 -1.6548159 0.00432365 -3.8426735 0.75416434 -0.151524
0.02101017 0.0054697366 -0.6772412 -0.004207757 -2.0287926 -0.02609317 -0.052343488 2.3275661
3.997877 -0.06530185 -0.65337694 0.551476 -4.377975 -0.9063966 -0.043613855 0.00093385496
-0.023248108 4.095363 -0.7108409 -0.89755344 -0.8385442 -2.5753808 1.0525274 0.02499727
-0.18081065 0.03306076 0.0766216 -3.3861551 -0.002851836 0.7402797 -0.5743618 0.028679373
1.2667191 0.030384202 -0.022612497 -0.7921268 2.0880435 0.011877023 0.5583099 0.5557322
0.26128575 -0.44511065 4.140772 -2.0165987 -0.0076762065 1.2629104 0.031123085 0.7664138
-0.037798133 1.3641895 1.28722895e-05 -0.7549791 -1.8722221 0.04337239 -1.8339703 0.009891774
-2.203314 -0.12720701 -0.03908335 2.3636434 -0.8499707 0.060503427 -0.014273982 0.07573387
1.7567209 2.8350031 5.0861096 -0.006906009 -0.16644815 -0.043422867 -0.7966663 -0.03838405

bias f4 [3]
00000000: 9791 cf3e e79d bbbe 4eca 9ebe
0.40540764 -0.36643907 -0.3101372

weight f4 [256, 14]
00000000: f44f 4e40 a6be 4cc0 40a9 ea3f e3ff 52bf
00000010: 59dd c73e 753c 853f 59ad d8bf 329b e63d
00000020: 7c61 10be 2bc1 c6bd 6d7f 20be afef b2bc
00000030: 2b4f 903d 85d9 c0bd 7643 8140 dcb9 5440
00000040: 4350 38c0 a0bd cabf 5bb8 5abe 5f55 bfbd
00000050: 6283 3f3f 1a26 023f 177d b5be 0b54 38be
00000060: efee efbc 67f1 3e3d 96c7 adbc 5a2b 28bd
00000070: 28c6 80c1 7973 6f3f 9b29 7ac0 fce3 29c0
00000080: d506 44c0 287f 6e3f 5b82 d6bf 3a9f 363e
00000090: 6a1f 9abe c1b4 e9be 825d 08be 2f21 f0bd
000000a0: b750 a5be e256 24bd b7f8 db40 f19f dcc0
000000b0: 61d3 fa3f da12 f33f 8d09 ecbe 7074 6f3e
000000c0: ddc5 853f c6e5 5cbe 7bf6 eabc 2f47 f13d
000000d0: 6756 5c3d 1e1d 9bbe 5857 01bc 26b0 3c3e
000000e0: 8823 ef3f e313 2740 ce10 96bf e840 6dc0
000000f0: 092f 453e 8879 08bd 13fd d13d 873e 34bf
00000100: cd0d f53e 07cd 2c3e 7551 713e 6284 8cbd
00000110: 285a 8fbd 8ab7 913e 7cf0 57c0 ec18 87c0
00000120: f927 9ac0 3daa f0be 69bb e9bf 0529 043e
00000130: 4cca c9bf dccc 763f 0314 47bf 3487 2dbf
00000140: ec64 5ebe b1c1 64bd b928 34bc 3b3e b0be
00000150: ee2f 16c0 85fa 2dc0 11b5 f43f f1dc 1941
00000160: 1430 2d40 52bb 8e3e b4ab d23f 4e43 d83f
00000170: a4c4 b0bf d79c c6be c22e 56bf a40d df3d
00000180: b4e6 af3c 15f6 9cbf 9cb2 1f40 e8fb bfc0
00000190: e76e ef40 408d 3e40 8010 66bf f638 abbe
000001a0: 30bc 243e a7aa 80bf 53bd 6d3f fcb4 1d3f
000001b0: 2a04 da3d edf2 853d 2997 ecb8 bf73 32bd
000001c0: e0e2 b7be ebb4 003e 1956 de3e 59f6 2a40
000001d0: a06a f8bf e8e7 aa3c 74e5 91bf 4f81 b1bf
000001e0: 8713 7d3f 57c8 db3e 4798 8abd 79d6 9abe
000001f0: 573f 9cbd 72c3 49be 9b51 48c0 089c 12bf
00000200: 2712 9bbf 8d47 17c0 0a29 cabe c7c6 793f
00000210: d591 a7bf ad9d 94bc 0f43 65be 9cd6 30be
00000220: b346 52bc 10a6 afbe a950 38be de37 5abe
00000230: d904 40c0 0256 4ec0 43cb c13f ccee 913e
00000240: 8739 c7be 3fe1 4ebf 95d3 f83e 81fb fc3d
00000250: 9c67 78bf 7ed7 4ebf dcbf 51bf a0e0 f8be
00000260: 95c1 14bf 96a2 163d 378c d2be 5cc9 8bbf
00000270: 4e71 14c0 6f3b 63c0 4f9a 3b40 f3f5 f4bf
00000280: 1baa 2040 57a7 bb3e 55a3 373e 7ece c4be
00000290: 346a 8f3e b486 df3e 4ef2 1abf fc45 a13e
000002a0: 3193 d4c0 5ed7 0e3f 9678 6b40 9a6a 52c1
000002b0: 25da c73e 8759 28bf 2f9d 8d3f ed39 0e3f
000002c0: 4820 a7be 2450 ed3d 49b4 163c d699 5bbd
000002d0: 2356 b93d 44b5 403d 47fd bc40 aa9b 3fc0
000002e0: 83ba 323f c47b 693f 1045 0abf 121b f0bd
000002f0: 07c4 3b3f b029 1abf 47d7 c33e b657 8a3e
00000300: f3a6 29bd b0d7 02be 4714 6abd a8a8 b8bd
00000310: 5b2a 1f40 a803 ac3f 254a c7bf 8a80 763e
00000320: 2faa 8940 aabc 6c3f 80a1 e0be 2a1c 97bf
00000330: b25b 953f 6552 1f3f 96a8 04be 0b4f 623e
00000340: b404 ea3d 9191 82bd 6e4b bac0 1edd f7bf
00000350: fedc 913f 0700 e0be 6dbf c9c0 ecb4 44be
00000360: a720 1dbe afc8 9ebd aa46 fd3c da0a 9bbb
00000370: 5095 85bf 60d9 cb3c 8339 d53c 5a85 49be
00000380: 33af 403f 9ea2 e8c0 d6fc 9840 99ea 0640
00000390: 5be1 65bf e0f0 cbbb 5143 f0be 10a5 9cbf
000003a0: b61a 003d 78f9 913d 0b15 9d3d b56a ebbd
000003b0: 64d6 cebe 3208 39be 4da3 a0c0 01b1 0dc0
000003c0: 7ae4 acc0 ef3e b540 1d93 a7bf d2ed e8be
000003d0: c59b 91bf 12ef 243e bbb2 4b3f fe66 783e
000003e0: be71 f5bd a76f 6f3f 47ea 463d 6dbd 043e
000003f0: 4d77 24c0 08aa 693f 7c6a 6940 78cd 453f
3.22363 -3.1991363 1.8332901 -0.824217 0.39036062 1.0409075 -1.6927902 0.1126007
-0.14099687 -0.097048126 -0.15673609 -0.021842806 0.0704635 -0.094164886 4.039485 3.323844
-2.8798988 -1.5839119 -0.21359389 -0.09342455 0.7480985 0.5083939 -0.35446998 -0.1800081
-0.029288737 0.046616938 -0.021213334 -0.04105697 -16.096756 0.9353557 -3.9087894 -2.65454
-3.062917 0.93162775 -1.6758531 0.17834178 -0.30102092 -0.45645717 -0.1331692 -0.11725079
-0.32288143 -0.04012192 6.8741107 -6.894524 1.9595758 1.8990128 -0.46101037 0.23384261
1.0451008 -0.21572027 -0.028681984 0.11781155 0.053793337 -0.30295652 -0.0078943595 0.1842657
1.8682718 2.6105888 -1.1723878 -3.7070866 0.19256224 -0.033319026 0.10253348 -0.7040791
0.47862092 0.16875087 0.2356623 -0.068611875 -0.06999618 0.28460342 -3.374053 -4.221792
-4.8173795 -0.47004882 -1.8260318 0.12906273 -1.5764861 0.9640634 -0.7776491 -0.6778443
-0.21718186 -0.05584878 -0.010996037 -0.34422478 -2.3466754 -2.7184155 1.9117757 9.616441
2.7060595 0.2787729 1.645865 1.689554 -1.381001 -0.38791534 -0.83665097 0.108912736
0.021472313 -1.2262598 2.4952765 -5.9995003 7.482288 2.9773712 -0.89868927 -0.33441895
0.16087413 -1.0052079 0.9286701 0.61604285 0.106453255 0.06540475 -0.00011281513 -0.043567415
-0.3591528 0.12569015 0.43425062 2.6712859 -1.9407539 0.020862535 -1.1398149 -1.3867587
0.9885792 0.42926285 -0.06767326 -0.30241755 -0.076292686 -0.19703463 -3.1299808 -0.57269335
-1.2114915 -2.363742 -0.39484435 0.97568935 -1.309138 -0.018141592 -0.22388862 -0.17269367
-0.012834239 -0.34306383 -0.1799952 -0.21310374 -3.0002959 -3.2239995 1.5140156 0.285025
-0.38911077 -0.8081245 0.48598924 0.12352658 -0.97033095 -0.80797565 -0.8193338 -0.48608875
-0.5810788 0.036776148 -0.411226 -1.0920825 -2.3194156 -3.5505025 2.9312932 -1.9137558
2.5103824 0.36651108 0.179334 -0.3843879 0.28010714 0.43657458 -0.6052598 0.31498706
-6.6429677 0.55797374 3.679235 -13.151026 0.3903362 -0.6576161 1.1063594 0.5555714
-0.32641816 0.11587551 0.009198257 -0.053613506 0.090496324 0.04704787 5.9059176 -2.993876
0.69815844 0.91204476 -0.5401163 -0.11723913 0.7334599 -0.6021986 0.3825018 0.27020043
-0.04141898 -0.12777591 -0.057148244 -0.090165436 2.4869602 1.3438616 -1.5569502 0.24072471
4.3020244 0.9247538 -0.43873215 -1.180547 1.1668608 0.622351 -0.12954935 0.22100465
0.11426678 -0.06375421 -5.8217077 -1.9364355 1.1395566 -0.4375002 -6.3046174 -0.19209641
-0.15344487 -0.07753121 0.030917484 -0.004731518 -1.0436192 0.024883926 0.0260284 -0.19679776
0.7526733 -7.2698507 4.780864 2.1080687 -0.8979699 -0.006223783 -0.46926358 -1.2237873
0.031275474 0.071276605 0.07670029 -0.11494962 -0.40397942 -0.18069533 -5.019934 -2.2139285
-5.40289 5.6639323 -1.309177 -0.45493942 -1.1375662 0.16106823 0.79569596 0.24258038
-0.11984585 0.9352974 0.048563268 0.12962885 -2.5697815 0.9127507 3.6471243 0.77266645

bias f4 [256]
00000000: 439a 8cc0 66df cbc0 a4c8 12bf d896 42c0
00000010: 6e55 33c0 16c5 50c0 6160 38c0 3df1 59c0
00000020: 6e9c 7940 e6d3 bbbf 3c73 89c0 612f 96c0
00000030: 41bf a9c0 3f84 57c0 12bf 80c0 3fe5 4fc0
00000040: 5e6f d0c0 c3b8 0cc0 a71a 97bf bf54 ef3e
00000050: 6c2b 533f 30d4 8f40 88bf b5c0 091b 0ac0
00000060: 06d2 0bc0 96e7 fcbf 0454 87c0 11ef 60c0
00000070: 669c 04c1 6a44 aec0 bceb 8f40 ba55 c0c0
00000080: de05 d7c0 5dd6 96bf 3f97 98bf 52d9 c5c0
00000090: 1796 d040 2bad 4cc0 4157 8ac0 87b0 a940
000000a0: 489d b2c0 a5b5 cac0 a8e1 5c40 d76d 55c0
000000b0: 2db0 b3bf ae08 83bf eed0 8bbf bfab cfc0
000000c0: b28d 6c3f 2620 90c0 c097 27c0 71a4 07bf
000000d0: 3e95 75c0 7ff4 cb40 3e63 bc40 83db 0f40
000000e0: dd9e 873a 7a24 93c0 ba51 c840 e01f cd40
000000f0: ddd9 9abf 21ff b0c0 0a9a f2c0 c2c8 f0c0
00000100: 11a8 24c0 1652 d23e 324a 0dbf a602 f340
00000110: 5eba 8dc0 2efb e2bf cc85 dc40 2a3e 15c0
00000120: d8fa 3540 1f1e 8940 64d6 4140 a212 28c0
00000130: 1bda 61bf c2d0 f0bf 8b48 82c0 b9a1 0dc0
00000140: 8722 c2bf 2cc3 b4bf e6cf 9dc0 7c2c 0a40
00000150: c782 9740 e022 94c0 e8a9 9bc0 5955 6fc0
00000160: b730 9bc0 3ff8 a3bf 3d3d e6bf 12cf 6cc0
00000170: 20f5 a3c0 a47e 0f40 d19d 8340 2017 c840
00000180: 2a87 91c0 a012 a6c0 c39c 933d 0cc3 58c0
00000190: 1065 6540 38e9 1ec0 e550 0ec0 e961 4dc0
000001a0: fc2c c23f 8193 7840 382f 4640 2f40 04c1
000001b0: 4306 8bc0 f763 b540 f3a5 7340 0699 0940
000001c0: 6591 8340 630f b140 4340 97c0 7e04 c2bf
000001d0: 407f 70c0 cdb5 a53d ba8e 76c0 e4e7 3d3c
000001e0: 3960 53bf cade d0c0 3125 4740 3ad3 bb3f
000001f0: 3249 ecc0 76f2 8240 781a 2dc0 d36e b6be
00000200: 1b03 d33e 6fb0 9340 2790 c5c0 1fc4 9ec0
00000210: 3265 13c0 147b bcbf 64eb 9b40 2e7d c1c0
00000220: e742 fa40 9d17 edbe fc72 2ac0 6f9b 8ec0
00000230: 670d 42c0 ac9e f740 bf59 8fbf 9599 b1c0
00000240: 9b4f 7f40 4673 ad40 7c65 0e3f 0303 10c0
00000250: fe75 22c0 5777 ecbf 50e9 3e3f 9b2c c7c0
00000260: a031 f03f 5600 69c0 0cc8 46c0 5647 86be
00000270: 477a afc0 9a57 c9c0 d3c1 62c0 ab5c 91c0
00000280: f385 d4bf 745c 7b3f 6adc 10c0 f0d1 e140
00000290: 831f 9b40 67b8 1bc0 0486 f93f 810f 05bb
000002a0: e7d5 fb40 d744 c63f f0d6 f7bf d76a 90c0
000002b0: 6ef5 5fc0 0f46 5ac0 2212 0041 15d6 d0bf
000002c0: bf73 0bbf 0bcc d5c0 3429 a4c0 1fea e73f
000002d0: f3d8 fabf 7f09 8dc0 50b1 3f3e db89 91c0
000002e0: 9a87 f03f 5064 ce40 1501 c7c0 1a68 2140
000002f0: fc67 ae3f 8a66 12c0 36ff 36c0 6b64 21c1
00000300: b7af eac0 07b1 1b40 99e4 bf3f 21b2 c7c0
00000310: ff35 eec0 1284 9340 9d9f b5bf 31c1 dbbe
00000320: e1ac 78c0 0ade 36c0 5939 473f 36cc 58be
00000330: 6047 5fc0 a3b6 6c3e 0d10 443f e7d0 9ec0
00000340: 9a83 c3c0 25d3 fec0 a2c5 d1c0 09e5 ab3f
00000350: 45e2 0840 4873 69c0 61e1 89c0 67ec 87c0
00000360: 5a71 cbc0 0294 b1c0 eab2 c9c0 d3eb c63f
00000370: 5a61 34be bf26 7340 8a44 c940 f441 9cc0
00000380: 524e e6c0 4bc7 8f3f ed30 d940 25a3 ecbf
00000390: a576 5cc0 53ae 2cc0 00f8 5f40 eb22 2440
000003a0: 7131 e33e 06a5 5cc0 799b b440 cf72 dbbe
000003b0: 5c4a 53c0 e41e 6fc0 bc89 82c0 9e8a 89c0
000003c0: 8a36 bdc0 70fe c3bf 7f18 9dc0 7228 9c40
000003d0: 2de6 79c0 56f8 d9c0 145f bdbf 4827 8540
000003e0: db22 54c0 e79f 1ec1 b9c9 42c0 dde8 8b40
000003f0: 7d78 6940 e54d 01c0 0fd7 903e fe24 5cc0
-4.393831 -6.3710203 -0.57337403 -3.0404568 -2.8020892 -3.2620292 -2.8808825 -3.405349
3.9001727 -1.4674041 -4.2953167 -4.6932836 -5.3045964 -3.3674467 -4.023324 -3.248367
-6.5135946 -2.198777 -1.1805009 0.46744344 0.8248813 4.494652 -5.6796303 -2.1579
-2.1846938 -1.9758174 -4.229006 -3.5145915 -8.288183 -5.4458513 4.497526 -6.0104647
-6.719466 -1.1784168 -1.1921157 -6.1827784 6.5183215 -3.1980693 -4.323151 5.3027987
-5.5816994 -6.3346734 3.451273 -3.334829 -1.403814 -1.0237024 -1.0923135 -6.489715
0.9240371 -4.5039244 -2.618637 -0.5298529 -3.837234 6.3735957 5.8871145 2.247773
0.0010347028 -4.5982027 6.2599764 6.410141 -1.2097737 -5.5311437 -7.5813036 -7.5245066
-2.572758 0.41078252 -0.5519134 7.5940733 -4.429 -1.7732904 6.8913326 -2.3319192
2.8434353 4.284927 3.0287104 -2.6261373 -0.8822343 -1.8813708 -4.0713553 -2.2129958
-1.5166787 -1.4122062 -4.931628 2.158965 4.734714 -4.629257 -4.8644905 -3.7395842
-4.8496966 -1.2810134 -1.7987438 -3.7001386 -5.1236725 2.2421045 4.1130147 6.252823
-4.5477495 -5.1897736 0.07207634 -3.3869047 3.5842934 -2.4829845 -2.2236874 -3.209101
1.5169978 3.884003 3.096632 -8.26567 -4.3445144 5.6684527 3.8070037 2.1499648
4.1114984 5.5331283 -4.7265944 -1.5157621 -3.7577667 0.08091316 -3.8524613 0.011590932
-0.825687 -6.527196 3.111645 1.4673836 -7.383935 4.0920973 -2.7047405 -0.35631427
0.41213307 4.6152873 -6.1738467 -4.9614406 -2.3030515 -1.472506 4.872484 -6.0465307
7.820667 -0.46307078 -2.663268 -4.456474 -3.032068 7.738119 -1.1199263 -5.549998
3.9892337 5.4203215 0.556236 -2.2501838 -2.5384517 -1.847392 0.74574757 -6.224195
1.8765144 -3.6406455 -3.10596 -0.262263 -5.4836764 -6.2919436 -3.54308 -4.542562
-1.6603378 0.9818795 -2.263453 7.056877 4.8475966 -2.43313 1.9494023 -0.002030343
7.869861 1.5489758 -1.9362469 -4.513042 -3.4993548 -3.410526 8.004427 -1.6315333
-0.5447349 -6.6811576 -5.1300297 1.8118323 -1.9597458 -4.407409 0.18719983 -4.548078
1.8791382 6.449745 -6.218882 2.5219789 1.3625484 -2.2875085 -2.8593268 -10.087016
-7.3339496 2.43268 1.4991637 -6.2404943 -7.4440913 4.609872 -1.4189335 -0.4292083
-3.8855517 -2.8573022 0.7782188 -0.2117165 -3.4887314 0.23116545 0.7658699 -4.963001
-6.1098146 -7.9632745 -6.555375 1.3429271 2.1388104 -3.6476612 -4.308762 -4.2476077
-6.357587 -5.5493174 -6.30309 1.5540718 -0.17615262 3.7992399 6.2896166 -4.883051
-7.1970606 1.1232694 6.7872224 -1.8487288 -3.4447415 -2.69814 3.4995117 2.5646312
0.44373658 -3.4475722 5.6439786 -0.4286103 -3.3014135 -3.7362604 -4.0793133 -4.298171
-5.9129076 -1.5312023 -4.9092402 4.879937 -3.9046738 -6.8115644 -1.479464 4.161045
-3.3146274 -9.914039 -3.0435622 4.3721757 3.647979 -2.0203793 0.28289077 -3.4397578

weight f4 [256, 256]
00000000: e93d 0bbe 3de7 8ebd 0093 7abd 3312 293e
00000010: 6f89 ac3d b12a 583e 296b dbbe b841 fa3d
00000020: 81c7 b8bd 5f3f 0f3c a79a 123e 45bc eb3d
00000030: 6f47 933e 2277 233e 0716 b53c 9bd2 93be
00000040: fa55 923d 2388 9b3e 3b9f 433d 9e6f 183e
00000050: edb2 5dbe 9e54 84be 51ba 513d 01cd cdbd
00000060: d735 86be 5604 a1be 2c4a a53d ce8a 59be
00000070: 792c d3be 54a8 3dbc fc4d 173e aa58 24be
00000080: 9975 52be 17f9 eabc 1daa a3be 76e7 0fbf
00000090: bb60 45bd 1af1 863e c6fc a9bd 5df6 01be
000000a0: 1d66 303d fd18 883d 9fa2 e3be 3b83 ac3d
000000b0: 82d8 babe 02bc 85be f23c 2fbe ce71 08bf
000000c0: df87 3cbe 0f3f 163e 10c0 38bf 8d1b e7be
000000d0: 24f7 8fbe 0c07 c3be 37dc 2cbe a6c9 b13b
000000e0: e958 cbbd 2612 903d 4bd1 03be da0f 07be
000000f0: aded 3d3e 7265 d7be 50d7 453d 3084 debc
00000100: f43b 1dbe a1c3 633d 0b30 dbbc 2bb9 44be
00000110: e73d 823e 5387 04bf 5b92 cbbe f6e2 6b3e
00000120: 9f2f 49bd c2d1 3bbf 0144 f7bd c8bf 333d
00000130: c085 84be 960c 233b 0c64 ac3d 115d 32bd
00000140: 7227 4cbe 0426 e33d e5f5 3fbc 4ef2 1bbe
00000150: c365 41bd 6923 cc3d 4e3e 9abd f225 b7bc
00000160: c1f8 043e c673 913d b9d8 3bbf 3728 863e
00000170: 215f 4fbe dc99 9fbc bc73 1ebd badd ee3c
00000180: 95d3 d2be c410 7fbe 68bb c7be 773a 1a3e
00000190: fce0 0bbe b4d3 ffbd 369d 343d 6ae6 11be
000001a0: f736 4bbe 81fb 19be 4690 1f3b 6d62 4fbf
000001b0: 0867 bbbe 8224 9ebd b683 6ebd d467 76be
000001c0: 04fc a7bd c33d 8a3d ebf7 87bf 21bb ae3e
000001d0: 5dc4 94be 588f 53bd 5d2c d3bd 4937 6f3e
000001e0: 6aaf b7bd 0c55 99be fea4 13be 2fb3 babe
000001f0: 59a4 3c3e ae61 15bf 351a f1bd ec17 6fbe
00000200: 1b09 eebc 084c 48be e120 b1be 87b0 bb3d
00000210: e97d b1be 0595 203e 0fc5 debe d24c 93be
00000220: 1f40 d3be 013d 15bd b523 d53d bcdc 1a3d
00000230: 925a 8e3c 5ff1 50be b7f8 cbbd aedc 60be
00000240: 96af e7bd 0449 33be a0e1 56bc 6c32 823e
00000250: 24a6 513d 5009 24be 5bfc 40bc 80eb 753e
00000260: 66af 06ba 0a91 953e 8290 9fbc bb15 31be
00000270: 8f14 9dbd d6d3 643e 0e9d 163e f8ba e43c
00000280: 1e7f ebbe 0752 9b3d f25e a9bd 5859 debd
00000290: 0ac6 e2bd 29eb 30bf 97dd 033a 1971 a13e
000002a0: 5a3c 843e 42d6 36bd 3259 9ebe de07 b43e
000002b0: a10c dbbd 3491 fc3c 4e1e 46bc f1d1 a33d
000002c0: 1bc0 9d3d 5d16 9f3d 64f2 04bd 370e 4dbe
000002d0: 6b11 31bd 1354 54be 931e 7f3e d3d1 8f3c
000002e0: 64ce 1abc 4490 2cbe 36ae 81bc 1b94 a0be
000002f0: eaf1 18be 715f 9b3e 6a2b 6fbe c149 d93d
00000300: 61c6 31be 8834 92bd 4168 07be 1527 eebd
00000310: 8542 463d 71d3 10be 3d29 7e3e 2f25 ffbd
00000320: fb12 99bd 5f3b 963d ae00 313d bd49 debe
00000330: b5d5 663e cdba e9bd e134 49be f086 7fbe
00000340: 647c ac3c 44e6 adbe d684 6a3e 0669 7dbe
00000350: 7dc9 72be e6e2 b6be c250 9a3d 7ab0 53be
00000360: d1c1 963e 0680 a9be d2da 123e bdaa a8bd
00000370: eedf 34bd 38f8 04be 5268 09be 3fc4 b73e
00000380: c0d9 c6be c090 0dbd 3725 57bd 532c 0a3e
00000390: 61ae 9abe 390f 1f3e 070b c2be ce9b 67bd
000003a0: 363f d8bd 1127 c83d 3dd6 2dbe 03ff 6cbe
000003b0: c78f f73d 25cb aa3d 0576 0ebe 9ce4 053e
000003c0: 21bb 25bd 046b 27bf 8671 2cbf 73ca cabe
000003d0: 68bb 003d 5bf3 2dba 9508 04bf 14b2 debe
000003e0: 76d0 5c3e 6f70 803e f5b7 b23e b910 37be
000003f0: e35f 84be 2ad7 a9bd 9177 b3bd d95b 8a3e
-0.13597836 -0.06977699 -0.061175346 0.16510849 0.08424651 0.21110035 -0.42855194 0.12219566
-0.09022427 0.008743136 0.14316808 0.11510519 0.28765437 0.15963414 0.02210523 -0.28871617
0.07145305 0.30377302 0.047759276 0.14886329 -0.21650286 -0.25845808 0.051203076 -0.10048867
-0.26212952 -0.3144862 0.08070788 -0.21244356 -0.41244867 -0.011575777 0.14775842 -0.16049448
-0.20552672 -0.028683228 -0.31965724 -0.56212556 -0.048187952 0.2635582 -0.08300166 -0.12691636
0.043066133 0.06645391 -0.44460008 0.08423468 -0.36493307 -0.2612 -0.17113093 -0.5329865
-0.18411206 0.14672492 -0.72168064 -0.45138207 -0.2811824 -0.38091314 -0.1688088 0.0054256497
-0.09929068 0.070347115 -0.12872808 -0.1318964 0.18547697 -0.42069584 0.04830104 -0.027162641
-0.15354902 0.05560649 -0.026756307 -0.19211261 0.25437853 -0.5176899 -0.39760098 0.23035797
-0.04911768 -0.7336694 -0.120735176 0.04388407 -0.25883293 0.0024879328 0.0841752 -0.043545786
-0.19936922 0.11091235 -0.011716341 -0.1522915 -0.04721619 0.099676915 -0.07531415 -0.02235696
0.12985517 0.0710216 -0.7337757 0.26202556 -0.20251133 -0.019482546 -0.03868459 0.029158462
-0.4117705 -0.2490874 -0.39010167 0.15061365 -0.13660043 -0.12491551 0.04409524 -0.14248052
-0.19845186 -0.15037347 0.0024347468 -0.8100956 -0.36602044 -0.07721807 -0.058231078 -0.24063045
-0.08202365 0.06750061 -1.0622534 0.34127143 -0.29056063 -0.051650375 -0.10311196 0.23360933
-0.089690045 -0.29947698 -0.14418408 -0.3646483 0.18422069 -0.5835217 -0.11772577 -0.23348969
-0.029057076 -0.19560254 -0.34595397 0.09164529 -0.34666374 0.15681846 -0.4350972 -0.28769547
-0.41259858 -0.03643513 0.10407201 0.037808165 0.017377172 -0.20404576 -0.09959548 -0.21959183
-0.11312787 -0.17508322 -0.013115317 0.25429094 0.051183835 -0.16019177 -0.011778916 0.24015617
-0.0005137831 0.2921222 -0.019478086 -0.17293446 -0.07669937 0.22346434 0.14708349 0.027921185
-0.4599542 0.07584005 -0.082700625 -0.10856885 -0.11072929 -0.69108826 0.0005030273 0.315316
0.25827295 -0.044637926 -0.30927426 0.35162252 -0.10695768 0.030830957 -0.012092186 0.079990275
0.07702657 0.07767937 -0.032457724 -0.20024954 -0.0432295 -0.20735197 0.24914007 0.017556107
-0.009448621 -0.16851908 -0.01583014 -0.31362996 -0.14936033 0.30346254 -0.23356405 0.106097706
-0.17360832 -0.07138926 -0.13223363 -0.11628548 0.04840328 -0.14143158 0.24820419 -0.12458264
-0.07474323 0.07335543 0.04321354 -0.43415633 0.2254246 -0.114125825 -0.19649078 -0.24953818
0.021055408 -0.3396474 0.22902235 -0.24747095 -0.23709674 -0.35719985 0.075349346 -0.20672789
0.29444745 -0.33105487 0.14341286 -0.08235691 -0.04415887 -0.12985313 -0.13418701 0.3589191
-0.38838005 -0.034561872 -0.052525725 0.13493471 -0.30211166 0.1553315 -0.37899038 -0.05654507
-0.105589315 0.09773076 -0.16976257 -0.23144154 0.1208797 0.08339528 -0.13912208 0.13075489
-0.040461663 -0.6539767 -0.67360723 -0.39607581 0.031428725 -0.0006635689 -0.51575595 -0.43495238
0.21563897 0.2508578 0.34905973 -0.17877473 -0.25854406 -0.082929924 -0.0876304 0.270232
