OrderedByEnvironments/Hopper/Hopper_td3/Hopper_td3_s234/pyt_save/model.pt (torch_old, 844414 bytes, 16 tensors)

weight f4 [256, 11]
1.985164 1.596113 -1.939542 -1.0338767 1.1866735 -0.09248078 -0.3821643 -0.08890149
-0.01853424 0.10298384 0.44936278 -1.00804 -1.2267842 1.8990767 0.74288803 0.28782567
-1.4721024 0.16917124 0.26785174 -0.29258677 -0.0117058065 0.08173308 -4.336181 -2.908539
-1.9504555 -1.0183132 0.079472825 0.015205949 -0.39159128 0.16091375 0.47074443 -0.28072983
-0.4993344 -1.309152 -1.2876244 1.8923022 2.0513356 0.19498582 -1.5360466 -0.5721583
-0.6054259 0.44522887 0.2900589 -0.29384103 -9.217161 0.10007118 5.139433 1.988161
1.0076779 -0.18614215 -0.6024364 1.2469999 -0.72033846 -0.4456081 -0.5827333 -2.288837
-0.59612596 0.8461229 0.4835013 -1.5193256 -1.4038758 -0.72538066 -0.27098042 0.32900643
0.46971262 -0.8190398 4.95277 -0.16983953 2.8438845 1.318644 1.385393 -0.7457993
-0.040726885 -0.570579 0.561233 0.31673035 -0.21831737 -4.4210134 -0.68959904 -0.77549523
1.4418969 1.7535512 -3.4972394 0.39226753 -0.9292952 -0.4166965 0.2094812 0.18591356
-5.4325633 -2.1638591 3.5434134 5.6287155 -0.34738868 -0.8823773 0.496021 1.1507635
0.44451523 -0.35538507 -0.101241626 -1.2550884 -1.3252561 2.8941495 -1.5574996 -1.6574396
-0.47039905 -1.3580058 0.42136556 -0.31361127 0.0045399014 -0.69988286 -0.59895104 0.6469284
3.6121325 4.0748816 -3.2309613 -3.1223984 -0.5487758 0.23528117 0.33936375 -0.24950662
0.18442774 -2.1222248 -1.0958924 -0.05636951 2.2217264 -0.1167604 -1.9722232 1.1446171
0.51732093 -0.49285263 -0.047331616 -0.005409705 1.0199631 1.4158237 3.9541416 -0.2586742
0.034891848 -0.37750593 -0.21950673 0.39592552 -0.12101104 -0.11768328 0.017754568 -2.724101
-0.9661875 0.12415618 -0.5271384 0.84673506 -2.879521 -0.99835366 0.031073527 0.48547104
-0.32366535 -0.47472876 -4.566888 -1.4645288 2.183645 4.7326555 -0.36345175 -1.4371458
1.207933 -1.577593 1.2172568 1.0164615 0.1770586 -3.4943202 -0.48635808 0.24880947
1.4413017 2.4581017 -2.2922564 -0.6630036 -0.93426484 0.0893768 0.20564625 0.067190446
-0.69109845 -0.7714773 3.4221978 1.8228652 0.8281362 -2.2958426 -0.9854563 0.20130226
-0.90310997 0.342465 0.61827946 -0.57285506 0.19245924 1.9593402 -3.2090337 -1.364232
-1.2090222 1.7904406 -1.1653088 0.95747185 0.505404 -0.0014510859 -1.4546808 -3.9426067
1.5115454 -0.19421545 -2.1792727 -2.8193004 -0.5215589 -0.68206763 0.9854053 -0.73785245
-0.5767137 1.4976237 -2.8216486 2.2001607 -0.9643606 -1.6747621 -1.0989447 2.1807153
-0.038399104 0.2105332 0.72552353 0.16789018 -3.8631566 -2.1296132 -1.9335455 3.8419642
0.34073818 -0.5322514 -0.158044 -0.10017602 0.20601341 -0.0027720165 1.064568 0.14649439
-0.5555383 2.6659153 -2.6703594 1.650235 0.1741293 2.063004 0.8802956 -1.0210171
-0.6925779 0.41638947 -6.24657 2.8815763 -1.9312778 -3.7399893 0.5941754 -0.03906796
0.91877615 0.59428066 -0.43255925 -0.28160933 0.122540325 -1.3030331 -1.3601209 3.827402
00000000: db19 fe3f 6e4d cc3f ea42 f8bf 1256 84bf
00000010: ebe4 973f 9066 bdbd 0aab c3be fc11 b6bd
00000020: 1ed5 97bc 31e9 d23d e112 e63e 7407 81bf
00000030: 4407 9dbf f214 f33f e92d 3e3f e35d 933e
00000040: da6d bcbf 3a3b 2d3e dd23 893e efcd 95be
00000050: b6c9 3fbc ac63 a73d ffc1 8ac0 8125 3ac0
00000060: 87a8 f9bf 1658 82bf a6c2 a23d 5f22 793c
00000070: a77e c8be 93c6 243e 6a05 f13e d2bb 8fbe
00000080: c2a8 ffbe 4b92 a7bf e0d0 a4bf f536 f23f
00000090: 1549 0340 5daa 473e 2d9d c4bf f778 12bf
000000a0: 31fd 1abf 0af5 e33e 9a82 943e 5572 96be
000000b0: 7e79 13c1 1ef2 cc3d 3c76 a440 0f7c fe3f
000000c0: 97fb 803f 0c9c 3ebe 4639 1abf b19d 9f3f
000000d0: 1a68 38bf bf26 e4be 022e 15bf 4e7c 12c0
000000e0: b69b 18bf 839b 583f 7b8d f73e 4379 c2bf
000000f0: 34b2 b3bf 8cb2 39bf f2bd 8abe 8873 a83e
00000100: 2c7e f03e 98ac 51bf 187d 9e40 6aea 2dbe
00000110: 3402 3640 54c9 a83f 8f54 b13f b4ec 3ebf
00000120: 3cd1 26bd 7711 12bf f7ac 0f3f 7b2a a23e
00000130: 978e 5fbe f178 8dc0 9089 30bf db86 46bf
00000140: 1490 b83f 5e74 e03f c5d2 5fc0 4ad7 c83e
00000150: 4ae6 6dbf 3e59 d5be 3d82 563e 2060 3e3e
00000160: 8fd7 adc0 ab7c 0ac0 49c7 6240 701e b440
00000170: eedc b1be 7be3 61bf 77f6 fd3e 384c 933f
00000180: 8097 e33e 08f5 b5be c557 cfbd bda6 a0bf
00000190: fea1 a9bf bf39 3940 265c c7bf fb26 d4bf
000001a0: 25d8 f0be 22d3 adbf 3abd d73e a891 a0be
000001b0: 74c3 943b 862b 33bf db54 19bf 1a9d 253f
000001c0: 2e2d 6740 6e65 8240 12c8 4ec0 60d5 47c0
000001d0: 927c 0cbf 8ced 703e 16c1 ad3e aa7e 7fbe
000001e0: a0da 3c3e 88d2 07c0 3446 8cbf b7e3 66bd
000001f0: c430 0e40 1420 efbd cf71 fcbf d082 923f
00000200: 256f 043f 2e57 fcbe ccde 41bd e543 b1bb
00000210: 278e 823f b639 b53f a810 7d40 f270 84be
00000220: c1ea 0e3d 7548 c1be 5fc6 60be c0b6 ca3e
00000230: a3d4 f7bd ee03 f1bd 0772 913c ac57 2ec0
00000240: 1058 77bf 9845 fe3d 8bf2 06bf a1c3 583f
00000250: 124a 38c0 1b94 7fbf e98d fe3c a98f f83e
00000260: 77b7 a5be a60f f3be f223 92c0 ae75 bbbf
00000270: d7c0 0b40 ea71 9740 5916 babe 65f4 b7bf
00000280: 8c9d 9a3f 91ee c9bf 12cf 9b3f 691b 823f
00000290: da4e 353e f1a2 5fc0 ed03 f9be e9c7 7e3e
000002a0: 937c b83f 8a51 1d40 54b4 12c0 9bba 29bf
000002b0: fb2b 6fbf 2f0b b73d ee94 523e 259b 893d
000002c0: d4eb 30bf 897f 45bf 4a05 5b40 a653 e93f
000002d0: bc00 543f 16ef 12c0 dd46 7cbf 2e22 4e3e
000002e0: 3732 67bf 9357 af3e 9047 1e3f a1a6 12bf
000002f0: 0914 453e a9cb fa3f cf60 4dc0 279f aebf
00000300: 3dc1 9abf 282d e53f d728 95bf e01c 753f
00000310: 2862 013f 5d32 beba fb32 babf ab53 7cc0
00000320: 527a c13f 6ae0 46be 3479 0bc0 6b6f 34c0
00000330: e284 05bf fc9b 2ebf 8643 7c3f e6e3 3cbf
00000340: 82a3 13bf 22b2 bf3f e495 34c0 6fcf 0c40
00000350: 56e0 76bf 9b5e d6bf 38aa 8cbf d790 0b40
00000360: 6148 1dbd 0496 573e e9bb 393f 67eb 2b3e
00000370: f53d 77c0 954b 08c0 6b7e f7bf bee2 7540
00000380: 3c75 ae3e a141 08bf 49d6 21be 1629 cdbd
00000390: 2ef5 523e b8aa 35bb c443 883f a002 163e
000003a0: c237 0ebf 5b9e 2a40 2be7 2ac0 e73a d33f
000003b0: f44e 323e 4208 0440 0d5b 613f b0b0 82bf
000003c0: c94c 31bf 0031 d53e e7e3 c7c0 bf6b 3840
000003d0: 1c34 f7bf fc5b 6fc0 e11b 183f ba05 20bd
000003e0: ea34 6b3f c722 183f 6878 ddbe 192f 90be
000003f0: 6cf6 fa3d cac9 a6bf 7118 aebf 28f4 7440

bias f4 [256]
-5.2441096 -2.1709397 -1.4051642 -1.7523284 -1.5072242 1.463784 -2.345612 -0.9351031
-2.9422276 -3.9522197 -0.213164 -1.2585356 0.4164519 0.3346973 -1.007032 -1.6695832
-2.8430252 -3.2903306 -1.1444772 -0.17372574 -2.2420433 -1.4124571 -2.6886368 -1.5664126
-1.9245267 -2.4817066 0.15845126 -1.8994784 -2.4714935 -0.7057764 -1.1996922 -2.1539416
0.32343346 0.2453607 -0.9848643 -3.1975996 -1.553598 -1.6593987 -1.2251034 -2.097677
-2.240206 -0.59905165 -2.8587515 -1.8938389 -2.4981704 -1.957837 0.18610449 -2.3192594
-2.370132 1.7174928 -1.5518923 -0.35687947 -2.3768334 -3.5997906 -1.6216915 -0.65700555
-1.8957895 -0.24387683 -1.2822523 -0.85733175 -0.77638566 -2.4884863 -1.8536791 0.026011258
-4.8930707 1.7325666 1.2149062 -1.0920197 1.2220786 -0.8284855 -0.59012574 -1.6676297
2.9633005 1.4237378 -2.1190238 -4.7695813 2.516656 1.4490793 0.27309504 -3.4333248
-0.8244941 -2.3629072 -3.9432342 -1.2962375 3.7438593 -1.0883842 -1.9676504 -1.4167992
-0.06576458 -1.1705962 -0.1860038 -2.2860575 -0.79584336 -2.8061767 0.88552934 -1.3585057
1.661815 -0.48293748 -1.2918507 -0.5434061 -2.3703976 -1.8864712 -2.0671766 0.48916334
-2.2136962 1.1915432 -1.4490734 -2.2137365 -2.2919664 -1.3630376 1.5812668 -2.701271
-3.453439 0.05046244 -1.8390502 -1.6274972 -1.4908534 -2.077078 0.037184507 0.5250068
-0.008604659 0.8883005 0.7643681 -0.5343647 0.29912925 -0.6877832 -0.77634126 -2.512126
-0.20233218 -3.4888759 3.6439636 -1.382794 -1.1822749 -0.2564368 2.6038542 -3.2221167
-2.0427475 -3.1977835 -2.0489838 -2.5984943 0.3905834 -2.5549297 0.17396738 -2.1269324
-1.7636244 -0.41418895 -1.5958141 -1.9257667 -2.873859 -1.4793168 0.020701945 0.6654898
-0.0976825 -2.7394416 -0.24218866 -1.1589029 -2.8138266 -1.5367775 -2.0505486 -2.4790545
-3.7310362 -1.2766113 -0.47545588 -2.6360571 -2.298658 -1.1432552 -1.9895697 -1.1051162
-2.416625 -1.0168097 -0.49390447 -1.7132907 -2.038127 -0.674212 2.0185456 -1.3664862
-0.84944427 -2.809805 -0.6127194 1.3148853 -1.5094342 1.1831259 1.5098636 -1.500883
-3.7924445 -0.57069176 1.3661962 -1.5667864 -1.3770474 -2.3754063 0.49281952 -2.4275997
-1.5720898 -1.0145996 -1.0045279 0.73799044 -0.81511384 -3.7208457 -2.6198313 -2.2959607
-0.14179333 -1.032974 -2.60319 -0.4934782 -1.231269 -1.8916811 -1.9637944 -2.4863749
1.1289912 -0.9881155 -0.6577518 -2.2646716 -0.4889582 -2.5674431 -2.572025 0.28327233
-0.53599596 0.040094446 -2.20828 0.42241102 -1.4769409 -5.0413837 -2.06967 -2.8417985
-1.5890058 -2.6849709 -0.50698507 -0.4382447 -2.1720524 -1.1255927 -2.6095157 -1.6030933
0.17165756 -0.30595848 -1.0176936 -1.3173026 -1.2289091 -0.4373558 -1.0875984 0.08797515
-0.56482637 -2.025322 -1.8430003 -0.76032 -0.5448965 -2.2431872 -2.3660626 -1.7941943
-1.8011078 -2.913798 -2.0307894 -2.6390543 2.4793115 -2.0554507 -1.772123 -3.2250755
00000000: bfcf a7c0 adf0 0ac0 6cdc b3bf 4c4c e0bf
00000010: b9ec c0bf 465d bb3f 821e 16c0 eb62 6fbf
00000020: 754d 3cc0 2bf1 7cc0 aa47 5abe b217 a1bf
00000030: 2f39 d53e 725d ab3e 6de6 80bf e7b4 d5bf
00000040: 20f4 35c0 c794 52c0 3b7e 92bf 29e5 31be
00000050: a37d 0fc0 65cb b4bf a012 2cc0 3580 c8bf
00000060: e456 f6bf 48d4 1ec0 0c41 223e 1c22 f3bf
00000070: f32c 1ec0 c3ad 34bf 848f 99bf 2eda 09c0
00000080: 1299 a53e d63f 7b3e 1120 7cbf 79a5 4cc0
00000090: 4ddc c6bf 2d67 d4bf 30d0 9cbf 5740 06c0
000000a0: 895f 0fc0 735b 19bf c9f5 36c0 5069 f2bf
000000b0: 06e2 1fc0 679a fabf 2d92 3e3e bf6e 14c0
000000c0: 3eb0 17c0 ced6 db3f 68a4 c6bf e8b8 b6be
000000d0: 0a1e 18c0 f862 66c0 9693 cfbf 8431 28bf
000000e0: 3ba9 f2bf d9ba 79be d820 a4bf 187a 5bbf
000000f0: 36c1 46bf 5c43 1fc0 5b45 edbf 9015 d53c
00000100: 0994 9cc0 bec4 dd3f 0c82 9b3f 4dc7 8bbf
00000110: 126d 9c3f a017 54bf 7b12 17bf e474 d5bf
00000120: b7a6 3d40 0a3d b63f 169e 07c0 69a0 98c0
00000130: e410 2140 6e7b b93f 1dd3 8b3e 98bb 5bc0
00000140: 0c12 53bf df39 17c0 f35d 7cc0 1ceb a5bf
00000150: 649b 6f40 2c50 8bbf f8db fbbf ad59 b5bf
00000160: 95af 86bd 19d6 95bf c877 3ebe c44e 12c0
00000170: 64bc 4bbf 6698 33c0 0db2 623f 84e3 adbf
00000180: 5bb6 d43f 9543 f7be 5d5b a5bf aa1c 0bbf
00000190: 98b4 17c0 e377 f1bf 9f4c 04c0 9e73 fa3e
000001a0: 33ad 0dc0 7d84 983f 3d7b b9bf dcad 0dc0
000001b0: 94af 12c0 0478 aebf f366 ca3f a0e1 2cc0
000001c0: 2505 5dc0 b4b1 4e3d ff65 ebbf d451 d0bf
000001d0: 49d4 bebf d9ee 04c0 c84e 183d d866 063f
000001e0: 8efa 0cbc a967 633f a1ad 433f 20cc 08bf
000001f0: 7827 993e 8f12 30bf 4dbe 46bf acc6 20c0
00000200: 2b30 4fbe be49 5fc0 b336 6940 65ff b0bf
00000210: c954 97bf af4b 83be 8ca5 2640 2937 4ec0
00000220: 60bc 02c0 7ca8 4cc0 8d22 03c0 bb4d 26c0
00000230: 8cfa c73e f883 23c0 8124 323e a91f 08c0
00000240: 72be e1bf 9310 d4be a343 ccbf 867f f6bf
00000250: 4eed 37c0 415a bdbf 2097 a93c 8a5d 2a3f
00000260: c30d c8bd 0353 2fc0 4e00 78be ee56 94bf
00000270: bc15 34c0 20b5 c4bf 303c 03c0 d4a8 1ec0
00000280: 4cc9 6ec0 0068 a3bf f46e f3be 29b5 28c0
00000290: 361d 13c0 3056 92bf 38aa febf 7374 8dbf
000002a0: fca9 1ac0 d226 82bf 0ce1 fcbe 1c4d dbbf
000002b0: ac70 02c0 2899 2cbf da2f 0140 05e9 aebf
000002c0: 2e75 59bf d8d3 33c0 2edb 1cbf 294e a83f
000002d0: 2435 c1bf ab70 973f 3643 c13f ef1c c0bf
000002e0: 69b7 72c0 db18 12bf 84df ae3f 758c c8bf
000002f0: 1743 b0bf a806 18c0 d752 fc3e cb5d 1bc0
00000300: 3d3a c9bf 66de 81bf 5f94 80bf f1ec 3c3f
00000310: 4dab 50bf 5622 6ec0 51ab 27c0 05f1 12c0
00000320: 4532 11be 7e38 84bf aa9a 26c0 2da9 fcbe
00000330: 399a 9dbf 9b22 f2bf 9d5d fbbf c420 1fc0
00000340: c982 903f 23f5 7cbf 6c62 28bf 61f0 10c0
00000350: bb58 fabe fd50 24c0 0f9c 24c0 1209 913e
00000360: 0837 09bf 133a 243d 7654 0dc0 4246 d83e
00000370: 660c bdbf 0453 a1c0 7975 04c0 07e0 35c0
00000380: 8b64 cbbf 90d6 2bc0 c6c9 01bf 9c61 e0be
00000390: e802 0bc0 6c13 90bf 4e02 27c0 2932 cdbf
000003a0: 00c7 2f3e 97a6 9cbe c943 82bf 5f9d a8bf
000003b0: e54c 9dbf 19ed dfbe 6d36 8bbf 512c b43d
000003c0: 7698 10bf e09e 01c0 6fe7 ebbf 55a4 42bf
000003d0: 567e 0bbf 6190 0fc0 926d 17c0 29a8 e5bf
000003e0: b38a e6bf ab7b 3ac0 74f8 01c0 44e6 28c0
000003f0: 0aad 1e40 818c 03c0 edd4 e2bf a367 4ec0

weight f4 [256, 256]
-0.0034680753 -1.3724444 0.19254123 1.7347531 0.99666476 -0.7884356 -3.716074 0.8092102
2.5599103 -3.3130126 0.16497381 1.9770423 0.13781986 -0.5970719 -2.867911 -0.6522611
-2.24107 -0.80264163 -2.1416185 0.5893379 -0.9529941 0.5194395 1.5229858 0.34778726
-2.7300816 -1.0473161 0.9333204 0.7017587 0.7474493 0.64260614 -1.0952946 0.55144536
0.36698705 -4.569044 1.5765371 0.43377945 -1.2104777 -0.445457 0.52588826 -0.16279656
1.0348101 -2.7421074 -0.13346136 -0.46935725 0.46642986 0.031865098 -1.4188887 0.48958468
0.16731009 -0.3049841 -0.93470794 0.75357294 -1.9362895 -3.5942476 -0.37695462 -0.7990777
0.6452433 0.15651532 0.92221737 1.5348923 2.3987722 -0.0634571 0.98323303 1.8332705
0.20666653 -0.3356554 -0.16334589 0.7069526 -0.2514867 -0.102579534 -2.7363107 -0.107127815
0.3523792 0.4630555 0.023419335 -0.25557068 -0.834076 -0.71095955 1.0243545 -2.9244585
-2.1438303 0.56813556 0.12308364 0.18800344 -0.8674517 0.68608165 -0.8943311 1.5404961
-0.99524313 2.9588702 -2.1144621 -0.7945325 1.5727493 -0.4649299 1.6176604 -0.073208556
1.0964817 2.6624613 0.16469847 -1.6704992 0.18637328 0.7462114 1.1595991 -2.088008
0.4774495 -1.2722362 -0.4094633 3.1842754 -0.6887371 -0.6606076 0.79009366 1.6905186
0.27686766 -3.4348881 2.9324841 -1.0459917 0.09101328 -1.1304606 -0.03530392 -4.951632
0.9850547 1.2154684 -0.41889405 0.9856985 -2.048468 0.24221599 -1.4693 -0.49900064
3.6418989 1.3679265 -0.080951475 0.50142324 -0.49357712 -0.0163475 1.1550288 2.289057
0.27237645 0.008979967 2.1282582 0.80375594 -0.28625262 -0.984478 1.8426865 -4.821993
-0.31498337 -1.2207303 1.6342254 -2.3997624 3.3701522 -0.09047604 0.96231985 1.1623951
0.69993573 -0.6766777 -0.85070604 -2.0070202 -0.29393405 2.2427313 -0.045086347 -1.2523932
0.04615764 0.69593084 1.2826695 -0.17304496 0.7271232 -0.35002324 -0.7859283 -0.25814098
-0.2520203 0.04287761 -1.9108723 -1.1512818 1.7879274 -1.37307 -0.8465389 -0.6611382
0.19706544 -1.7387272 1.1745437 1.7922776 0.33102387 0.47000924 0.4205234 0.11951412
-1.7656825 -0.5824084 0.90325105 0.55960447 -0.8023424 -0.6847871 0.18545964 0.61306745
-1.664524 -3.2757316 0.36233732 -0.42131406 2.849431 0.9391206 -0.45504725 1.2273911
-1.8450766 -1.8602958 -0.49167395 0.03406976 -5.0195036 0.74533504 -1.459177 1.0118742
-0.77019805 0.60813427 0.027101772 -0.5855585 -0.6366722 -0.073145114 0.2302926 1.6148633
0.48049012 -1.1953547 -1.0087202 1.7931561 1.9699705 0.8658364 -2.0625186 -0.41335848
-0.1551126 -1.2730047 1.0298978 1.0194494 -3.4118762 1.8082546 -0.77581084 -0.24882238
-0.87702304 -0.87529856 1.1459142 -0.3354839 0.0041613276 -1.2831075 0.8946453 -0.5328082
-2.5879693 0.37541595 -0.91107935 -2.8423324 -0.69513834 -2.1299655 2.1348097 -0.7498886
0.8832122 -1.595801 -0.46082163 0.32150856 -1.043171 0.29812774 0.4271305 -0.4608068
00000000: a648 63bb 42ac afbf 8729 453e 640c de3f
00000010: 6c25 7f3f ead6 49bf 28d4 6dc0 6628 4f3f
00000020: 92d5 2340 6608 54c0 e5ee 283e b90f fd3f
00000030: a620 0d3e b4d9 18bf db8b 37c0 95fa 26bf
00000040: b16d 0fc0 ec79 4dbf 4710 09c0 d9de 163f
00000050: 6cf7 73bf fdf9 043f 33f1 c23f 2c11 b23e
00000060: a8b9 2ec0 740e 86bf 16ee 6e3f 75a6 333f
00000070: d658 3f3f d681 243f 9d32 8cbf 862b 0d3f
00000080: bae5 bb3e 9c35 92c0 f8cb c93f 5718 de3e
00000090: eff0 9abf f112 e4be 9da0 063f 24b4 26be
000000a0: a874 843f b07e 2fc0 18aa 08be 984f f0be
000000b0: e5cf ee3e fa84 023d 259e b5bf d8aa fa3e
000000c0: 5653 2b3e e026 9cbe 0549 6fbf 28ea 403f
000000d0: 56d8 f7bf 2708 66c0 3200 c1be 5b90 4cbf
000000e0: aa2e 253f 8d45 203e 7016 6c3f 5a77 c43f
000000f0: 7c85 1940 ccf5 81bd 29b5 7b3f 9ca8 ea3f
00000100: 64a0 533e 06db abbe 2544 27be d8fa 343f
00000110: ddc2 80be 3815 d2bd b71f 2fc0 d465 dbbd
00000120: 0c6b b43e 9c15 ed3e e8d9 bf3c 29da 82be
00000130: 0186 55bf 7201 36bf 0c1e 833f 542a 3bc0
00000140: 8434 09c0 5571 113f 4713 fc3d f983 403e
00000150: 5111 5ebf 0ca3 2f3f e2f2 64bf fa2e c53f
00000160: 41c8 7ebf 215e 3d40 5953 07c0 7b66 4bbf
00000170: d94f c93f 4b0b eebe 7f0f cf3f 5eee 95bd
00000180: 8359 8c3f c465 2a40 b7a6 283e ebd2 d5bf
00000190: a3d8 3e3e b607 3f3f be6d 943f eca1 05c0
000001a0: 4374 f43e a3d8 a2bf 2ca5 d1be 2bcb 4b40
000001b0: 1351 30bf 941d 29bf 9443 4a3f ea62 d83f
000001c0: 99c1 8d3e 35d5 5bc0 d2ad 3b40 0ee3 85bf
000001d0: 2c65 ba3d efb2 90bf d89a 10bd c573 9ec0
000001e0: 8b2c 7c3f 7894 9b3f 4879 d6be bd56 7c3f
000001f0: 1a1a 03c0 7807 783e 0612 bcbf 037d ffbe
00000200: df14 6940 3718 af3f e3c9 a5bd 465d 003f
00000210: 24b6 fcbe 31eb 85bc fcd7 933f e97f 1240
00000220: ed74 8b3e b620 133c 6235 0840 f3c2 4d3f
00000230: b48f 92be c006 7cbf 27dd eb3f c44d 9ac0
00000240: 8045 a1be e440 9cbf 4c2e d13f b595 19c0
00000250: 93b0 5740 814b b9bd 985a 763f 5dc9 943f
00000260: fd2e 333f c03a 2dbf dfc7 59bf 0573 00c0
00000270: 867e 96be e988 0f40 76ac 38bd 6c4e a0bf
00000280: cb0f 3d3d 8628 323f 842e a43f b332 31be
00000290: bf24 3a3f 3f36 b3be 9932 49bf 0e2b 84be
000002a0: ce08 81be 6fa0 2f3d 7797 f4bf 345d 93bf
000002b0: ceda e43f c2c0 afbf c6b6 58bf 5a40 29bf
000002c0: 86cb 493e 9d8e debf 7357 963f 5a69 e53f
000002d0: f67b a93e 0da5 f03e d84e d73e d2c3 f43d
000002e0: e201 e2bf b818 15bf 763b 673f 3d42 0f3f
000002f0: 5066 4dbf 354e 2fbf 22e9 3d3e fdf1 1c3f
00000300: 1f0f d5bf 96a5 51c0 4784 b93e 7ab6 d7be
00000310: 145d 3640 356a 703f f4fb e8be 271b 9d3f
00000320: 782b ecbf 2c1e eebf b0bc fbbe bc8c 0b3d
00000330: c69f a0c0 47ce 3e3f 50c6 babf 1885 813f
00000340: b32b 45bf b0ae 1b3f 8904 de3c 29e7 15bf
00000350: f3fc 22bf 1bcd 95bd d3d1 6b3e d7b3 ce3f
00000360: cd02 f63e 6201 99bf be1d 81bf 2486 e53f
00000370: fe27 fc3f 74a7 5d3f 4e00 04c0 b9a3 d3be
00000380: d6d5 1ebe d1f1 a2bf b1d3 833f 517d 823f
00000390: 2e5c 5ac0 e374 e73f 8a9b 46bf 4bcb 7ebe
000003a0: 9584 60bf 9113 60bf 51ad 923f 8cc4 abbe
000003b0: bf5b 883b de3c a4bf 7907 653f 1e66 08bf
000003c0: 4aa1 25c0 8536 c03e 7f3c 69bf c6e8 35c0
000003d0: 96f4 31bf 5b51 08c0 b9a0 0840 b3f8 3fbf
000003e0: 321a 623f 3543 ccbf d0f0 ebbe c59c a43e
000003f0: a186 85bf 33a4 983e d9b0 da3e deee ebbe

bias f4 [256]
-1.8933896 -0.06520194 -0.12113486 0.62043464 0.35885242 -1.7261822 -1.0538905 -1.082901
-0.09980704 -0.044800792 0.015888045 -1.758589 -0.025909424 -3.2820134 -0.03441173 -0.050028346
-0.06050213 -0.049403153 -0.054140944 -1.7328451 -0.49692044 -0.08619902 -1.9895034 -1.2820505
-0.06849358 -0.19500272 0.7983905 -0.40617394 -0.069023244 0.3450407 0.39242145 -0.09140984
-0.124548264 -1.2298994 -0.40371206 -0.045214754 -0.44661283 -0.11826172 -0.8024031 1.7792758
-0.03753509 0.2749606 0.5113141 -0.024276497 -0.055674672 -0.26447043 -0.073917426 -0.53959304
-0.0949406 -0.11921748 -0.0533701 -1.6513228 -2.4866645 1.1274211 -0.0630817 -0.12107247
-0.5915949 -0.0146680875 0.34629452 -0.05443087 -1.9372277 -0.01630811 0.37782875 -0.059704058
-0.13213323 -1.7921731 -0.45197362 0.33274138 -0.12570488 -0.07675475 -0.23398735 -0.7104165
-0.30885214 0.5167485 -0.08139386 -0.12743077 -0.08689462 -1.4577453 -0.30358925 1.0043342
0.007826666 -0.036680095 -0.65112096 -0.106007814 0.18503354 0.40021166 1.4629717 -3.0950315
-0.07969432 -0.0995583 0.6891953 -0.038466405 0.0067151445 -0.6400646 -0.11799577 -0.038909182
-0.04584698 -0.30789205 -0.028907599 -0.6541672 -1.6985697 -0.5155317 -0.49730408 -0.07383033
-0.10707055 -3.6966715 -1.3641912 -0.05374234 -0.04615319 -5.6445627 -2.5292587 -0.06854799
-0.120063335 -0.00051320385 -0.44349667 -0.040828433 -0.8010118 0.036103174 -0.00048524034 0.3156835
-0.014250862 -0.025219578 -1.674304 -1.3019806 0.81180406 -0.09087989 -0.26035297 -0.56590676
0.060878027 -0.13019587 -0.02140242 -0.34100115 -1.2175914 -0.40985826 -0.066636674 0.24613853
-0.3559648 2.8239362 -2.3927224 -1.151284 -0.03576686 -0.12684342 -0.060384795 0.00081762037
-0.016580127 -0.14018892 -0.047113035 -1.201507 -0.08691143 -0.16849388 0.04260969 -0.64632773
-0.033888943 -0.10032299 -0.017920116 -0.30154547 -4.1327834 -0.068302296 -2.3192923 -1.1322569
-0.3905018 -0.121736124 -0.17467777 0.12203495 -0.06583164 -3.376433 -0.10169087 0.092471585
0.22251458 -0.13939698 -0.10130304 -0.1277868 -1.2909316 -1.0508494 -0.007825968 -1.8988581
-3.2661068 0.38371313 -0.11857425 -0.054863654 -0.63509 -0.3197182 -0.021110771 -0.037782554
-0.041995846 -1.7188443 -1.2809287 -0.043191914 -1.3652914 -0.22911635 -0.03165162 -1.7388765
-0.11432666 -0.22686204 0.22589324 -0.5438968 -0.022653319 -0.08077693 -2.3155658 -0.026588542
-0.031121714 -0.5362569 -0.31109095 0.00807542 -0.12812695 0.72633106 -0.2521389 -0.061693784
-0.17019421 0.12131746 -1.8936969 0.05063915 -0.010993271 -1.1156802 -0.02866063 -0.19530433
-0.11744833 2.60034 -1.4271533 -0.8036993 0.0630684 -0.3023766 -2.0432808 -2.5480356
-0.02900924 -2.1103752 0.44976088 -0.8036702 -0.98266083 -0.13248587 -0.052125826 -0.020187031
-1.6568727 0.36515367 0.0064316993 -2.5905612 0.043806214 -1.1196797 -0.1496422 0.8395512
-1.0939448 0.19752498 -0.48498923 -0.04519926 -2.6538699 -0.07395055 -0.55378336 -1.5596733
-3.339949 -0.21647605 -0.3320323 -0.03230557 -0.059582092 -0.12667803 -0.027225584 -0.029266352
00000000: 975a f2bf 9888 85bd 8e15 f8bd ced4 1e3f
00000010: 81bb b73e 8af3 dcbf e2e5 86bf 809c 8abf
00000020: a267 ccbd 0981 37bd a527 823c 7219 e1bf
00000030: 0040 d4bc 820c 52c0 50f3 0cbd 86ea 4cbd
00000040: 15d1 77bd f65a 4abd e5c2 5dbd decd ddbf
00000050: 5b6c febe 1d89 b0bd 0ca8 febf 3b1a a4bf
00000060: 5d46 8cbd cbae 47be 5263 4c3f 08f6 cfbe
00000070: 0f5c 8dbd 2da9 b03e 77eb c83e 1535 bbbd
00000080: 2913 ffbd 586d 9dbf 59b3 cebe 1b33 39bd
00000090: 70aa e4be 3333 f2bd 4a6a 4dbf 4fbf e33f
000000a0: 65be 19bd a3c7 8c3e 7be5 023f 81df c6bc
000000b0: 200b 64bd ab68 87be 0562 97bd c522 0abf
000000c0: 3870 c2bd 4b28 f4bd 9b9a 5abd 8c5e d3bf
000000d0: 8325 1fc0 564f 903f fa30 81bd d8f4 f7bd
000000e0: c372 17bf 6b52 70bc 844d b13e e7f2 5ebd
000000f0: 14f7 f7bf 9698 85bc c572 c13e 3e8c 74bd
00000100: ef4d 07be ee65 e5bf 1669 e7be 145d aa3e
00000110: c8b8 00be 9831 9dbd 619a 6fbe dbdd 35bf
00000120: de21 9ebe a149 043f d3b1 a6bd 367d 02be
00000130: cef5 b1bd 6697 babf 0d70 9bbe 068e 803f
00000140: 6b3b 003c de3d 16bd ddaf 26bf a01a d9bd
00000150: 6f79 3d3e 8be8 cc3e a842 bb3f ff14 46c0
00000160: c736 a3bd 39e5 cbbd 1a6f 303f f38e 1dbd
00000170: b70a dc3b 46db 23bf c4a7 f1bd 3c5f 1fbd
00000180: 0bca 3bbd 07a4 9dbe a1cf ecbc 8077 27bf
00000190: bb6a d9bf e3f9 03bf a49e febe 5b34 97bd
000001a0: ce47 dbbd 4496 6cc0 d19d aebf ee20 5cbd
000001b0: 210b 3dbd 42a0 b4c0 60df 21c0 e362 8cbd
000001c0: c4e3 f5bd 8788 06ba ff11 e3be b73b 27bd
000001d0: 1c0f 4dbf ece0 133d db67 feb9 45a1 a13e
000001e0: 737c 69bc 4a99 cebc 984f d6bf 4da7 a6bf
000001f0: 64d2 4f3f 3c1f babd fc4c 85be 44df 10bf
00000200: 3d5b 793d 1152 05be 2154 afbc b497 aebe
00000210: 09da 9bbf f1d8 d1be cf78 88bd bd0b 7c3e
00000220: 0541 b6be 5fbb 3440 5d22 19c0 465d 93bf
00000230: 4580 12bd 3ee3 01be 0c56 77bd 9355 563a
00000240: 0cd3 87bc af8d 0fbe 99f9 40bd fbca 99bf
00000250: 9ffe b1bd a989 2cbe 8087 2e3d bc75 25bf
00000260: 22cf 0abd 2476 cdbd 35cd 92bc 2b64 9abe
00000270: c33f 84c0 13e2 8bbd 496f 14c0 cbed 90bf
00000280: daef c7be ca50 f9bd bbde 32be 76ed f93d
00000290: bdd2 86bd 7a17 58c0 4e43 d0bd be61 bd3d
000002a0: ddda 633e 15be 0ebe f877 cfbd 8bda 02be
000002b0: 3f3d a5bf 3c82 86bf 7d38 00bc c80d f3bf
000002c0: e507 51c0 0c76 c43e 0ed7 f2bd b6b8 60bd
000002d0: 4295 22bf 1bb2 a3be 7ff0 acbc e1c1 1abd
000002e0: d603 2cbd 1703 dcbf 79f5 a3bf 01ea 30bd
000002f0: dec1 aebf 7a9d 6abe 21a5 01bd 8193 debf
00000300: 1924 eabd 864e 68be 8f50 673e d23c 0bbf
00000310: 7493 b9bc 606e a5bd 3b32 14c0 37d0 d9bc
00000320: f7f2 febc 2248 09bf 5047 9fbe c44e 043c
00000330: b633 03be d5f0 393f 5a18 81be 9fb2 7cbd
00000340: 6447 2ebe 4a75 f83d a964 f2bf ff6a 4f3d
00000350: 1f1d 34bc 9cce 8ebf b3c9 eabc dcfd 47be
00000360: c088 f0bd f86b 2640 f6ac b6bf 3dbf 4dbf
00000370: 012a 813d 1bd1 9abe 1dc5 02c0 0413 23c0
00000380: c9a4 edbc 6310 07c0 0f47 e63e 55bd 4dbf
00000390: a98f 7bbf 60aa 07be e481 55bd 465f a5bc
000003a0: 6814 d4bf 6cf5 ba3e 01c1 d23b c1cb 25c0
000003b0: 256e 333d aa51 8fbf ce3b 19be d4ec 563f
000003c0: 6206 8cbf fd43 4a3e 8250 f8be dc22 39bd
000003d0: 01d9 29c0 6373 97bd bfc4 0dbf 60a3 c7bf
000003e0: b9c1 55c0 e6ab 5dbe 2300 aabe d852 04bd
000003f0: 5a0c 74bd e3b7 01be 3008 dfbc fdbf efbc

weight f4 [3, 256]
0.15816134 0.015442885 -0.0018963658 -0.090030946 -0.08484274 1.0278466 -0.18297143 -1.0498513
0.05452566 -0.058074772 -0.057993017 0.42426032 0.15776218 -0.07577085 0.005348806 0.0053445036
-0.0002293106 -0.016400948 0.027424634 -1.0214578 0.3930773 0.016824398 0.9711526 -0.15412512
0.020641904 -0.047122173 -0.12757923 0.30441186 0.00041759977 -0.2014963 -0.034784894 -0.029029699
-0.042078827 0.10640557 0.019553076 0.03035257 -0.42332533 0.003349686 0.7685889 0.20469745
-0.01304616 0.21835284 1.2420244 -0.031745408 -0.00873107 -0.47005668 -0.06608854 0.16944467
-0.006979159 0.002275177 -0.03937743 -0.16854617 -0.13511802 0.054219995 -0.003735532 -0.037805192
0.04218955 -0.028286628 0.0054166582 -0.0014142111 -0.2519826 -0.0102777425 -1.6518885 -0.017208863
0.0065421066 -0.2077654 0.30741343 0.050159752 0.021370746 0.054242685 -0.04572992 0.18011251
0.37741345 -0.04030089 0.016849143 0.0026778018 0.019648062 0.4738742 0.42299506 -0.15063083
-0.041534036 -0.007589548 -0.44561103 0.0267701 -0.0024570113 0.4959675 0.01984891 0.79547703
0.01657431 -0.037509464 -0.0028928195 -0.0047114324 0.3096678 -0.3523517 -0.07883682 0.021616027
-0.1739149 -0.15762345 -0.0018659456 1.1722835 -0.21314014 0.14491649 0.04245771 -0.011056295
-0.021082828 -0.25628605 0.5528855 -0.014106471 0.042255796 -0.03838387 0.4487747 0.008264347
-0.020662466 0.27175918 0.025381347 0.038994405 -0.41773352 -0.33012852 -0.026933108 -0.10055023
0.02907288 -0.012258498 0.037499346 -0.13086383 -0.1922415 0.027218606 0.0781872 0.42643565
-0.16604777 0.036417928 -0.032490343 -0.15980117 -0.09902752 -0.44079646 0.0029719193 0.19914833
0.09660418 -0.0040915627 0.0849057 0.07685474 0.056866337 -0.00039232723 -0.043918304 -0.829334
-0.25711587 0.30377224 0.004743576 0.031458225 -0.0033220814 0.008399529 -0.0019954767 -0.64204645
-0.058733422 0.004313983 0.065255836 0.024709383 0.3567041 -0.10905849 -0.5823787 0.7783799
-1.0046835 -1.1286985 1.0540992 0.32095528 0.019284587 -0.0014428826 -0.21989882 -0.11536817
0.37390128 0.0079737045 -0.22282612 -0.06523798 0.07498785 -0.33018354 -0.018086623 0.49627927
0.47829157 -0.03030243 -0.16388768 -0.023830244 0.7393531 0.04825289 0.0051200767 -0.023794167
0.010411097 -0.10798503 -0.41621467 0.0032629208 0.34820187 -0.38938382 -0.021881696 0.20297326
0.011535317 0.06880475 -0.29016638 0.21945974 -0.034148782 0.031148264 -0.3103006 0.010288502
0.030265883 0.63766104 0.22805601 -0.0072847395 0.041612398 0.11109178 0.16798516 -0.008229801
0.33110783 0.26922002 0.19665092 -0.11806897 0.0322005 -0.061381698 0.013512343 0.07173295
0.015064828 -0.05641278 0.09159211 0.540191 0.10319984 0.4306653 -0.14053933 0.45037544
-0.02023363 0.0035844615 0.024231503 -0.14174964 -0.1427498 -0.008336588 0.013991177 0.04700685
-0.50572795 0.15338004 -0.0025760867 0.09809445 -0.3115775 0.43098143 0.050513174 -0.17557871
0.04425016 -0.024188349 -0.99310136 -0.026673527 -0.36661538 0.052833132 -0.09819659 0.27604526
-0.103556715 0.5243953 0.09867513 -0.033536106 -0.060171127 0.023146868 -0.039191436 -0.023922605
00000000: 0cf5 213e 2804 7d3c 7a8f f8ba 2562 b8bd
00000010: 08c2 adbd 7a90 833f dd5c 3bbe 8761 86bf
00000020: 4c56 5f3d d0df 6dbd 168a 6dbd a638 d93e
00000030: 698c 213e bf2d 9bbd 0945 af3b f220 af3b
00000040: 1873 70b9 485b 86bc a0a9 e03c 21bf 82bf
00000050: 6e41 c93e 52d3 893c 759d 783f fad2 1dbe
00000060: 3619 a93c 2e03 41bd 21a4 02be dfdb 9b3e
00000070: 4bf1 da39 0c55 4ebe 9b7a 0ebd b1cf edbc
00000080: d95a 2cbd 2aeb d93d c62d a03c f4a5 f83c
00000090: 19be d8be 6886 5b3b 3ec2 443f 359c 513e
000000a0: 90bf 55bc e397 5f3e a8fa 9e3f 7907 02bd
000000b0: c30c 0fbc 45ab f0be 6e59 87bd e782 2d3e
000000c0: 6eb1 e4bb 231b 153b 3a4a 21bd 5e97 2cbe
000000d0: 615c 0abe c915 5e3d d4cf 74bb 9ed9 1abd
000000e0: f3ce 2c3d 5cb9 e7bc 397e b13b 0d5d b9ba
000000f0: dd03 81be fa63 28bc 1571 d3bf 9af9 8cbc
00000100: 2b5f d63b 74c0 54be 4b65 9d3e 5074 4d3d
00000110: b411 af3c 942d 5e3d 4c4f 3bbd 6a6f 383e
00000120: 563c c13e 8c12 25bd 3707 8a3c 0f7e 2f3b
00000130: f9f4 a03c a49f f23e cf92 d83e f83e 1abe
00000140: 981f 2abd beb1 f8bb 2127 e4be f84c db3c
00000150: cf05 21bb 74ef fd3e 2e9a a23c 62a4 4b3f
00000160: d9c6 873c 86a3 19bd 7595 3dbb 5c62 9abb
00000170: c78c 9e3e 7167 b4be 3375 a1bd 1814 b13c
00000180: bf16 32be 0b68 21be bf92 f4ba 630d 963f
00000190: 6941 5abe fd64 143e 23e8 2d3d 7625 35bc
000001a0: e5b5 acbc ed37 83be e789 0d3f d41e 67bc
000001b0: 6a14 2d3d 6838 1dbd ccc5 e53e 2f67 073c
000001c0: 5544 a9bc 0524 8b3e 8bec cf3c 99b8 1f3d
000001d0: 2be1 d5be 9b06 a9be d2a2 dcbc 47ed cdbd
000001e0: 402a ee3c ded7 48bc ea98 193d 2b01 06be
000001f0: f5da 44be 8ef9 de3c 9c20 a03d c655 da3e
00000200: 6d08 2abe f72a 153d 9814 05bd eba2 23be
00000210: f1ce cabd 13b0 e1be 88c4 423b 8aed 4b3e
00000220: 6ad8 c53d 8412 86bb 0ae3 ad3d 0566 9d3d
00000230: adec 683d 45b1 cdb9 aee3 33bd 3c4f 54bf
00000240: b1a4 83be 0988 9b3e 0070 9b3b 57da 003d
00000250: 47b7 59bb 2e9e 093c 8bc6 02bb 285d 24bf
00000260: 7592 70bd 505c 8d3b daa4 853d 556b ca3c
00000270: eba1 b63e 0f5a dfbd c516 15bf e843 473f
00000280: 7899 80bf 3179 90bf b9ec 863f 4054 a43e
00000290: b6fa 9d3c 1b1f bdba 282d 61be 2646 ecbd
000002a0: fd6f bf3e 24a4 023c 882c 64be 7d9b 85bd
000002b0: 3b93 993d d10d a9be 662a 94bc 5118 fe3e
000002c0: a2e2 f43e cd3c f8bc 2cd2 27be a537 c3bc
000002d0: 3f46 3d3f d3a4 453d 51c6 a73b fceb c2bc
000002e0: 4e93 2a3c 4127 ddbd 171a d5be bad6 553b
000002f0: 8447 b23e 515d c7be 3e41 b3bc 39d8 4f3e
00000300: a0fe 3c3c 81e9 8c3d b090 94be 0eba 603e
00000310: 98df 0bbd a52a ff3c b8df 9ebe 1b91 283c
00000320: 28f0 f73c c13d 233f 8487 693e d3b4 eebb
00000330: c371 2a3d 1684 e33d 4d04 2c3e 4ad6 06bc
00000340: f786 a93e 35d7 893e dc5e 493e 25ce f1bd
00000350: ace4 033d 606b 7bbd e062 5d3c bae8 923d
00000360: 78d2 763c 1611 67bd a594 bb3d f549 0a3f
00000370: 705a d33d 2a80 dc3e 8be9 0fbe 9c97 e63e
00000380: ffc0 a5bc 49e9 6a3b 2581 c63c d126 11be
00000390: 012d 12be 2f96 08bc 403b 653c 418a 403d
000003a0: 6377 01bf a80f 1d3e 90d3 28bb bee5 c83d
000003b0: 1687 9fbe 99a9 dc3e e7e6 4e3d e8ca 33be
000003c0: a83f 353d a526 c6bc e43b 7ebf 7182 dabc
000003d0: 03b5 bbbe 8e67 583d 4b1b c9bd ce55 8d3e
000003e0: 8b15 d4bd c53e 063f 3016 ca3d 285d 09bd
000003f0: 0076 76bd 809e bd3c 3387 20bd 57f9 c3bc

bias f4 [3]
-1.2271742 -0.13505398 2.6367903
00000000: 0b14 9dbf 974b 0abe 2cc1 2840

weight f4 [256, 14]
-23.169537 1.6626307 1.6954368 3.3233488 -1.2846379 0.06704872 0.30491766 -0.59703225
1.0341702 0.54559875 0.25560498 0.6439909 0.10170991 -0.11745425 1.428075 1.3756448
0.40861493 0.7772466 0.02466455 0.15736939 -1.8516787 0.15095769 -0.21967275 -0.19362874
0.13885428 0.037659172 0.056624305 0.20058727 3.1051285 -2.9969723 5.2646666 4.9654465
6.76059 -0.03307015 0.072696365 -0.026252247 0.051620226 0.050782032 -0.19943993 -0.022433942
0.21209913 -0.17499128 -0.038863912 0.94849724 3.4858742 5.2637157 -3.5120645 -4.5898104
0.36684972 0.80715144 0.1637007 0.4347112 -0.19146535 0.41484925 0.5083722 1.4716138
1.1787609 -0.98375577 0.81734324 -3.769023 -4.7847195 -1.1238719 0.27183685 -0.28732055
0.49277142 0.27223986 -0.024528895 0.08547675 -0.040855188 0.11016534 -2.2815368 -0.61342883
0.24057576 -0.8778634 0.7739919 -0.45361564 0.55890864 -0.27523088 0.36541447 -0.09194908
-0.023350272 -0.05239005 -0.27062052 0.09731504 -1.4487218 1.855685 -1.0560288 -2.1010737
-0.29459256 -0.21575633 0.16704401 0.27666968 -0.23287807 -0.22535016 -0.014790812 0.08255133
-0.3994934 -0.046651613 -1.629293 -3.613707 3.034588 5.029566 -9.118549 -0.39570683
-1.2967871 -0.84506786 0.6874496 0.3674842 -0.38357258 -0.018537221 0.024024896 0.16498475
1.6443051 -2.8051085 1.2306309 -5.8596454 -0.6574634 -0.2452549 -0.102034554 0.06639668
-0.10084489 -0.39619067 -0.26213968 0.08945406 0.19004628 -0.18474203 2.3965483 3.7589877
-5.3367834 4.5886197 -1.137686 -1.3639272 -0.7462558 -0.30205193 0.39973795 0.023565957
-0.2623984 0.061117664 -0.21846983 -0.4605792 0.78128207 -1.5386984 -1.0742124 -1.7116115
-2.0095139 -0.2726778 -2.301354 -1.5001494 1.8980595 0.9261463 0.04869936 0.11083359
0.056033578 -0.048307367 -2.5697289 0.28762192 2.1343226 4.972104 -5.618916 -3.3827038
-0.21992889 -0.48204982 0.044822082 0.95317507 -0.8212153 -1.2169515 0.5921068 0.21563494
-1.9883139 -3.9653804 1.2739007 0.6929321 1.1312859 -0.30837438 1.0927173 2.5365336
-1.3583871 -0.68459064 0.16059263 0.9218755 0.17107405 0.08110714 -2.652706 0.016713023
-4.465544 1.3092304 -5.3484616 0.25507286 -0.34660068 -0.07285244 -0.17631952 -0.008690937
-0.05365496 -0.2923539 0.028966665 0.008405747 -5.677377 2.5120764 5.53258 5.3865623
-0.78168696 -1.4107579 -0.40230325 1.0219489 -0.74049443 -0.32433763 -0.52023435 0.17031081
0.12722607 -0.44262818 -4.027465 -3.0296614 2.8057141 2.001562 0.57380486 0.26188955
0.19738355 0.30679703 -0.21516487 -0.065973766 0.0030795054 0.024396494 0.023652742 0.030746214
-11.3083315 -4.322557 1.9237 4.989407 -6.815108 -0.27493536 0.4781843 -1.0956993
-0.62687385 -0.27252844 -0.07895313 -1.6314366 -0.35221118 0.22407618 -9.127264 0.11044726
-2.4060783 4.9496427 -0.45997012 0.3365356 -2.1652446 -0.4801826 0.20091209 -0.13840662
-0.47281837 0.09866261 -0.12480036 -0.37103197 -8.876917 0.09906099 -0.000106034306 -4.0966005
00000000: 365b b9c1 15d1 d43f 1304 d93f bfb1 5440
00000010: 046f a4bf d750 893d 2b1e 9c3e 1bd7 18bf
00000020: b05f 843f 5cac 0b3f a8de 823e 96dc 243f
00000030: 494d d03d db8b f0bd 29cb b63f 2115 b03f
00000040: fa35 d13e a2f9 463f 4f0d ca3c 7125 213e
00000050: cf03 edbf a794 1a3e e5f1 60be 9d46 46be
00000060: d12f 0e3e 8140 1a3d e3ee 673d c066 4d3e
00000070: 6dba 4640 65ce 3fc0 2678 a840 f0e4 9e40
00000080: c156 d840 9174 07bd d5e1 943d f40e d7bc
00000090: bb6f 533d d200 503d fb39 4cbe 63c7 b7bc
000000a0: 8430 593e ea30 33be c42f 1fbd b7d0 723f
000000b0: 9018 5f40 5c70 a840 aac5 60c0 badf 92c0
000000c0: bad3 bb3e 7aa1 4e3f 28a1 273e 7792 de3e
000000d0: 7e0f 44be 1f67 d43e ae24 023f d75d bc3f
000000e0: a3e1 963f 6bd7 7bbf 683d 513f ac37 71c0
000000f0: 6c1c 99c0 09db 8fbf 332e 8b3e ae1b 93be
00000100: 894c fc3e 0663 8b3e d2f0 c8bc 6f0e af3d
00000110: c557 27bd 5e9e e13d b304 12c0 ac09 1dbf
00000120: 7e59 763e a8bb 60bf 5524 463f 4f40 e8be
00000130: a314 0f3f 10eb 8cbe 9b17 bb3e cd4f bcbd
00000140: 1249 bfbc f396 56bd c68e 8abe 1c4d c73d
00000150: b76f b9bf 1687 ed3f f42b 87bf fe77 06c0
00000160: d6d4 96be 3aef 5cbe 960d 2b3e a6a7 8d3e
00000170: 9777 6ebe 31c2 66be 2955 72bc ac10 a93d
00000180: 668a ccbe c315 3fbd ac8c d0bf fa46 67c0
00000190: b136 4240 34f2 a040 94e5 11c1 169a cabe
000001a0: 1ffd a5bf 5e56 58bf b2fc 2f3f e426 bc3e
000001b0: a063 c4be 5fdb 97bc dccf c43c c3f1 283e
000001c0: 9778 d23f e686 33c0 5085 9d3f 3782 bbc0
000001d0: 854f 28bf 1a24 7bbe 7ef7 d0bd fcfa 873d
000001e0: c487 cebd 81d9 cabe 2c37 86be b133 b73d
000001f0: 7e9b 423e 042d 3dbe 0c61 1940 4193 7040
00000200: eec6 aac0 f9d5 9240 b29f 91bf 2b95 aebf
00000210: 9f0a 3fbf 8da6 9abe 74aa cc3e 650d c13c
00000220: 1559 86be 8456 7a3d 8eb6 5fbe 09d1 ebbe
00000230: 1a02 483f 12f4 c4bf cb7f 89bf 1616 dbbf
00000240: e09b 00c0 6d9c 8bbe 6249 13c0 e504 c0bf
00000250: 9df3 f23f ed17 6d3f fb78 473d b9fc e23d
00000260: 7783 653d f2dd 45bd 7076 24c0 2e43 933e
00000270: be98 0840 7a1b 9f40 29ce b3c0 387e 58c0
00000280: 0a35 61be 3ccf f6be 5c97 373d 4803 743f
00000290: 2a3b 52bf 11c5 9bbf 5094 173f 68cf 5c3e
000002a0: 1281 febf cbc8 7dc0 2e0f a33f 0064 313f
000002b0: facd 903f 3fe3 9dbe 29de 8b3f 9156 2240
000002c0: a1df adbf 5541 2fbf 6572 243e 0800 6c3f
000002d0: 092e 2f3e 801b a63d efc5 29c0 c0e9 883c
000002e0: bde5 8ec0 dd94 a73f 9926 abc0 e998 823e
000002f0: a575 b1be a933 95bd 1b8d 34be 6f64 0ebc
00000300: 4ec5 5bbd 69af 95be 804b ed3c 42b8 093c
00000310: 13ad b5c0 dcc5 2040 e50a b140 b85e ac40
00000320: a31c 48bf b793 b4bf b1fa cdbe 39cf 823f
00000330: 0b91 3dbf 950f a6be 142e 05bf f565 2e3e
00000340: 8d47 023e 29a0 e2be fee0 80c0 f9e5 41c0
00000350: d290 3340 9819 0040 e0e4 123f 6316 863e
00000360: ea1e 4a3e 8014 9d3e 2e54 5cbe 411d 87bd
00000370: 87d1 493b 28db c73c 65c3 c13c 7cdf fb3c
00000380: edee 34c1 6352 8ac0 cd3b f63f 39a9 9f40
00000390: 5d15 dac0 54c4 8cbe 93d4 f43e e03f 8cbf
000003a0: ce7a 20bf d988 8bbe 2eb2 a1bd ead2 d0bf
000003b0: 0655 b4be 3a74 653e 4609 12c1 2c32 e23d
000003c0: 30fd 19c0 7963 9e40 3481 ebbe 654e ac3e
000003d0: 5e93 0ac0 7eda f5be e6bb 4d3e 77ba 0dbe
000003e0: 4015 f2be 9f0f ca3d 5597 ffbd e7f7 bdbe
000003f0: da07 0ec1 7de0 ca3d bc5e deb8 5a17 83c0

bias f4 [256]
-4.3728504 -3.342976 0.72915035 -1.8533239 -0.9214075 -3.8948245 -5.311364 -1.340924
-3.1982205 -2.3115187 -7.415242 -3.661737 -2.0696597 -2.4069412 -0.3168718 5.889098
-5.148483 -4.0556717 -1.1245224 4.9271436 1.3690202 1.9890412 -3.1984863 -3.6469088
-6.0639424 1.6821401 -3.8883893 -2.4679692 3.404693 -2.434126 -5.896221 -5.193043
-1.3158873 -1.2691679 0.089321315 -2.5568085 3.647944 -2.0861566 -2.5996923 -3.3523934
-3.8869064 -3.5884824 -0.3453101 -3.5882418 2.113157 4.1079607 -3.6211522 -5.51752
-5.1431546 -3.765557 -4.4757395 -5.115929 -0.25583795 -2.8825564 0.32088608 0.123430274
2.6831262 -1.1759686 6.02413 -1.8287977 -5.939253 -4.8563595 -0.8468075 -5.9747133
-3.2429693 -1.3384 -1.2706066 1.328838 -5.717554 -1.4145751 4.4973683 -2.8937318
-6.236046 -2.6276145 5.9134784 -1.2669996 -2.87195 -5.7543097 -3.0191822 -0.7744297
-4.451124 -3.221544 -3.6010973 2.0838046 1.2384967 -1.4080584 5.166209 1.3964803
-1.1505009 -1.7832222 6.28934 -3.7256408 0.61543745 3.7043781 -1.4604961 2.869273
-0.076372094 0.25708693 0.37908557 -3.779623 4.8188562 -4.2530413 -3.192032 -0.22179142
5.813792 6.118773 -2.0098143 -5.564474 1.4493393 1.285522 5.4203343 -4.409501
-5.1940427 -4.0335927 -1.9407214 -1.7004154 -3.9291527 -3.4182334 -2.7149777 -4.438646
3.1536825 -4.4468584 1.1872333 -4.326913 -4.548619 2.3949876 -3.7205534 -2.6173258
-0.6188288 -4.676357 -5.4005337 -5.0911684 -1.6307625 -3.4056838 1.725301 -5.1107583
2.8524783 -3.8952854 -2.1027482 -3.9460378 -3.5337918 0.23040146 2.7942688 -4.3743105
-0.41965237 -1.5395023 -3.6757374 -1.7425557 -0.7889153 -2.5617747 0.03258059 -4.74668
3.5358102 -4.4396763 -4.609407 6.664292 -4.3978853 -3.5338795 -5.9097095 1.8843093
-1.0305315 -4.518905 -1.4366773 6.460832 3.8653548 -2.4902987 -3.038229 -1.3297796
-3.3333263 1.9100642 -2.74024 -3.2015898 -5.8611455 -4.2797394 -4.956386 -1.7895694
-4.5457907 -1.1641177 1.0166355 4.5513887 -2.4106178 -4.074066 -3.496793 3.1670759
-4.3992906 -2.515766 -3.7962642 -4.4824443 -5.8640003 0.94898736 0.7448947 -0.73615557
-5.1703796 -2.6320202 -2.6476014 -4.7887425 -4.990073 1.2727861 -1.6872865 4.2699676
-3.4219384 -2.818375 1.616919 -2.6830354 -6.3866744 -1.8025858 -3.706153 -3.4831588
-5.4763513 -2.607765 -5.6682134 0.06720947 0.29794297 3.147403 -5.4724183 -4.5415316
-1.3393428 -0.56016046 -2.7007353 -2.54652 -4.7749705 0.34293357 6.5941677 -5.70547
-5.7146926 -0.28713578 -3.41135 -3.0675097 -4.690611 -1.7915506 -0.39531124 5.2478304
-2.849391 -1.0512276 -0.7403177 5.495777 0.2490535 -4.993602 -0.9311362 -3.052082
-7.056194 1.109659 -4.421359 3.6918988 -4.4033513 -2.7764297 -4.8218956 1.3639159
-2.1140068 -1.5376306 -4.498068 -2.3850176 6.64642 -1.29689 2.2781665 -3.438447
00000000: 64ee 8bc0 52f3 55c0 99a9 3a3f b839 edbf
00000010: 5de1 6bbf ce44 79c0 b2f6 a9c0 66a3 abbf
00000020: a5af 4cc0 ecef 13c0 aa49 edc0 e659 6ac0
00000030: 4e75 04c0 530b 1ac0 053d a2be 7e73 bc40
00000040: 5fc0 a4c0 10c8 81c0 5af0 8fbf 29ab 9d40
00000050: 0e3c af3f e798 fe3f 00b4 4cc0 f466 69c0
00000060: d10b c2c0 5e50 d73f 5fdb 78c0 35f3 1dc0
00000070: 7de6 5940 b8c8 1bc0 d8ad bcc0 692d a6c0
00000080: ff6e a8bf 1874 a2bf 18ee b63d c0a2 23c0
00000090: ea77 6940 9783 05c0 5c61 26c0 9d8d 56c0
000000a0: 13c3 78c0 b2a9 65c0 7ccc b0be c1a5 65c0
000000b0: f73d 0740 6a74 8340 f5c0 67c0 868f b0c0
000000c0: b994 a4c0 e3fe 70c0 4239 8fc0 b1b5 a3c0
000000d0: 31fd 82be ce7b 38c0 2e4b a43e 03c9 fc3d
000000e0: 57b8 2b40 2486 96bf acc5 c040 0b16 eabf
000000f0: 5c0e bec0 4c67 9bc0 60c8 58bf da30 bfc0
00000100: cf8c 4fc0 b150 abbf 3da3 a2bf 5d17 aa3f
00000110: 34f6 b6c0 cc10 b5bf 71ea 8f40 e732 39c0
00000120: b08d c7c0 d62a 28c0 373b bd40 0b2d a2bf
00000130: 07ce 37c0 4e23 b8c0 483a 41c0 0641 46bf
00000140: 9c6f 8ec0 c72d 4ec0 6178 66c0 0e5d 0540
00000150: 0f87 9e3f 423b b4bf 9651 a540 debf b23f
00000160: 9d43 93bf a040 e4bf 4642 c940 e670 6ec0
00000170: 4f8d 1d3f 8814 6d40 89f1 babf 2ba2 3740
00000180: f968 9cbd e6a0 833e 8117 c23e 58e5 71c0
00000190: 1234 9a40 ea18 88c0 414a 4cc0 4a1d 63be
000001a0: 960a ba40 fdcc c340 cca0 00c0 2c10 b2c0
000001b0: f383 b93f fc8b a43f 6173 ad40 a21a 8dc0
000001c0: 9935 a6c0 3113 81c0 8f69 f8bf 36a7 d9bf
000001d0: 3d77 7bc0 56c4 5ac0 32c2 2dc0 6309 8ec0
000001e0: efd5 4940 aa4c 8ec0 43f7 973f 1276 8ac0
000001f0: 498e 91c0 7a47 1940 8c1d 6ec0 4482 27c0
00000200: 906b 1ebf b7a4 95c0 2cd1 acc0 daea a2c0
00000210: d3bc d0bf b9f6 59c0 aad6 dc3f 558b a3c0
00000220: 018f 3640 5b4c 79c0 6d93 06c0 e28b 7cc0
00000230: a529 62c0 5cee 6b3e 4dd5 3240 5afa 8bc0
00000240: addc d6be 690e c5bf 483f 6bc0 110c dfbf
00000250: 5af6 49bf 1ef4 23c0 3a73 053d cde4 97c0
00000260: b74a 6240 d411 8ec0 4380 93c0 e141 d540
00000270: 7abb 8cc0 152b 62c0 571c bdc0 0c31 f13f
00000280: 75e8 83bf df9a 90c0 0be5 b7bf 23bf ce40
00000290: f961 7740 0e61 1fc0 5872 42c0 3836 aabf
000002a0: 3855 55c0 fc7c f43f 1860 2fc0 d9e6 4cc0
000002b0: 818e bbc0 a0f3 88c0 b79a 9ec0 9c10 e5bf
000002c0: 1e77 91c0 cf01 95bf 1d21 823f faa4 9140
000002d0: 9047 1ac0 c05e 82c0 75cb 5fc0 5fb1 4a40
000002e0: fdc6 8cc0 4f02 21c0 fef5 72c0 2f70 8fc0
000002f0: e4a5 bbc0 d6f0 723f 6bb1 3e3f b174 3cbf
00000300: c073 a5c0 0573 28c0 4d72 29c0 613d 99c0
00000310: aeae 9fc0 a8ea a23f 01f9 d7bf 93a3 8840
00000320: 0a01 5bc0 4260 34c0 34f7 ce3f dab6 2bc0
00000330: a35f ccc0 22bb e6bf 9c31 6dc0 13ec 5ec0
00000340: 453e afc0 9fe5 26c0 0162 b5c0 1ea5 893d
00000350: fb8b 983e 0d6f 4940 0d1e afc0 3a54 91c0
00000360: 966f abbf ad66 0fbf d9d8 2cc0 2ffa 22c0
00000370: 8fcc 98c0 fd94 af3e 6c03 d340 3693 b6c0
00000380: c3de b6c0 7603 93be 8f53 5ac0 1452 44c0
00000390: 7c19 96c0 8851 e5bf 3c66 cabe 3aee a740
000003a0: 6c5c 36c0 a08e 86bf 7685 3dbf 68dd af40
000003b0: e107 7f3e 96cb 9fc0 f15e 6ebf 5055 43c0
000003c0: 57cc e1c0 4e09 8e3f c67b 8dc0 1248 6c40
000003d0: 41e8 8cc0 06b1 31c0 f84c 9ac0 cc94 ae3f
000003e0: e34b 07c0 14d1 c4bf 2cf0 8fc0 21a4 18c0
000003f0: 79af d440 7e00 a6bf 7bcd 1140 840f 5cc0

weight f4 [256, 256]
0.2737162 0.08004026 -0.049816385 -0.2259968 0.07363504 -0.17400926 0.13936655 -0.22611602
-0.06679564 -0.7769524 0.035927474 -0.2367063 -0.25342393 0.9496346 -0.28554592 -0.42726782
-0.05426689 -0.10257811 -0.2873647 -0.16846539 -0.1389783 -0.15593511 -0.04961069 -0.27327782
-0.019728424 -0.21943726 0.49180034 -0.21116173 -0.15731852 -0.10754666 -0.8134692 -0.19157065
-0.5336495 -0.19291888 0.20639247 -0.37214905 -0.25454503 -0.018101212 -0.7816309 -0.7011163
0.07406239 0.24624449 -0.5283812 0.38355616 -0.8058544 -0.061227616 0.14812818 0.31218553
-0.13727492 -0.057629827 -0.2579774 -0.26619947 0.256747 -0.54440063 0.23952334 0.0697978
-0.22104679 -0.34494066 -0.08013175 -0.069705114 -0.020633906 0.21910988 -0.22839653 0.23432145
-0.32868305 -0.8862952 -0.030812291 -0.4835814 -0.104646176 -0.4471994 -0.36962605 -0.32858285
0.010305153 -0.1296363 -0.6043428 0.2198286 -0.22299324 0.658353 0.4774958 -0.4229689
-0.18060169 0.1853627 0.313736 -0.43518442 0.12454427 0.0052511133 0.19812587 0.057505663
-0.07947471 -0.20816801 0.1634075 0.102435865 0.041427642 -0.040443994 -0.35728204 0.004946679
-0.41198814 -0.08571093 0.06763348 0.08660286 -0.5451266 0.4067607 -0.13719767 -0.08266767
-0.9590226 0.004852308 0.11347111 -0.4768948 -1.1309336 -0.03407246 -0.23293535 -0.032019258
0.14998913 -0.61222833 -0.43192217 0.046097055 0.60588557 -0.41636273 0.4262255 -0.15471625
-0.0060944925 0.21799272 -0.114256546 0.319103 0.4946603 -0.40998694 0.76539314 -0.26033214
-0.056213256 0.11745114 -0.22323367 0.0050665694 -1.128579 -0.058444154 0.4583447 -0.9876243
-0.07026422 -0.31573972 -0.58821356 0.12425697 -0.20651735 0.049329408 -0.18830913 -0.18500115
-0.1397465 -0.14994572 -0.043771032 0.3072953 0.038687173 -0.28910908 -0.45326397 -0.14392063
-0.4921083 -0.26908165 0.022284774 -0.106609926 0.09760047 0.6013188 -0.12618433 0.26908356
-0.31268767 0.059005942 -0.09270724 -0.391461 -0.30909014 0.32568604 0.30848232 -0.49591902
0.06117926 0.084214106 -0.30490476 -0.3490042 -0.057183914 -0.1489376 0.08378113 0.13132189
0.06026313 -0.024479505 -0.18552344 -0.44145593 -0.5170262 -0.50125474 -0.13478819 0.07103499
-0.017891796 0.14401685 -0.25706875 -0.43338272 0.14815144 0.14691941 -0.55192107 0.21869302
-0.1923187 -0.35112926 0.0744421 0.2305261 -0.009611254 0.03837967 0.017704403 -0.13846748
0.71700084 0.22043648 -0.24992174 -0.504884 -0.34618044 -0.16636278 0.0496588 0.11300442
0.18886138 -0.07114663 0.27294734 -0.0764732 -0.48852572 -0.33754426 -0.06023034 -0.26193574
-0.4531741 -1.0032072 -0.2795932 0.10243667 0.05375672 0.08958679 -0.13499685 0.035399094
-0.18157087 -0.30731478 -0.05692731 0.040916517 -0.24869098 0.116589546 -0.089162685 0.08801246
-0.4167532 -0.2884135 -0.16187863 -0.16208877 -0.8028079 0.15313062 0.10323985 0.2185822
0.15852773 -0.15109628 -0.101307526 -0.062171813 0.1875076 -0.05581868 -0.13651934 -0.17768712
-0.005794698 -0.06894623 0.28582904 0.14056775 -0.76545906 0.033854585 -0.32360286 0.017717214
00000000: 8824 8c3e 26ec a33d 440c 4cbd b56b 67be
00000010: f8cd 963d 7c2f 32be 1bb6 0e3e f58a 67be
00000020: 27cc 88bd 5ae6 46bf b028 133d 2363 72be
00000030: c8c0 81be 411b 733f 1333 92be d9c2 dabe
00000040: f546 5ebd 7914 d2bd 7721 93be 3182 2cbe
00000050: 5450 0ebe 74ad 1fbe 9434 4bbd 12eb 8bbe
00000060: 819d a1bc 29b4 60be 41cd fb3e c83a 58be
00000070: 1b18 21be 6c41 dcbd 843f 50bf 192b 44be
00000080: 419d 08bf 878c 45be 8c58 533e 528a bebe
00000090: ba53 82be fe48 94bc f618 48bf 5c7c 33bf
000000a0: 06ae 973d 8427 7c3e fe43 07bf 7961 c43e
000000b0: 794c 4ebf cfc9 7abd eaae 173e c8d6 9f3e
000000c0: cc91 0cbe 410d 6cbd 9d15 84be 4c4b 88be
000000d0: 5874 833e d75d 0bbf 9b45 753e 26f2 8e3d
000000e0: 175a 62be 109c b0be 1d1c a4bd 8ec1 8ebd
000000f0: 7008 a9bc 575e 603e c8e0 69be f6f1 6f3e
00000100: 2549 a8be 3ee4 62bf 0f6a fcbc fb97 f7be
00000110: bc50 d6bd 52f7 e4be a03f bdbe 033c a8be
00000120: f2d6 283c 61bf 04be 36b6 1abf c01a 613e
00000130: 5758 64be d289 283f 547a f43e 618f d8be
00000140: a6ef 38be b8cf 3d3e 01a2 a03e 7ed0 debe
00000150: 1111 ff3d 8811 ac3b 82e1 4a3e 0f8b 6b3d
00000160: a3c3 a2bd ff29 55be 4c54 273e e5c9 d13d
00000170: 08b0 293d 9aa8 25bd aced b6be c017 a23b
00000180: 1cf0 d2be 3689 afbd 6c83 8a3d d75c b13d
00000190: 6b8d 0bbf f042 d03e 8c7d 0cbe ab4d a9bd
000001a0: 8182 75bf 1c00 9f3b 8b63 e83d 8e2b f4be
000001b0: 6fc2 90bf 908f 0bbd 9b86 6ebe a026 03bd
000001c0: c096 193e ffba 1cbf e724 ddbe 44d0 3c3d
000001d0: 511b 1b3f 7f2d d5be 3b3a da3e f06d 1ebe
000001e0: 4fb4 c7bb 7c39 5f3e 56ff e9bd 7861 a33e
000001f0: 1d44 fd3e cfe9 d1be cef0 433f 414a 85be
00000200: df3f 66bd 398a f03d 5e97 64be 7705 a63b
00000210: 4775 90bf 2363 6fbd 28ac ea3e f2d4 7cbf
00000220: b0e6 8fbd a3a8 a1be 2a95 16bf 707a fe3d
00000230: 4979 53be a20d 4a3d 1cd4 40be f170 3dbe
00000240: b519 0fbe 5f8b 19be 4149 33bd cf55 9d3e
00000250: 7176 1e3d 1b06 94be 3712 e8be ee5f 13be
00000260: 9ef5 fbbe 12c5 89be 8f8e b63c 4e56 dabd
00000270: c1e2 c73d 07f0 193f 7736 01be 52c5 893e
00000280: 9918 a0be 37b0 713d 4bdd bdbd 946d c8be
00000290: 1041 9ebe 52c0 a63e 65f1 9d3e 19e9 fdbe
000002a0: 1b97 7a3d 7278 ac3d 7a1c 9cbe aeb0 b2be
000002b0: ae39 6abd 1983 18be 7195 ab3d 3f79 063e
000002c0: 79d6 763d 3e89 c8bc dbf9 3dbe 8306 e2be
000002d0: d45b 04bf 3b52 00bf ea05 0abe cb7a 913d
000002e0: d191 92bc 2779 133e 849e 83be 57e4 ddbe
000002f0: 03b5 173e 0b72 163e b34a 0dbf 10f1 5f3e
00000300: 31ef 44be 37c7 b3be 1a75 983d 090f 6c3e
00000310: 8578 1dbc 0034 1d3d d308 913c 6bca 0dbe
00000320: 5e8d 373f 1aba 613e 7ceb 7fbe 1440 01bf
00000330: 903e b1be 015b 2abe 0767 4b3d dd6e e73d
00000340: e164 413e 53b5 91bd c1bf 8b3e fb9d 9cbd
00000350: 0b20 fabe 9ad2 acbe 17b4 76bd 711c 86be
00000360: 7006 e8be 1869 80bf d726 8fbe 51ca d13d
00000370: 0230 5c3d 4779 b73d 9d3c 0abe a4fe 103d
00000380: b7ed 39be 5d58 9dbe 9c2c 69bd 1498 273d
00000390: d9a8 7ebe 80c6 ee3d ed9a b6bd e03f b43d
000003a0: ad60 d5be efaa 93be 83c3 25be 99fa 25be
000003b0: d284 4dbf 46ce 1c3e 6a6f d33d 03d4 5f3e
000003c0: 1855 223e fcb8 1abe 527a cfbd dfa7 7ebd
000003d0: fe01 403e 21a2 64bd bacb 0bbe 9df3 35be
000003e0: 73e1 bdbb ae33 8dbd 2f58 923e fef0 0f3e
000003f0: 20f5 43bf 1bab 0a3d 46af a5be b123 913c
