benchmarks/Ant_ddpg/Ant_ddpg_s234/pyt_save/model.pt (torch_old, 777978 bytes, 11 tensors)

weight f4 [256, 111]
00000000: 7b0c 38c0 7015 d7c0 9174 edc0 644a bdc0
00000010: c5a8 2b3f 3585 193f 31ac b63f 416f 2340
00000020: 8d7f c43e c9b4 1c3f 4b1e 05bf 12b0 183f
00000030: f1ed 6d3d 8a10 04bf 9514 64bf edde dfbf
00000040: 0605 2dbf 02e1 f9be c573 3c3e 55b5 623d
00000050: 4e58 1b3e 4e0e d73d cb23 14be 2390 b33d
00000060: 6dc1 db3d 8702 113b 92c9 cfbd f01c c6bb
00000070: db6c 9b3d 7924 ae3d 8281 553d dc1b 84bc
00000080: eaff 553d 154f 94bf 28b0 fa3f 6322 863f
00000090: 9b06 983f a505 b53f 2a35 29c0 62c2 96bd
000000a0: 6017 063c 9f1b c13d 8681 87bd b9d6 b9bd
000000b0: bd97 8ebd cd54 903f 201c 573f 2e3c afbe
000000c0: 975c f63e d64e 513e 5c42 a4be 67ee c4bf
000000d0: dd9a 99be c1c7 76bd 427d 90be af36 53bf
000000e0: a47b 163f 8ab3 9cbd 95af c13d d164 0dbd
000000f0: b5e6 99bd c7ac 83bd 94aa c7bc b83a b13d
00000100: b2ac 45bf 2ded 0f3f 8e7b aabe 2c77 b43e
00000110: 487a 0c40 051f 17bf dca0 1abf 7ee9 6e3e
00000120: fb3e 86be a095 1dbf dc80 86bf d02d d63c
00000130: f83a 1fbc a04a 2fbb 84f9 82bd d5db 32bd
00000140: 80c4 d23c 939d b33e edf8 76bf 0ec7 33be
00000150: 8752 6fbf d2ea 123e 1195 7b3e d2f8 81be
00000160: 451d c2bf 7e8b 8a3f 8389 c4bd f996 0f3d
00000170: 59cc 9fbe cac7 1d3d d8ba 703c c021 abba
00000180: 89af 21bd a2cf 383d 798f 803d 93a6 18bf
00000190: c698 173e 0b76 1fbe f4ef be3d 25a4 dbbd
000001a0: 9394 6bbf 89ce b23e bd10 15be 03ac 8b3f
000001b0: 7bc8 98bb eb28 0dbf eb3c 1d3e b23f 62be
000001c0: 48b8 dbc0 aca9 9540 e9f5 a2bf bbcb f440
000001d0: 8b35 a23f 7fe3 bebf ace7 3a3f d762 a23f
000001e0: fdb0 a53f 1ca5 65be 8898 b8bf 8d33 68be
000001f0: aef5 f03e 92d2 47be f9d9 20bf 8d14 77be
00000200: 3ef9 60be 13ac cc3e b125 293d 98b0 253d
00000210: 0a57 213e 389d 6ebc 35ab 053e 0e4f eb3d
00000220: bbef db3c ecc7 51bd 7a0a 523d a6a4 223d
00000230: 16c2 533d 70a4 f2bc 1807 75bc e687 a9bd
00000240: 0c39 9cbe db23 7e3f 8513 f53f 2ef8 683e
00000250: b985 e93d 1e23 b8c0 6477 fb3c 60fc e3bb
00000260: 80f6 6dbb be40 3a3d 2703 62bd 0941 b73d
00000270: 0a2f d53f e3c2 063e f1cf 013f 517d a73f
00000280: a44f bfbc 89ae a2c0 1566 34bd f3d6 a3be
00000290: 5cb3 713e e684 ae3e dce8 a73d dcef 553f
000002a0: 96c7 733d 0e18 243d d9d3 afbd 4794 b33d
000002b0: 6a53 b9bd 278e 0fbd 4454 e33e a94d 503f
000002c0: 659c 813f ba77 a03f 0023 ddbe b88a 68c0
000002d0: 6c96 d63c f3c1 56be 720e afbe a11e 183f
000002e0: 7421 0abf b302 44bc e02f ecbc b6ba 98bd
000002f0: 2017 093c 2c85 abbd 85d7 b1bd a69f 1b3d
00000300: a94a b3bf ab3f 0ec0 b085 0940 0bb6 c33f
00000310: ff09 50bf 5fe0 5ac0 1ef9 453e db30 953e
00000320: a33f 723e b362 b73d b2ae 023f 7962 a6bd
00000330: a845 793c c439 98bc aac5 2e3d 13b9 1abd
00000340: f07e 81bb 2356 983d 98bc 293f 7638 ee3f
00000350: 7ca6 3b3f 60ba 9abe 21b8 3e3f 6282 6dc0
00000360: b7c8 6bbf c2d9 39be a31b 203f cc4c 34bf
00000370: b3e2 9dbd acc7 a73e ef7f 6cbf 3a47 e9be
00000380: 7059 d140 6efa 2541 e996 2ec0 8e91 ca3e
00000390: 1deb ebbe 9c7e c43e 9492 f53e 093d e13f
000003a0: b665 d43f 4bd3 d63f cc49 dcbf 0d57 c2be
000003b0: 3ab1 913e 608e fe3e dc85 99bc 1aa2 42be
000003c0: 5ec5 7fbe e57e 66be 488f b43e 1c7e 8c3c
000003d0: c51c 5b3d e8f1 12be 7b6c 2f3e 706a 4b3d
000003e0: 075c 1cbc 86b6 7e3d 75d5 813d 7ed2 11bd
000003f0: 1efb 2f3d c54e 15bd ba27 a0bd f006 09c0
-2.8757617 -6.721367 -7.4204793 -5.915331 0.67054397 0.5996888 1.4271299 2.5536654
0.38378564 0.61213356 -0.5199935 0.5964366 0.058088247 -0.51587737 -0.89093906 -1.7489907
-0.6758579 -0.4880448 0.18403538 0.055348713 0.15170404 0.10500775 -0.14466779 0.08767726
0.107302524 0.002212675 -0.10145868 -0.00604593 0.07589122 0.0850305 0.05212546 -0.016126566
0.05224601 -1.1586634 1.9585009 1.0479244 1.1877016 1.4142348 -2.6438699 -0.07361294
0.008184284 0.094290964 -0.066165015 -0.09074158 -0.069625355 1.1275879 0.8402729 -0.342256
0.48117515 0.2044023 -0.32081878 -1.5385255 -0.30000964 -0.060249094 -0.28220564 -0.82505316
0.5878241 -0.07651432 0.09457318 -0.034519974 -0.07514707 -0.06429439 -0.02437333 0.08653778
-0.7721664 0.56221277 -0.3329739 0.3524717 2.1949635 -0.5903171 -0.604017 0.23331258
-0.26219925 -0.61556435 -1.0508075 0.026144892 -0.009718649 -0.002674736 -0.063952476 -0.04366668
0.025728464 0.35081157 -0.9647358 -0.17556402 -0.934853 0.1434739 0.24568583 -0.25385147
-1.5165182 1.082382 -0.09596541 0.035056088 -0.31210592 0.03852061 0.0146929845 -0.0013056323
-0.039474044 0.04511989 0.06277365 -0.5962917 0.14804372 -0.15572374 0.09323111 -0.107246675
-0.9202358 0.349232 -0.14557166 1.0911869 -0.004662571 -0.5514056 0.1535527 -0.2209461
-6.8662453 4.676962 -1.2731296 7.6498694 1.267259 -1.4913176 0.73009753 1.2686414
1.2944638 -0.22426265 -1.4421549 -0.22675915 0.4706244 -0.1951392 -0.628326 -0.24128933
-0.21970078 0.39975032 0.04129571 0.040451616 0.15755859 -0.014563851 0.13053592 0.11489688
0.02684771 -0.05121605 0.051279522 0.039707802 0.051698767 -0.029619426 -0.014955305 -0.08277874
-0.30512273 0.9927346 1.9146582 0.22750923 0.11402459 -5.754287 0.030696578 -0.0069575757
-0.0036310256 0.0454719 -0.055178788 0.08947951 1.665498 0.13160281 0.5070792 1.3085119
-0.023353405 -5.0838056 -0.044042666 -0.3199993 0.23603576 0.34085768 0.08198711 0.8356912
0.05951651 0.040062003 -0.085853286 0.08768516 -0.09049113 -0.035047676 0.44400227 0.813685
1.0125853 1.2536538 -0.43190765 -3.6334667 0.026194774 -0.20972423 -0.34190708 0.59421736
-0.53957295 -0.011963534 -0.028831422 -0.07457487 0.00836733 -0.0837501 -0.08683685 0.03799405
-1.400716 -2.222636 2.1487846 1.528993 -0.8126525 -3.4199445 0.19333312 0.29138836
0.23657088 0.08954372 0.51047814 -0.08124251 0.015214361 -0.018582232 0.042668976 -0.037774157
-0.0039518997 0.07438304 0.66303396 1.861098 0.7330091 -0.30220318 0.7449971 -3.711083
-0.9210314 -0.18149474 0.6254217 -0.7042968 -0.07709255 0.32769525 -0.9238271 -0.45562154
6.5421677 10.37364 -2.7279608 0.39564174 -0.46077815 0.38377845 0.47963393 1.7596751
1.659354 1.6783231 -1.7210021 -0.3795704 0.28455526 0.49717999 -0.018740587 -0.1900715
-0.24977633 -0.22509344 0.35265565 0.017149977 0.053494234 -0.14350092 0.17131226 0.049662054
-0.009543425 0.062185787 0.06339542 -0.03560113 0.042964093 -0.036452074 -0.07820077 -2.1410484

bias f4 [256]
00000000: 7549 48bd d7f1 56c0 d089 6dc0 0352 4fc0
00000010: a6c0 61c0 c568 8ac0 f782 87bf 8afe 4ebf
00000020: e0af c0c0 faf7 8a40 6333 a3c0 f94b ddbe
00000030: 2601 72c0 3ef6 3ec0 d7bb 77c0 d22d 8dc0
00000040: cfca ad3d ff50 5440 46c8 85c0 d914 c0c0
00000050: f40d abc0 a2ee 63c0 9357 cebf 8828 c4c0
00000060: 22a2 35c0 8ee2 c0c0 eff4 a93f 8331 c5c0
00000070: 5885 fd3f dfae abc0 e21d d9bf 7e16 a9c0
00000080: 3702 90c0 ff02 33c0 7f3e 91c0 6cec b7c0
00000090: a5df d0c0 a561 9ec0 17af a3c0 2382 59c0
000000a0: 6e60 5dc0 1640 a4c0 153c 58c0 07c9 dbc0
000000b0: af98 4bc0 918f ba3d 2915 833f 1a8f b2be
000000c0: 5d9f 3e3f 47e0 6ac0 8ede 7bc0 4baa dcc0
000000d0: 9639 4a40 5a8d dbc0 1e1c 46c0 eb2a 9ac0
000000e0: e153 57c0 ee2f d3bf b317 b7c0 d2ed e0bd
000000f0: 435f bf3e b878 56c0 9c7e debf 574e a2c0
00000100: 5196 7ac0 7d1c 8c40 7994 b4c0 0686 acbe
00000110: 6f19 96c0 9f35 1dc0 61aa b3c0 3cc2 7cc0
00000120: f744 1bc0 5d09 b3c0 da7d ccc0 e8a9 773d
00000130: 5134 cbbf 01b8 9940 e752 51c0 7c36 0940
00000140: 0316 a3c0 efc6 e4c0 5417 b6c0 74c9 c7be
00000150: 19ba 4dc0 7401 c4c0 c60d 8cbe a078 a1c0
00000160: 39fd 6dbf a224 c5c0 6aa1 0440 4933 a2c0
00000170: be0c a6be b4fb 633f 931a b1c0 e6f7 56c0
00000180: 1484 5dc0 9283 02bf f2d4 c83f 56e8 84c0
00000190: 7a66 8cc0 127a 81c0 b635 c2c0 4d0b 8cbf
000001a0: 2326 c3c0 16f9 78c0 f904 a6c0 40ac 0dc0
000001b0: 23b6 15c0 db94 51bf 695a 70c0 8852 d7c0
000001c0: e1ae 95c0 9fb0 9ec0 732d 773c da9e e6c0
000001d0: a772 26c0 01e4 cbc0 b8c7 fdbf 700b e5c0
000001e0: 0051 8ec0 7aa4 b1c0 5df2 c93f e75f d8c0
000001f0: 4232 b8c0 5794 c240 d92a a5c0 25ea eac0
00000200: 92b3 37c0 d747 68bf 2cc0 40be 1788 16c0
00000210: b9e4 7d3d 4c24 113f c394 38c0 50f5 cf40
00000220: a52c ddbf 56c7 96c0 d1c9 7dc0 1640 2f40
00000230: 961a 9ac0 e9f4 b4c0 ed10 b2c0 5a66 83c0
00000240: e01f 38c0 05cc c3c0 89d3 95c0 3f98 95c0
00000250: 826e 90bf 4086 b5c0 f58e 7ec0 4811 91c0
00000260: ecd5 77c0 3a26 a9c0 fff3 63c0 3257 5140
00000270: ad3d 04c0 0b1d e4c0 3fde 533e 7951 36bf
00000280: ce4a d6c0 1ff9 b9c0 9abc 8ec0 afc2 5bc0
00000290: 3692 a2c0 3460 11c1 66c2 a2c0 4ec4 ca40
000002a0: 408e c4c0 6b8e ddc0 465b b93f 40c7 7a3f
000002b0: 0757 23c0 dcdb d1c0 7cd2 62c0 a611 f5bf
000002c0: 4fc4 c7c0 3f40 a1c0 89b3 b1bf c8a7 2abf
000002d0: c3f2 40bf 4e25 fcbe 03c7 45c0 3540 bfc0
000002e0: 3023 5dbf e98d 3140 c23a b7c0 5f9e 87c0
000002f0: 6038 7ac0 2815 63c0 de14 ef3e c6db bfc0
00000300: b74a 79bf be2b 92c0 1274 27c0 4ed1 2ebf
00000310: a469 ed40 e4e7 4cc0 156c a6be 6873 6fc0
00000320: 6252 e5c0 9447 c2c0 30dc ebbf a285 06c0
00000330: e682 dcbf e80a e9c0 5485 92c0 666d 0abf
00000340: c08d 7841 1b26 dfc0 367b 5ac0 6f2b 87c0
00000350: 88ec 48c0 b4a3 bec0 1cae 6740 6dde 07c0
00000360: e04d 193f 85e2 74c0 1ef6 bec0 0848 22c0
00000370: 1c19 9ec0 55ab 7040 eb2e 67c0 e063 5d3f
00000380: 868f a3c0 400f e43e 7c5a 0cc0 3b14 a8c0
00000390: c3a3 40c0 f7e6 8cbf a2b7 7440 a5d7 94c0
000003a0: 3b95 98c0 d63d b2c0 fc83 b3bf fe8a e2c0
000003b0: 1d11 8040 db43 3e3f 8827 1940 619f 7ec0
000003c0: d2ff 6bc0 c17c 7ac0 efbb 09c1 165c a2c0
000003d0: bd85 f93c ef4c c6c0 284b b2c0 1692 10c1
000003e0: baef ccbf a077 6fc0 a2b5 9b3f 85f6 a2c0
000003f0: c266 c4c0 4f63 10c0 8d51 9dc0 b1b6 d3c0
-0.04889818 -3.3585107 -3.7115364 -3.2393806 -3.5273833 -4.3252892 -1.0586842 -0.80857146
-6.021469 4.3427706 -5.100023 -0.43222025 -3.78132 -2.9837794 -3.8708398 -4.4118433
0.08485948 3.3174436 -4.1806974 -6.002545 -5.3454533 -3.56144 -1.6120476 -6.1299477
-2.8380208 -6.0276556 1.3277873 -6.162294 1.9806318 -5.3650966 -1.6962245 -5.2839956
-4.5002704 -2.7970579 -4.538879 -5.74761 -6.5273004 -4.9494195 -5.1151233 -3.398568
-3.4590106 -5.132823 -3.378667 -6.8682895 -3.181194 0.09109414 1.0240833 -0.34874803
0.7446192 -3.6699388 -3.9354587 -6.8957877 3.1597648 -6.861005 -3.0954661 -4.817739
-3.3644946 -1.6499002 -5.721643 -0.109828606 0.37377366 -3.351118 -1.7382388 -5.072063
-3.9154246 4.3784776 -5.643124 -0.33696002 -4.6906047 -2.4563978 -5.614548 -3.9493551
-2.4260843 -5.594893 -6.3903627 0.06046477 -1.5875341 4.8037114 -3.270685 2.1439505
-5.096437 -7.149284 -5.6903477 -0.39020884 -3.2144835 -6.1251774 -0.27354258 -5.0459747
-0.9296451 -6.160722 2.072352 -5.0687604 -0.32431597 0.89055943 -5.534494 -3.3588805
-3.4611864 -0.5098201 1.5689986 -4.1533613 -4.3875093 -4.046151 -6.0690565 -1.0940949
-6.0984054 -3.890203 -5.188107 -2.2136383 -2.3392417 -0.8186776 -3.7555182 -6.7288246
-4.6775975 -4.95906 0.0150865195 -7.206891 -2.6007478 -6.3715825 -1.9826574 -7.157646
-4.4473877 -5.5513277 1.5777088 -6.761707 -5.756135 6.080608 -5.1614804 -7.341082
-2.870335 -0.9073462 -0.18823308 -2.3520563 0.061985705 0.5669601 -2.8840797 6.4986954
-1.727925 -4.711833 -3.965443 2.7382865 -4.8157454 -5.6548963 -5.564566 -4.106244
-2.8769455 -6.1186547 -4.682072 -4.6748347 -1.1283724 -5.672638 -3.9774754 -4.5333595
-3.8724318 -5.2859163 -3.5617673 3.270947 -2.0662644 -7.1285453 0.20690249 -0.7121807
-6.6966314 -5.8116603 -4.4605227 -3.4337575 -5.080348 -9.085987 -5.0862303 6.336463
-6.1423645 -6.923635 1.448098 0.9796028 -2.5521867 -6.5580883 -3.544097 -1.9146011
-6.2427135 -5.0390925 -1.3882915 -0.66662264 -0.75370425 -0.4924721 -3.0902717 -5.976588
-0.86381817 2.7742865 -5.7259226 -4.2380824 -3.9096909 -3.5481663 0.46695608 -5.995578
-0.9737963 -4.5678396 -2.6164594 -0.68288124 7.4191456 -3.2016535 -0.32504335 -3.7414188
-7.1663065 -6.0712376 -1.8426571 -2.1019063 -1.7227447 -7.2825813 -4.5787754 -0.5407318
15.534607 -6.9734015 -3.4137702 -4.224052 -3.1394367 -5.9574833 3.6200018 -2.1229508
0.5988445 -3.8263257 -5.9675436 -2.5356464 -4.940565 3.7604573 -3.6122386 0.8648052
-5.11127 0.44542885 -2.1930227 -5.2524695 -3.0099952 -1.1007985 3.823708 -4.651324
-4.7682166 -5.5700483 -1.4024653 -7.079467 4.002089 0.7432229 2.3930378 -3.9784777
-3.687489 -3.9138644 -8.608382 -5.073741 0.03045928 -6.1968913 -5.5716743 -9.0356655
-1.6010659 -3.7416763 1.2164805 -5.0925927 -6.1375437 -2.2560613 -4.916205 -6.616051

weight f4 [256, 256]
00000000: 594d f6bf 1340 cd3f 0c54 18be 454f 3abf
00000010: 220b 6cbf 75cc 7cc0 d74a 2fc0 8431 d7bf
00000020: f8d9 953d 37b5 92be baf8 573d e160 f5bf
00000030: e647 dbbf fe86 893f 536c 7cbf 09d9 203e
00000040: 93a9 a7bf 5c32 52bf 1f95 04c0 1744 34bf
00000050: 9385 1e3f 217b e33e e5c3 3ebf 2cfd e43e
00000060: 03c6 c9bf b0dd 3bbf dd7d b7bf f3e3 d1bf
00000070: cbc7 b8bf 378f b63f 529d 9ebf 9cfb dabf
00000080: ea8c 20bf fcae 76c0 66b9 c33e 01f4 91bd
00000090: 2607 463e 0d15 1e3f a52b bf3e 5749 6ebf
000000a0: 70a2 dfbf 5e9a 89be 8ba2 e7bf afd2 b93f
000000b0: ef5f 793e 0f54 093d ddd8 193e abe5 2fbe
000000c0: 04e5 d73d b482 de3e a0b9 64bf 17bb 42bf
000000d0: 9cef bbbf 2dca 0b40 eeea d1bf 2398 65bf
000000e0: 20b3 d9be 3869 49bf f124 593f ac28 a7bf
000000f0: d81f 10be ec5d c53e 6d03 5dbe 758e 2f3f
00000100: e764 b7bf 3da2 02c0 179d 4f3e 8030 abbf
00000110: 2db8 f1be f8dc e1be 43f2 423f 0179 c6be
00000120: aa98 acbf 3ed5 9c3f d81d 4b3f 8273 2cc0
00000130: 2dd6 fdbf 2b70 cabe b40d 8d3c 1af0 cabf
00000140: 4a5c e73f 947a 1fc0 e966 f43e a16a f53e
00000150: 4b36 793f edb7 b1be 3e72 96c0 af15 5dbf
00000160: e13a 5ac0 3760 61bf 25d9 1ebe 34eb bcbf
00000170: 46ea c0bf 20e1 54bf 1363 b0be 5fa1 813e
00000180: 5123 ccbf 9962 153f 4416 6abe 2055 743f
00000190: 937f 13c0 62d5 9dbf 29dc b93d 95a2 1ec0
000001a0: b50b 773f 4c7f f0be 6cd9 f6be 4604 9bbf
000001b0: 2e2a 2bbf f043 d4bc 2dfd cc3f ca7f 6cbf
000001c0: 336c 3bbf c771 1540 3b4b 36c0 de4f 2dbe
000001d0: 6ba9 17bf 8307 3fbf e9b1 0d3e 391d 4e3d
000001e0: f3fb 4dbe 474d e2bf 4a24 05c0 1229 71be
000001f0: e586 913d 2b2d 8abf d300 babf 8b22 9bbf
00000200: d0c4 4a3e d8e9 53bf 2902 a8bf 87a4 e7bf
00000210: b13f a43e c9f2 b4bf 7740 1abe d5d4 aebe
00000220: bf31 63bf 842a 59bf c37c 25c0 c655 173e
00000230: 5f0f d23d 0c55 29c0 2dae 02bd 2eef cbbf
00000240: d516 b6bf d708 1bbe e00b 913f 77e0 1bbf
00000250: e719 54c0 37a4 c73e ee6a cbbf ce50 683e
00000260: 6d63 a1bf dc97 bd3f 7953 1dc0 b942 69bf
00000270: cf64 f4be 371a 6dbf 13ab 6ebf d46b 843e
00000280: ebf0 3b3f 1018 dabf e9d0 60bf a606 03bf
00000290: ce4b 9dbf 864e f0be b667 11c0 ad21 6ebf
000002a0: 26b1 13c0 095e dfbf f737 54be 0fdd 0a40
000002b0: cea3 063f 43b8 03be 19ac f4be a9e9 e1bf
000002c0: 3d2d 993f 2c67 583f 3a57 3bbf 02ce cdbe
000002d0: 85d3 823f e865 e43f 5d82 8cbf 34e8 98bf
000002e0: f0b0 963f 7f69 153e 6166 bfbf 5451 c03f
000002f0: de2e 073f cb9d 9fbe 5e06 3ebf 9586 2a3e
00000300: 47e7 acbf face b03f 323f 083f 6f94 3fbf
00000310: 52d8 c3be 9b03 113e 56d6 1b3f 0cee d13e
00000320: 0667 b0bf 87e4 9d3f 0e88 08c0 f003 b0bf
00000330: bde0 c8be dffc 663f 1629 98c0 f529 7ebf
00000340: 2d4d 69bf 3a5a 873f 12ed 9fbf 114d c5be
00000350: c656 9dbf d055 32bf 834c 253e 9150 cfbb
00000360: 6bce f13e b908 e8be b4fe a4bf 0a16 3cbf
00000370: 51ba 983e 9c49 3fbd 0695 8dbf 455e b9be
00000380: d84d 17bf f815 c9bf aaa3 cabf 7292 323f
00000390: 9b7d f3bf 305c 863f 0079 c8be 04a2 23bf
000003a0: 1fd5 ffbe e041 d5be 6868 b9bc 47a9 823e
000003b0: 2bd7 12bf 9a1a 25c0 7f68 98be a38d abbd
000003c0: 12c7 fbbe f2d7 94bf 4f34 54c0 62d2 bebe
000003d0: 0f1d b0bf dade 323f 0cb3 3640 9af0 ca3e
000003e0: d748 1ac0 7bdc bfbf 78dc 03c0 9b48 20c0
000003f0: 3cca c63d c3a2 67bf c1cc eabe 2836 15c0
-1.9242355 1.6035179 -0.14875811 -0.72777206 -0.9220449 -3.949979 -2.7389429 -1.6811986
0.07316965 -0.2865388 0.05272744 -1.917019 -1.7131317 1.0744321 -0.9860279 0.15707792
-1.3098625 -0.8210809 -2.0716016 -0.70416397 0.6192257 0.44429877 -0.7451766 0.44724405
-1.5763553 -0.73385143 -1.4335285 -1.639769 -1.4435972 1.4262456 -1.239176 -1.7108035
-0.6271502 -3.8544302 0.38227385 -0.07126618 0.19338664 0.6175087 0.37337986 -0.9308066
-1.7471447 -0.26875585 -1.8096479 1.451742 0.24353002 0.03352743 0.15024133 -0.17177455
0.10541728 0.43459094 -0.8934574 -0.76066726 -1.4682498 2.1842148 -1.639982 -0.8968527
-0.42519474 -0.78676176 0.84821993 -1.3059287 -0.14074647 0.3854822 -0.21583338 0.6857675
-1.4327668 -2.0411522 0.20274769 -1.3374176 -0.47210827 -0.44113898 0.7615091 -0.38764194
-1.3484089 1.2252576 0.7934241 -2.69455 -1.9830986 -0.39538702 0.017218448 -1.5854523
1.8075039 -2.4918566 0.47734764 0.47932914 0.9734847 -0.34710637 -4.7014456 -0.8636121
-3.4098437 -0.8803744 -0.15512522 -1.4759278 -1.5071495 -0.83156013 -0.34450588 0.2531843
-1.5948278 0.58353573 -0.22860056 0.9544239 -2.3046615 -1.2330744 0.09075195 -2.4786732
0.9650224 -0.4697212 -0.48212755 -1.2110679 -0.66861236 -0.025911301 1.6014763 -0.9238249
-0.73211974 2.3350694 -2.8483417 -0.16924998 -0.59242886 -0.74620837 0.13837399 0.050320838
-0.20115642 -1.7679833 -2.08034 -0.23550823 0.07105807 -1.0795034 -1.4531502 -1.2119917
0.1980164 -0.8277869 -1.3125659 -1.8097085 0.32079843 -1.4136592 -0.15063654 -0.34146753
-0.8874778 -0.848305 -2.5857399 0.14778814 0.10256838 -2.6458158 -0.03190439 -1.5932367
-1.4225718 -0.15140091 1.1331749 -0.6088938 -3.314081 0.38992473 -1.5892007 0.22687075
-1.2608467 1.4811969 -2.4582198 -0.91117436 -0.4773316 -0.92618126 -0.9322979 0.25863516
0.73414487 -1.7038593 -0.8781877 -0.5118202 -1.2288759 -0.4693491 -2.271955 -0.93020135
-2.3076873 -1.7450572 -0.20724474 2.1697423 0.52593696 -0.12863259 -0.4778755 -1.7649432
1.1966931 0.8453243 -0.7317997 -0.40196234 1.0220801 1.7843599 -1.0977284 -1.1945863
1.1772747 0.14591025 -1.4953119 1.5024819 0.5280589 -0.31175074 -0.74228466 0.16652901
-1.350808 1.3813164 0.5322143 -0.74835867 -0.38250977 0.14161532 0.60873926 0.41001928
-1.378144 1.2335366 -2.133304 -1.3751202 -0.39233962 0.902296 -4.7550154 -0.9928277
-0.91133386 1.057441 -1.2494223 -0.3853536 -1.2292106 -0.6966219 0.16142468 -0.006326743
0.47227797 -0.45319155 -1.2890229 -0.7347113 0.29829648 -0.04670106 -1.1061103 -0.36204734
-0.59103155 -1.5709829 -1.5831196 0.6975471 -1.9022707 1.0496883 -0.39154816 -0.6391909
-0.49967286 -0.4165182 -0.022632793 0.25519773 -0.5735957 -2.5797486 -0.29767224 -0.083766244
-0.49175316 -1.1628401 -3.3156927 -0.37269884 -1.3758868 0.69871294 2.8546782 0.3963669
-2.4106958 -1.498916 -2.0603313 -2.5044315 0.09706542 -0.9048273 -0.4585934 -2.3314304

bias f4 [256]
00000000: 2703 00bf 8b0b 85bf d91a dbbd d281 b0bf
00000010: 3283 edbf 877f 36bf dfac 10c0 d7ec aebf
00000020: 12e3 ae3f 8421 62bf 344e c4bf 1afa aebf
00000030: 1f3f 41c0 aa10 2bbf 1ad4 04c0 34ec 40bf
00000040: 2144 12bf 13c1 33c0 e996 9bbf a3f1 c5bf
00000050: 98bc d6bf b7f2 3dbf 835f e6bd 6c27 63bf
00000060: c609 e0bf 3c79 99bf 2b08 d0bf 0d1b b43d
00000070: 3268 0dc0 6de2 fdbf 7468 113f 1d8e 1bbf
00000080: 91a1 65be 34a8 0dc0 f596 90bf fa83 f33e
00000090: 54ca d7bf ba5d 95bd 7196 a6bd 2cc6 5dbf
000000a0: cca3 7ebf e6a5 0fc0 a29d c9bf 9ebe a2bf
000000b0: 47f3 17c0 e182 9abf 3a1e 56bf 721a 45bf
000000c0: cac8 14c0 2417 ebbf 7c74 f2bd a48f 83bf
000000d0: 28d7 ffbf f86a d2bf 034c abbf d3af 75bf
000000e0: 752c 17c0 1667 a2bf 70d2 373f c876 8cbf
000000f0: 698d 9dbf b880 01c0 6338 88be 2e2b cfbf
00000100: 9a8e 95bf a1b7 393f 463c 5fbf afe7 acbd
00000110: 6b54 a7bf 5fe3 75bf f95b e7bf 802d 303f
00000120: a780 30c0 6ff1 8bbf 24fc b3be 10aa 54bf
00000130: 394b 9cbe 73b2 13c0 9279 25c0 9949 4dbf
00000140: 87fa 4cbf 647c 1dc0 e85f 5ebf cb36 cabf
00000150: f284 c4bf 678f bcbf fb14 c2be 5505 8bbf
00000160: b84a ae3e 0ecf 06c0 4503 75bf ea68 8fbf
00000170: c5d7 9fbf 2171 6dbf 88e5 1fbf 08b9 27be
00000180: e889 c8bf a194 abbf 715c d43f f961 81bd
00000190: 84c0 f0bf 7be6 2040 95ce 00c0 6f00 e5bf
000001a0: 726c a0bf d9c1 debe c5dc b3bd 64f7 3ebf
000001b0: e88e 2a3e 4a47 cbbf 8ea3 47bd 04c9 96bf
000001c0: fd72 b0bf 84f4 84bf 8f25 bbbf b3db c63c
000001d0: a063 24bd b190 0dc0 5ffb 0b3f 8aa9 87bf
000001e0: ec82 37bf 42d8 d1bf 57cb 82bf 7022 e4bf
000001f0: 857c babf 2103 8abf ca10 1abf 1f3b 09be
00000200: eda4 36c0 55ac fabf 678a a8bf dcb5 16be
00000210: 1ef5 1bc0 af04 29be 5035 a5bf 66c8 e5bf
00000220: d13f dbbf 808e 733f bdad febe 866c 26bf
00000230: 7ad8 e7bf e08d 7b3f 1dfc 01be cc81 183f
00000240: 8592 7abf 248b 3e3b 65d7 babf ff13 c6bf
00000250: 24a4 87bc d1b7 c1ba c7bf e9be 5c48 36c0
00000260: b06a 86bf 3eda 92bf b353 8dbe 9860 bbbc
00000270: bc59 5bbf 46d7 11c0 dc20 b0bf f89f 0f3f
00000280: a3d9 27be bc50 dcbf fa97 b9bf 1f59 efbf
00000290: 80e8 e4bf 8ee0 abbf 05b7 d5bf 12d2 d6bf
000002a0: 8e40 04c0 a037 dabf c125 7cbf 7f2e c4bf
000002b0: a070 4c3e 7387 c0bf 3667 87bf 0f78 f2bd
000002c0: da7b 0fc0 d08a 9bbf 9df0 10c0 4f6f 48bd
000002d0: a3ac a8bf 1a0a cebf c192 ebbd c6ff f3bf
000002e0: 5463 fabd 56f0 a0bf bab6 03c0 4c59 c1bf
000002f0: c8c7 eb3d 523f 6f3e bc23 7fbd 0fef 4d40
00000300: 1ce4 aebf deb6 de3f 4ba4 c6bd 7509 bfbc
00000310: 6274 e1bd 7d37 383f ce12 7dbe fd58 f1bf
00000320: c3d3 e0bf 8ef0 e9bf adce e8bf 3b57 bebf
00000330: 2f07 b1bd 6aae ecbe 7a98 35bb f6db 8cbf
00000340: 2049 a1bf f1a3 00c0 5436 543f d35d 04be
00000350: 1cce 0cbc de2f 0ec0 44d9 5fbf c958 17c0
00000360: e951 273f b440 b5bd 1e52 3abf 050d 8bbf
00000370: 605f dcbd 8466 b5bd 8c7a c5bf f383 11c0
00000380: 56b9 453e b8ad f9bf ceef c4bf d955 febe
00000390: 9185 81c0 c1c8 f3bf e99d 5d40 4c3b 4e3f
000003a0: 0af4 cfbf d3c7 92bd 4e2b fcbc 8e06 ccbf
000003b0: d63e f7bf 12e9 5240 de23 efbe 76e1 d2bf
000003c0: 43dd a4bf 3f4a ab3f cba6 02bf 8829 b1bf
000003d0: d828 a5bf dc53 d1bd 9ebc cbbf ea2c 093e
000003e0: 588f ccbf 6b15 eebd 1f0a 72bf ca94 ccbe
000003f0: b9ef 5f3e 0181 debf 1dba b1bf facb afbf
-0.5000481 -1.0394148 -0.1069848 -1.3789618 -1.8555663 -0.7128834 -2.2605512 -1.3666028
1.3663046 -0.8833239 -1.5336366 -1.3670075 -3.0194776 -0.668223 -2.0754457 -0.7536042
-0.57135206 -2.8086593 -1.2155429 -1.5464367 -1.6776304 -0.7419848 -0.11248686 -0.8873203
-1.7502983 -1.1990123 -1.6252493 0.08794222 -2.2094846 -1.9834725 0.5680001 -0.6076372
-0.22424914 -2.2133913 -1.1296068 0.47561628 -1.6858621 -0.072932675 -0.08134163 -0.8663051
-0.99468684 -2.2445006 -1.5751231 -1.2714422 -2.3742235 -1.2071191 -0.8363987 -0.7699348
-2.3247552 -1.8366437 -0.11838624 -1.0278211 -1.9987535 -1.6438894 -1.3382572 -0.9597141
-2.3620884 -1.2687709 0.7180548 -1.0973749 -1.230878 -2.0234814 -0.2660552 -1.6185052
-1.1684144 0.7254582 -0.87201345 -0.08442628 -1.3072637 -0.96050066 -1.8074943 0.6881943
-2.7578523 -1.0933055 -0.35153306 -0.83071995 -0.3052614 -2.3077667 -2.585545 -0.80190426
-0.80069774 -2.4607172 -0.8686509 -1.5797971 -1.5353072 -1.4731263 -0.37906632 -1.0861002
0.3404138 -2.1063876 -0.95708114 -1.1203892 -1.2487723 -0.92750746 -0.6245961 -0.16379178
-1.5667086 -1.3404733 1.6590711 -0.06317515 -1.8808751 2.5140674 -2.0126088 -1.7890757
-1.2533095 -0.4350727 -0.08782343 -0.7459624 0.16656077 -1.5881131 -0.048739962 -1.1780095
-1.3785092 -1.038712 -1.4620837 0.024274683 -0.040134072 -2.2119563 0.54680437 -1.0598614
-0.71684146 -1.6394122 -1.0218304 -1.782301 -1.456925 -1.0782205 -0.6018187 -0.13401459
-2.8538163 -1.9583842 -1.3167237 -0.14717811 -2.4368358 -0.16505693 -1.2906895 -1.7951782
-1.712885 0.9513931 -0.49741927 -0.65009344 -1.8112938 0.9826336 -0.1269383 0.59573054
-0.9787982 0.0029074633 -1.4596983 -1.5474852 -0.01655776 -0.0014779513 -0.45654127 -2.8481665
-1.0501308 -1.1472852 -0.2760292 -0.022873208 -0.856838 -2.2787642 -1.3760028 0.5610347
-0.16391616 -1.7212138 -1.4499505 -1.8699073 -1.7883453 -1.3427904 -1.6696478 -1.6782858
-2.06644 -1.7048225 -0.9849511 -1.532669 0.19964838 -1.5041336 -1.0578372 -0.118393056
-2.2419343 -1.2151737 -2.2646859 -0.048934277 -1.3177685 -1.6096833 -0.115026005 -1.9062431
-0.122259766 -1.2573345 -2.0580277 -1.5105376 0.115127146 0.23363999 -0.06228994 3.217716
-1.3663363 1.7399557 -0.09699305 -0.02331994 -0.110085264 0.7195967 -0.24714205 -1.8855282
-1.7564625 -1.8276536 -1.8188072 -1.4870371 -0.08643948 -0.46226817 -0.0027709291 -1.1004627
-1.2600441 -2.0100062 0.828954 -0.12926416 -0.008594062 -2.2216716 -0.87440896 -2.364794
0.6535936 -0.08850232 -0.7278155 -1.0863348 -0.10760379 -0.08857444 -1.5428023 -2.2736785
0.19308981 -1.950614 -1.5385683 -0.49674872 -4.0475545 -1.904564 3.462763 0.8055923
-1.624635 -0.0716702 -0.030782368 -1.59395 -1.9316051 3.2954755 -0.46707052 -1.6475055
-1.2880024 1.3382033 -0.51035756 -1.3840799 -1.290309 -0.10221073 -1.5916936 0.1339604
-1.5981245 -0.11625179 -0.94546694 -0.39957267 0.2186879 -1.7383119 -1.3884922 -1.3734124

weight f4 [8, 256]
00000000: 6bf0 6ebf b13d 00bf 6f39 a33d ac02 e93e
00000010: 804b 4ebe 6012 5a3e 4d5d f4bd a8ab 7dbf
00000020: 3bfc a83d 38b7 93be 3cd7 d1bd 400f 5ebe
00000030: 8ebd 113d 558d c4be 9af4 b8ba a03b b4bd
00000040: 557e f03e ce07 fbbc a6bc a7be c571 bbbe
00000050: e259 de3f c165 723f 9940 59bd 4790 08be
00000060: 394c 69bf 613f 27bf 7f81 323f 4e7e 7f3e
00000070: 19ec 34be 1c08 2e3e e793 c0bd aaaf 0cbe
00000080: ef51 a53e 65ef a23e b6a9 163f d357 91bd
00000090: 9234 3e3f 1e51 5ebc 349f e7bc 2dda 933e
000000a0: c0a3 3ebf 4903 bcbf 1f53 c43e e0e1 4e3f
000000b0: 513a b43e a825 60bf c275 b23a adc8 52bd
000000c0: 1fc4 3c3f 7203 af3e 063c bcbb 165b a5be
000000d0: 6de0 4e3e 09bc 94be 62f2 0d3f 86ec 76bd
000000e0: 1712 b13e 64dc 983e a582 0d3f 9a31 8d3f
000000f0: b545 923e dc9d 103f f50f 153f ab1f d7bd
00000100: eabf b0bd b176 3d3e 9a5b 0dbe be8b cf3f
00000110: 558e 8dbd ad5d b6be 90fd 693f ecb6 803e
00000120: 0db0 013f 38cc 59bf 6e92 b4bd ecb8 51bf
00000130: 482f 153e d2a2 f13e a743 1cbe b036 e4be
00000140: 4ae4 493f 3e72 1b3d 9414 c3bc 43fd 3ebe
00000150: d319 fb3d 6e5b fdbb 6e1d 4abe 482e 20bf
00000160: 05bb 89be cb1a 203d eb5e ddbe 6a73 29be
00000170: 48d4 78bb 805a d73e ee67 63be ecab 8bbf
00000180: 80ee fdbe 0d42 3cbd 4c9d 0f3d 3ac6 9cbd
00000190: b29d 5b3f 985d 803d 4126 dd3e 1527 efbc
000001a0: 93fc 113f 3cac 913f 50a2 5f3b 9ff6 d7be
000001b0: 0899 bdbe 2725 c43f f7ec 063f 1856 303a
000001c0: 804f 83bf 7367 1dbf d224 f63c 6aba 943e
000001d0: 6609 eabc 1bcf 6c3d cb7e da3d ab70 64be
000001e0: 4f23 863e 9a9e b5be ae18 9cbb 7005 6f3f
000001f0: fe1d 05bf 0057 d1be 078b 9e3c e00b d13c
00000200: 165e 6b3e 367b 903f 2b94 e4be 5f6a 863e
00000210: 71bc 793f 87c7 793c 07cc 94bd bded ab3e
00000220: 6c88 80be 42ec 373d 2c20 9dbe cc52 a9be
00000230: a4a6 5d3e 6f9d e6bd b140 0a3d ddab 3abe
00000240: 9141 e63e 6bb2 4ebd 2e07 c4be b27b b9bd
00000250: 6ea5 573a 6ced b03a 5b2e 903f 7a08 e7bf
00000260: df53 2bbf cd55 0fbf 6993 c43e e555 03bc
00000270: 155e da3c 8267 403f 9809 9a3f 8333 1a3d
00000280: aef6 203f 828f 143e 513f 623e 7585 053f
00000290: fc45 12bf 5ee6 9fbf b832 463e 7794 f63d
000002a0: 942d 5d3f ded7 a33e 9cf3 0e3f 4ce7 eabe
000002b0: 94a3 5e3f 1818 06bf d56b 11be 43de 26bd
000002c0: 0596 99bd 5b82 863d 14d4 413f 92eb 853d
000002d0: 3df4 b2be 8af5 083e 3536 bbbb 8f94 623f
000002e0: 7c96 3f3d b8f1 a3be 4d20 48bf b4d6 193f
000002f0: 8900 6dbe b17d efbc cff7 2cbd f19b 64bd
00000300: e6fe 793f dbf3 32bc 1b0d 123c 5427 e43c
00000310: 44d7 06be 29b5 203e 56e1 85bd 4fe5 60be
00000320: d17a fb3d defc 82be 694d 01be 08c5 05c0
00000330: 2dbe c6bc fb9d b8be 1461 af3d 66b2 11be
00000340: 0832 9dbe 5076 c13e b657 493f 943d c8bd
00000350: d8cf 103d 30f8 713e be60 e0be aea3 f93e
00000360: 20ee 9cbd c428 c3be 2f5d 4f3f d9fe ea3e
00000370: 7b31 74bd d7dd debc 6fa7 dc3d 5235 313d
00000380: 7660 51bd 469d 85bc 962f ec3e f573 7abe
00000390: 3b7c 823d 9a25 a83e 8bd1 453e ba5d 463e
000003a0: 3c68 803e a798 433d 4a8d 9c3a 8f2d 17bf
000003b0: a015 7c3f c123 73bd 787a 1bbf 53c4 9abe
000003c0: 7c89 4a3b 90fb 7dbd e616 c4be ddff 903f
000003d0: bbf8 943f 9062 783c ba23 abbd 6a22 7fbf
000003e0: 7417 6fbf 2b40 743c 1a2c cebf f5b2 26be
000003f0: 5b0e 0ebf d804 e7bd a57a 38bf e507 4b3f
-0.933356 -0.50094134 0.07969939 0.4550985 -0.20145988 0.21296072 -0.11931858 -0.9909005
0.08251234 -0.28850722 -0.10246131 -0.21685505 0.035581164 -0.38389078 -0.0014110983 -0.08800435
0.46971384 -0.03064337 -0.32761115 -0.36610237 1.737118 0.94686514 -0.05304012 -0.13336287
-0.9113193 -0.65331084 0.69728845 0.24950525 -0.17668189 0.16995281 -0.0940321 -0.13738886
0.32289073 0.3182327 0.5885271 -0.07096829 0.74298966 -0.0135691445 -0.028274156 0.28877392
-0.7446861 -1.4688503 0.38344666 0.8081341 0.35200742 -0.8755746 0.0013615417 -0.05146091
0.7373676 0.34182316 -0.00574446 -0.32296056 0.20202799 -0.2904971 0.5544797 -0.06028416
0.34584114 0.29855645 0.5527747 1.1030762 0.28568807 0.56490874 0.58227473 -0.10504087
-0.08630355 0.18502308 -0.13804474 1.6214521 -0.06911913 -0.35618344 0.9140253 0.25139558
0.5065926 -0.8507724 -0.08816992 -0.81922793 0.14568818 0.47194535 -0.15260182 -0.44572973
0.78863966 0.037950747 -0.023813523 -0.18651299 0.12260785 -0.0077318465 -0.19737789 -0.6257062
-0.26900497 0.03908805 -0.4323648 -0.16547933 -0.0037968326 0.42061234 -0.22207615 -1.0911841
-0.49596024 -0.04596143 0.03506212 -0.07654996 0.857875 0.062678516 0.43193248 -0.02919344
0.5702602 1.1380687 0.0034123845 -0.42180344 -0.37030816 1.5323838 0.5270533 0.0006726696
-1.0258636 -0.61485976 0.030046854 0.29048473 -0.028568935 0.0578147 0.10668715 -0.22308604
0.26198813 -0.35472566 -0.0047636842 0.9336767 -0.5199889 -0.40886688 0.019353403 0.025518358
0.2298511 1.1287601 -0.44644293 0.2625303 0.97553164 0.015245325 -0.07265478 0.33579817
-0.25104082 0.044903047 -0.30688608 -0.33070982 0.216456 -0.11260497 0.0337531 -0.18229623
0.44971898 -0.05046312 -0.38286728 -0.09056796 0.000822625 0.0013498492 1.1264147 -1.8049462
-0.6692485 -0.55990297 0.38393715 -0.008016084 0.02665619 0.7515794 1.2034178 0.03764678
0.62876403 0.14507869 0.22094466 0.52156764 -0.5713804 -1.2492177 0.19355285 0.12040036
0.8639767 0.3200063 0.5584047 -0.4587959 0.8696835 -0.52380514 -0.14201291 -0.04073931
-0.07499317 0.06567832 0.7571423 0.06539072 -0.34951964 0.13374916 -0.005713249 0.8850793
0.046774372 -0.32020354 -0.7817429 0.60093236 -0.23144735 -0.029234739 -0.042228516 -0.05581278
0.9765457 -0.0109223975 0.008914257 0.027850784 -0.13168055 0.15694107 -0.0653712 -0.21962474
0.12279285 -0.25583547 -0.12627186 -2.0901508 -0.024260605 -0.3605803 0.08563438 -0.1422821
-0.30702233 0.37785578 0.7864946 -0.0977737 0.035354465 0.23629832 -0.43823808 0.4875769
-0.07662606 -0.3811704 0.8100156 0.45897558 -0.0596175 -0.02720539 0.10774123 0.04326374
-0.051117383 -0.016310345 0.46130055 -0.24458297 0.06371351 0.32841188 0.19318216 0.19371691
0.25079525 0.047753002 0.0011943963 -0.5905389 0.984705 -0.05936027 -0.6073375 -0.30227908
0.00309047 -0.062007487 -0.3829872 1.1328083 1.1638407 0.015160218 -0.08356424 -0.99661887
-0.9339516 0.014907877 -1.6107209 -0.16279204 -0.55490655 -0.11280221 -0.7206214 0.7930892

bias f4 [8]
00000000: a8a0 cabf bd2d 323f 6556 8f3f 1bda 5bbf
00000010: c1d5 9b3e c433 b13e 68c7 17bf 6829 1abf
-1.5830278 0.6960104 1.119824 -0.8587968 0.3043652 0.34609807 -0.59288645 -0.6021943

weight f4 [256, 119]
00000000: 0387 8140 6c1b 0340 2803 743d 8d48 f140
00000010: ffc5 403e cff5 cc3f 801b 8bc0 d1c3 b33e
00000020: b53d fa3c 821b 0d3f 21e5 2340 9332 9b40
00000030: 47a6 823f a49d 1fbd 7080 58be fbeb dc3f
00000040: 8f22 943f 5a94 4cbf d06f 52bf 7356 8cbd
00000050: 2b11 a5be 8f13 38be cb7f e4bb 287f 2abe
00000060: 9ca2 23be 543c a5bd faae dabd 2079 63bc
00000070: 8ec4 4f3d 04c8 a63c ff64 b03d 4035 eeba
00000080: 05ec 853d 38f2 a93f 0045 dabf dc5a f43f
00000090: a0ff a7bf d316 17bf 2475 a6c0 0ad6 0e3d
000000a0: 1ed2 663d b712 4fbd 6854 fdbc 39f6 8f3d
000000b0: e085 17bb 2ce7 fdbf 0fc7 1240 3990 ee3f
000000c0: ac11 00c0 5401 cdbf ffd1 20c0 c44d 3f3f
000000d0: 38e1 22bf 7bcb 39bd 3290 363f 8571 febe
000000e0: 1e4b 963e 84f4 f33c 88d4 ce3c 6202 123d
000000f0: 3091 4dbd df65 07bd 05cd b83d c93d cd3e
00000100: 2395 503e 7803 7a3f 1a69 1340 2a55 6c3f
00000110: 4531 5fc0 55fd c5bf ddfe cf3e 34a4 17bf
00000120: c07f 83bf 7215 423f f558 b9bf c996 6cbd
00000130: 8027 293a 92f9 613d 8e85 3b3d 0b54 983d
00000140: 5d40 963d bd4a d93f c80b 663e c1c7 b8bf
00000150: c507 c13f 49ea cd3f 7fe1 ea3e 7c19 34bd
00000160: a63b b7bf 8f0e f93e 5da4 5b3f 3dad 073f
00000170: 72f4 67c0 31c5 a23d f33e 9e3d 58d8 3abd
00000180: 3ff8 9cbd d08e 32bc 4034 e8bb 0bdc 2dbf
00000190: 042a 0dbf a731 0cbf 210d 1c3e 953a 49bf
000001a0: d08d 10c0 52a2 04bf f548 28bf 44ee 5a3e
000001b0: 7401 d53e 377a 0f3e 3383 8e3e 1ac8 9cbd
000001c0: beff e83e 7df4 6c3e b6ea b9bf 8dc8 2c3f
000001d0: a8a0 a2be 3ca9 f73e 7048 f73e 12c6 3c41
000001e0: 67e1 e1bf 3b2a df3d 0a84 ed3f 5362 f4bf
000001f0: 2dea 013f 7eda 34bf 5605 8abe 7e8b 3d3e
00000200: 29be 92bf ebb7 063f dd99 8cbe dadd 203f
00000210: 7dfa 303e f100 a03d 187a fd3f 4bb1 b93e
00000220: cb25 b43d 9b4b 9cbe 3f40 13bd f069 1ebd
00000230: 8710 70bd 464d f03d 0404 62bd 357e b4bc
00000240: 7159 fcbc 93b5 b53d 2f23 ab3d 0059 a0ba
00000250: 7386 aabd 3b41 a33d e82c 58bd e73c 29bd
00000260: a6ba 5abf 81b2 1fbe 3f8a 6abe cbce 81be
00000270: e65f 803e 67fd 13c0 6a79 f2bc 292a acbd
00000280: 5617 7f3d 83d0 943d a050 7ebc d164 983d
00000290: db60 66bf c552 513f 94e9 ebbf b091 bbbe
000002a0: 9033 77bf 6964 86bf f554 c93e 76a7 3f3e
000002b0: 0f49 d9be e9d5 b6bd 94f9 bdbe 181d acbe
000002c0: ace4 e6bc c678 3fbd 7cf1 993c 763e 53bd
000002d0: 9067 2fbc 40bb da3b 9c7d d53f d15a 63c0
000002e0: 4d33 ff3e 2f7a 7dbf 3f00 a93e edfe 6fbf
000002f0: f18b b9bd 1ce8 ea3e 3fd2 92be 4920 853e
00000300: 9c4e 613d 3309 4ebe 3e0e 5d3d efc7 9fbd
00000310: b779 82bd 0f7a 9d3d 06e0 ffbc a6f5 233d
00000320: ad93 ba3f 1f97 31c0 534b ca3f 1681 bcbe
00000330: e08a 52bf 6414 d1be 960f 32bf 55d3 033e
00000340: 5bf8 3abe 3e79 c43e 7824 06bf cad1 3ebf
00000350: 3f94 ae3d 641d 0fbd 67f8 a73d 20b4 c03c
00000360: e72e bb3d 7033 5b3c 2d89 5d3f fd89 e0be
00000370: 6160 f43e 07ea 7ebf 38c8 073f 8910 24c0
00000380: 744f abbc 8f44 013f c730 7fbe 72e6 313e
00000390: c9b9 3dbd 77ec 6dbe d983 ddbd 4a79 7b3e
000003a0: 905e 2cbe f62d 783e 7ee7 9dbe 3f9a 97bd
000003b0: 1cdf 30bd b1ea fbbd 8b30 70bf a807 0840
000003c0: 92af e7c0 f84a cec0 5279 0841 3fee acbe
000003d0: efb8 463e 9b53 9d3f 54f6 27bf 1c78 0840
000003e0: e4d0 9840 db17 7e3f 9e47 48bf 90c1 713e
000003f0: 7c0e cabe 023d 0a3f dcd0 17bf 4b42 1a3f
4.047731 2.0485487 0.059573323 7.5401063 0.1882553 1.6012515 -4.347107 0.35110334
0.030547002 0.551201 2.56086 4.8499236 1.0206994 -0.038968697 -0.21142745 1.7259516
1.1573046 -0.79913867 -0.8220186 -0.068524264 -0.3223966 -0.17976211 -0.006973242 -0.16650069
-0.1598 -0.08068147 -0.106779054 -0.013883859 0.05072456 0.020359047 0.086130135 -0.0018173829
0.06539158 1.3277044 -1.7052307 1.9090228 -1.3124886 -0.590192 -5.2017994 0.034872092
0.056352727 -0.050554957 -0.030924037 0.07029385 -0.0023120567 -1.9836173 2.2933996 1.8637763
-2.0010786 -1.601603 -2.5128171 0.74728036 -0.63624907 -0.04536007 0.71313775 -0.49695984
0.29354185 0.02977968 0.025247827 0.035646804 -0.05018729 -0.033056136 0.09023479 0.400862
0.20369391 0.9766154 2.30329 0.9231745 -3.4873822 -1.5467936 0.40624133 -0.5923493
-1.0273361 0.7581397 -1.4480273 -0.057760987 0.00064527243 0.05516965 0.045781665 0.07437905
0.07336495 1.6975933 0.22465432 -1.443596 1.5080496 1.6087123 0.45875165 -0.043969616
-1.4315078 0.4864392 0.85797673 0.52998716 -3.6242948 0.079477675 0.0772685 -0.045616478
-0.07664537 -0.010898307 -0.007086307 -0.67913884 -0.55142236 -0.54763263 0.15239383 -0.78605014
-2.2586555 -0.5181018 -0.65736324 0.21379954 0.4160267 0.14011465 0.27834472 -0.07655354
0.45507616 0.2314014 -1.4524753 0.67493516 -0.31763196 0.48371303 0.48297453 11.798357
-1.7646912 0.10896727 1.855592 -1.9092506 0.5074795 -0.7064589 -0.26957196 0.18510243
-1.1464282 0.52624387 -0.27461138 0.6283852 0.17283054 0.078126796 1.9802885 0.36268076
0.08796271 -0.30526432 -0.03594994 -0.03867525 -0.05860951 0.11733489 -0.05517961 -0.022032836
-0.030804368 0.08872523 0.0835632 -0.0012233555 -0.083264254 0.07971426 -0.0527772 -0.041317847
-0.8544105 -0.15595438 -0.22904299 -0.25353083 0.25073165 -2.3123415 -0.02959891 -0.08406479
0.062278114 0.07266333 -0.015522152 0.07441104 -0.8999154 0.8176692 -1.8430657 -0.36634588
-0.96563053 -1.0499393 0.3932263 0.18716225 -0.42438552 -0.08927519 -0.37104475 -0.33615947
-0.028185211 -0.046746038 0.018791907 -0.05157324 -0.010705844 0.006675154 1.6678958 -3.552418
0.49843827 -0.9901456 0.33008 -0.9374836 -0.09059895 0.4588021 -0.2867603 0.26001194
0.05500661 -0.20120697 0.05396866 -0.07801806 -0.063708715 0.076892965 -0.031234752 0.04002919
1.4576317 -2.7748487 1.5804237 -0.36817235 -0.82243156 -0.4083587 -0.6955503 0.12873586
-0.18258803 0.3837375 -0.52399397 -0.7453886 0.085243694 -0.03494014 0.08201676 0.02352339
0.09139805 0.013378963 0.8653744 -0.43855277 0.4772978 -0.9957585 0.53039885 -2.5635092
-0.02091191 0.5049524 -0.24920951 0.17373064 -0.046319757 -0.23234735 -0.108161636 0.24557987
-0.16832948 0.24236283 -0.30840677 -0.07402467 -0.043181524 -0.12300623 -0.9382407 2.1254673
-7.240182 -6.4466515 8.529619 -0.33775517 0.19406484 1.2291139 -0.6561024 2.132331
4.7754993 0.9925515 -0.7823428 0.23608994 -0.39464176 0.5399934 -0.5930307 0.60257405

bias f4 [256]
00000000: 13cb cac0 af19 0ec1 d3f1 18bf 8ad1 ccc0
00000010: 0189 9fc0 8365 a1bf eb56 17c0 1ed6 52c0
00000020: 17cc d2c0 ff85 a2c0 2cc9 a3c0 59d9 9b3d
00000030: 1fa8 46c0 88d4 c6c0 e874 73c0 6f53 4abf
00000040: d9d3 b73e 4ee3 c0c0 365c 85c0 76ef 80c0
00000050: a3dd 26bf 49d7 9fc0 0428 27c0 7327 73c0
00000060: bda5 65c0 25af 9dc0 9859 c1c0 1599 40bf
00000070: 964c 90c0 8e38 b63f 8a5c 2ac0 d896 8840
00000080: d53a b53f 0a1a 99c0 6fa7 5dc0 24ef 2541
00000090: a35e dc3e c907 55c0 32cf 6ac0 646f 8b3f
000000a0: 52b6 adbf 6cc7 d1bf f504 45c0 e3cd 28c0
000000b0: 7c38 2cc0 02da 88c0 31e5 b1bf 219c 79c0
000000c0: 5a12 3dc0 a4bd 2bc0 06f4 c93f b741 adc0
000000d0: 6a08 b4bf 567c d8c0 1ec9 f2c0 de27 03c1
000000e0: ddff 83c0 fc15 153e 8824 d2c0 4baf cabf
000000f0: 1263 08c1 f1c3 eac0 266d b0c0 7436 2cc0
00000100: fd9e bdc0 2fc1 5ac0 3052 84c0 2fa4 17c0
00000110: 7ec0 94c0 875f 35c0 4ec2 7ac0 a381 1cc0
00000120: de2e 66c0 f7a7 cfbf 173e 5c40 181b 2ec0
00000130: 9ed1 10c1 490b 64c0 df00 cac0 4d81 b8c0
00000140: 3492 e8bf 4323 903f 907a 483e 2907 3b40
00000150: e887 a13f 33db bf3e 202e 9ac0 32e4 b53f
00000160: a917 dbc0 2e76 63c0 428a cac0 b237 b4c0
00000170: c713 a5c0 76f4 c2c0 4738 c9bf bac6 9bc0
00000180: 6bbb 6fc0 fa58 2dc0 0ad5 51c0 d971 b5c0
00000190: 4b9f 9ac0 b208 2241 b627 64bf 4dfc ed40
000001a0: 1d4e 7cc0 0743 83c0 66d9 9740 2fb0 bbc0
000001b0: e4dd 12c1 ca55 41c0 05a1 a6c0 0b8c f7c0
000001c0: a79b 95c0 712c 34c0 8b90 8cc0 5ff2 0941
000001d0: 2127 35c0 6382 1241 336c eb40 c61c 90be
000001e0: 05bd 4dc0 641c fcbf a72a 8840 7207 b9c0
000001f0: b625 7ec0 91e7 d13f 032d b8c0 8e68 06be
00000200: ef8c 05c1 c563 68c0 9b50 95c0 e9d8 8abf
00000210: b285 29c0 53f1 6740 3650 83c0 a8d2 8fc0
00000220: 7017 a0c0 b46a 81bd a5cb 60be 3b3b 99c0
00000230: 7c98 dfc0 1a7d ca3f a978 1ac0 e490 84bf
00000240: 97ba d240 c941 49be b759 a8bf bc42 a7c0
00000250: 28ca 70c0 de56 393f ad25 13c0 4a4a 8e40
00000260: 941e b2bf 2379 8bc0 414f 8240 09f7 dcc0
00000270: f24f b7c0 44c1 c4c0 94c4 2f40 65aa 56c0
00000280: 3026 b7c0 320d 94c0 17e8 93c0 8b5d 3dc0
00000290: ffcd 01c0 7ab7 c0bf 807f a940 11d7 ed3e
000002a0: d94e a2c0 9e7b 8abf ebf5 afc0 e98a 603f
000002b0: 13de 9ac0 7222 a8c0 c5c8 43c0 7c2d 36c0
000002c0: e44c 0bc1 5754 bf40 79f7 c2c0 870e 41c0
000002d0: 0ebe b6bf 5076 a2c0 2da2 e6c0 155d 77c0
000002e0: 6bdf 85c0 f10a 3cc0 5384 b5c0 70b5 85c0
000002f0: 7cf4 a8c0 1561 96c0 cef7 a1c0 bc80 a7bf
00000300: 5001 1ec0 db7a bd40 9a6c 97c0 4afb d7bf
00000310: 3f54 75c0 9006 03c1 2526 c9c0 1570 80c0
00000320: 8cc1 f5c0 fd30 0b40 ed69 21c0 0ff2 3ac0
00000330: 1fbf 4d40 968a a6c0 2e80 89c0 f88f 3c40
00000340: 2282 9dc0 d1fe 97c0 6cad 81c0 2c27 02c1
00000350: a68a bebe 9e99 82be 87f0 97c0 dc87 2f40
00000360: 68af 0940 dc25 713e ecc6 00c1 daa4 43c0
00000370: 7e4a e140 ca4c 2e40 46b0 dbc0 810d eec0
00000380: e314 bcc0 e7c9 6040 1100 81c0 586d 5940
00000390: 3e61 6bc0 8589 74c0 14a0 e33f 4806 37bf
000003a0: 6617 0bc1 9607 29be de79 9a40 fd0b 8840
000003b0: c532 17c0 a4f9 d3be 85ee 17bf 725a 8fc0
000003c0: f0a8 3dc0 a070 b5c0 5830 55c0 6332 b7c0
000003d0: c70e ecc0 73d9 26c0 1c74 ecc0 063b 6ac0
000003e0: 1548 88c0 ef98 41bf 4a26 73c0 b5b7 8fc0
000003f0: 8b65 01c1 57ec cec0 9dfe 14c0 b2e9 0c40
-6.3372893 -8.88127 -0.59743994 -6.4005785 -4.985474 -1.2609104 -2.36468 -3.2943187
-6.5874133 -5.078857 -5.118307 0.07609815 -3.1040113 -6.2134438 -3.8040104 -0.7903356
0.35903814 -6.027747 -4.167506 -4.029231 -0.6518194 -4.99503 -2.6118174 -3.7992828
-3.5882409 -4.92763 -6.0421867 -0.75233585 -4.509349 1.4236009 -2.6618981 4.2684135
1.4158579 -4.7844286 -3.4633443 10.370884 0.43040952 -3.3286002 -3.6688962 1.0893369
-1.3571265 -1.6388984 -3.0784276 -2.6375663 -2.6909475 -4.2766123 -1.3898069 -3.9001544
-2.954245 -2.6834497 1.5777595 -5.414272 -1.4065068 -6.7651777 -7.5870504 -8.197233
-4.1249833 0.14559168 -6.5669594 -1.5834745 -8.524187 -7.3364186 -5.513324 -2.6908236
-5.9256577 -3.418041 -4.1350327 -2.369396 -4.6484976 -2.8339555 -3.9181094 -2.4454124
-3.5966105 -1.6223134 3.4412897 -2.7204037 -9.051176 -3.5631888 -6.3126063 -5.765784
-1.8169618 1.1260761 0.19578004 2.922312 1.26196 0.37471923 -4.8181305 1.4210265
-6.846638 -3.554088 -6.329377 -5.6317987 -5.158664 -6.0923414 -1.57203 -4.8680086
-3.745814 -2.7085557 -3.2786279 -5.6701474 -4.831945 10.127123 -0.89123094 7.4370484
-3.9422677 -4.101932 4.745288 -5.865257 -9.1791725 -3.0208611 -5.2071557 -7.735845
-4.6752505 -2.8152125 -4.3926444 8.621673 -2.8305132 9.156833 7.356958 -0.28146952
-3.2146618 -1.9696164 4.2552066 -5.782159 -3.9710517 1.6398793 -5.7554946 -0.13125822
-8.346908 -3.6310894 -4.6660895 -1.0847446 -2.648785 3.6241043 -4.1035414 -4.494465
-5.002861 -0.0631918 -0.21952684 -4.7884803 -6.987364 1.5819428 -2.4136145 -1.0356717
6.585277 -0.19654001 -1.3152379 -5.2268963 -3.7623386 0.72398174 -2.2991745 4.4465685
-1.3915582 -4.358537 4.0721745 -6.9051557 -5.728509 -6.148592 2.7463732 -3.35415
-5.7234116 -4.6266108 -4.6220813 -2.9588344 -2.028198 -1.5055993 5.296814 0.46453145
-5.072125 -1.0818975 -5.4987693 0.8771196 -4.8396087 -5.2542048 -3.059129 -2.8465261
-8.706272 5.9790454 -6.092709 -3.0165117 -1.427675 -5.0769424 -7.207297 -3.8650563
-4.1835227 -2.9381678 -5.672403 -4.178398 -5.2798443 -4.699351 -5.0614996 -1.3086162
-2.46883 5.921247 -4.732007 -1.6873562 -3.833267 -8.189102 -6.2859063 -4.013682
-7.6798763 2.174865 -2.5220902 -2.921024 3.21479 -5.204417 -4.296897 2.9462872
-4.9221354 -4.7498555 -4.0524197 -8.134563 -0.37215155 -0.25507826 -4.7481112 2.7426672
2.151331 0.23549598 -8.048565 -3.0569367 7.0403433 2.7234368 -6.8652678 -7.4391484
-5.8775496 3.5123231 -4.031258 3.3972988 -3.6778102 -3.8208935 1.7783227 -0.7149396
-8.6932125 -0.165068 4.8273764 4.2514634 -2.3624737 -0.41401398 -0.59348327 -4.4797907
-2.9634361 -5.669998 -3.3310757 -5.7249007 -7.376804 -2.607022 -7.3891735 -3.6598525
-4.258799 -0.75623983 -3.799212 -4.491175 -8.087291 -6.46635 -2.3280404 2.2017636

weight f4 [256, 256]
00000000: 02aa 6d3f 34d9 49c0 3c37 86be 24f3 ff3f
00000010: 7e89 4a3f 5646 3bbf 7e14 173e e3f7 48c0
00000020: d420 ec3e 1972 d63f e21e a63e a1f2 5ac0
00000030: a493 22bf 236d 923d 1ee8 35c0 f83c 08c0
00000040: 3e2f cebf e1a2 19c0 c491 703f ac29 0540
00000050: 20f9 cfbf dcaa 91bf 5cb4 f43e 2805 b4be
00000060: 4d0b b63e ce8a cabe 6041 12c0 630b 353c
00000070: 3ccf 08c0 4dca 6cbe 50f7 893f 8a47 fabf
00000080: 88a0 14be 3037 5640 edd1 283f a64f 7cbf
00000090: 86d5 66bd 613d 45bb 7c58 d3bf 5bef bbbf
000000a0: 750e da3e 034d fc3d 8732 9e3f e0be f5be
000000b0: b13a 953f e5f5 88be bd75 77bf 5944 fabe
000000c0: b8e8 13c0 7d75 c5bf 1f3b f93e fb44 a1bf
000000d0: c003 72bf ca94 70c0 d31e 0c3e 6bb0 cebc
000000e0: 61d6 83bf f17f f5bf f949 a8be 1a80 a3c0
000000f0: a962 f63e e8c3 1440 c637 033e 5a86 13bf
00000100: 7589 0c40 640a 853f db4e 8abe 8526 6f3d
00000110: 8258 083f 316f 91bf a800 cbbf d17f eabe
00000120: 0f51 6d3f 41f6 ec3f 7584 0bbf 8326 623e
00000130: 760f 02bf 207e cb3f 2945 6d40 e110 2cc0
00000140: ccde ff3f 79be 7abf 0af0 3d3e 9b0f 6ebf
00000150: e7e7 c93d a356 6abf 8bae f13f d6ab a4bf
00000160: 85af 0b40 3395 7f3f 0e7c 6e3f 61e0 50c0
00000170: fed4 0ac0 ed69 603e e965 c2be 28b4 d63f
00000180: 3b1a 20c0 0116 56be e8e5 62bf 95ba c73f
00000190: d3a9 64c0 f9a0 7dbf f906 02c0 8663 333f
000001a0: 3a26 9cbf 43ae c8bf 654e 07c0 3c1f e0bf
000001b0: be75 69bf 1045 e7bf 60e8 19c0 3dba 2c3f
000001c0: f4d9 e43d 3143 acbe 604e 0940 c3fe 823d
000001d0: a15e 0c40 e915 d53f 8303 dd3d 06ef fa3e
000001e0: b3e8 ecbf 80f3 dfbf 990a aec0 fb8a 4cc0
000001f0: 4fc2 cf3f d6f2 8c3f 6153 003f a5b3 aa3e
00000200: c089 b9bf 1f0e efbf 2a25 16bb db39 9ec0
00000210: abd6 273f 883d a43f 706e 8a3f f4dc 81be
00000220: 0ce5 0a3f 9113 df3f 4208 4dbf 320f 10bf
00000230: c59d f6bf 32ed ed3e 6db0 9e3f e344 03c0
00000240: eba9 f53f ab41 c9bf 659d 16bd 9d0c 07bf
00000250: 8a7c 65be edfe 593f 6f4c 68bf 64bb b03f
00000260: 0ff8 1040 40d0 2540 519a 21c0 751e 6cc0
00000270: 16d8 d6bf 3dc9 3fbf 93a0 2a3f 7211 ccbf
00000280: d404 e0bf f659 933e 23e2 79be cb06 5abf
00000290: 9e07 1340 4160 5bbf 6705 fdbf f7af 4ebf
000002a0: 853d bf3f 9ced f3bf 0985 0f3f 3f00 9b3f
000002b0: 8194 99bf 74bb dbbf a886 f0be 442f 9bbe
000002c0: c271 23bf 4637 09c0 250c 10bf 9b32 9cbf
000002d0: 47e8 2fc0 f609 a4bf 6da5 cc3f e3a5 33bf
000002e0: 98c6 42bf d302 bd3f bfef 34c0 0969 333f
000002f0: 991f 263e fd00 7d40 2c9c 003f 981e 40c0
00000300: 0f4b 1440 1e13 66be 2aaf 713f c7d5 59c0
00000310: 97fc bcbf 859b 3740 ed89 69bf 5eda 7040
00000320: c446 acbe 27cd 0340 09a1 323f fabb dcbe
00000330: b45c 00c0 a26b 6a3f 3a13 c3bf 1b29 d4be
00000340: 6864 96be 53c5 e43f 5403 16c0 77ce 1ebe
00000350: 2e23 cdbf e50e aebf 48d8 ac3f c5f4 da3d
00000360: b6e2 35bf ebd3 0dbe c080 b8bf c9e5 a0bf
00000370: d90d 423f 1c64 b23c 7ac4 47c0 e1e0 a7be
00000380: 8074 f5bf 2c94 9bbe 634a 91bf b41a d0be
00000390: 7fbe c2bd 6cdb 873e 27f3 3b40 fafc a5bf
000003a0: c047 df3f 16a9 443f 1873 9b3f bd05 903f
000003b0: f0c6 6fc0 8f8d a9bf c9b4 f5bf 123a 70c0
000003c0: b3d2 debf 7a88 ac3f 1511 f5bf 064f c13f
000003d0: f461 3c3f a2d3 8b40 58cc b9bf 0034 a73f
000003e0: 0c66 14bf 22c7 67bf 8087 103f b747 253e
000003f0: db64 4abf fb27 4dbf a268 a7be ca63 ddbf
0.92837536 -3.153882 -0.26214015 1.9996076 0.79116046 -0.731542 0.14753911 -3.1401298
0.46118796 1.675357 0.32445437 -3.421059 -0.6350653 0.071497224 -2.8422923 -2.1287212
-1.6108167 -2.4005663 0.9397242 2.0806684 -1.6247902 -1.1380267 0.47793853 -0.35160184
0.35555497 -0.39559025 -2.2852402 0.011050078 -2.1376486 -0.23124047 1.0778599 -1.9553082
-0.14514363 3.3471184 0.6594532 -0.98559034 -0.056355976 -0.00300964 -1.6511378 -1.468242
0.42589155 0.12319376 1.235917 -0.4799719 1.1658536 -0.26750103 -0.9666403 -0.4888027
-2.311079 -1.542648 0.48677918 -1.2599176 -0.9453697 -3.7590814 0.13683634 -0.025230607
-1.0299798 -1.917967 -0.32868937 -5.1093874 0.48122147 2.3244572 0.12814245 -0.5762688
2.1958897 1.0393796 -0.27013287 0.058386344 0.5326005 -1.1362058 -1.5859575 -0.4580064
0.9270181 1.8512651 -0.5449899 0.22085004 -0.5080484 1.5897865 3.7073462 -2.6885302
1.9989867 -0.9794689 0.18548599 -0.9299256 0.09858685 -0.9153845 1.8881391 -1.286494
2.1825879 0.99837035 0.9315804 -3.263695 -2.16925 0.21915407 -0.37968376 1.6773729
-2.501601 -0.20906831 -0.8863206 1.5603815 -3.5728652 -0.9907375 -2.0316756 0.70073736
-1.2199166 -1.567818 -2.1141598 -1.7509532 -0.91195285 -1.8067951 -2.404808 0.6747168
0.11174384 -0.33645013 2.1454086 0.06396248 2.1932757 1.6647311 0.107916854 0.49010485
-1.8508514 -1.7496185 -5.4387937 -3.1959827 1.6231173 1.1011608 0.50127226 0.33340183
-1.4495163 -1.8676184 -0.0022910335 -4.9445624 0.6556193 1.2831278 1.0814953 -0.25363886
0.5425575 1.7427846 -0.80090725 -0.56273186 -1.9266897 0.46470028 1.2397591 -2.0510795
1.919248 -1.5723165 -0.036771197 -0.5275362 -0.22410789 0.8515461 -0.9074163 1.3807187
2.2651403 2.5908356 -2.5250437 -3.689359 -1.6784694 -0.7491644 0.66651267 -1.5942824
-1.7501473 0.28779572 -0.2440267 -0.85166615 2.29734 -0.85693747 -1.9767274 -0.8073725
1.4940649 -1.9056888 0.5606237 1.210945 -1.1998445 -1.7166581 -0.46977735 -0.30309498
-0.63845456 -2.1439986 -0.5626853 -1.2202944 -2.748552 -1.281554 1.5987984 -0.70175
-0.7608428 1.4766487 -2.827133 0.70082146 0.16222991 3.9531853 0.502383 -3.0018673
2.3170812 -0.2246823 0.94407904 -3.403673 -1.4764584 2.8688672 -0.91226083 3.763328
-0.3364774 2.0593965 0.6977697 -0.43112165 -2.0056581 0.91570485 -1.5240242 -0.4143761
-0.2937348 1.7872719 -2.3439531 -0.15508448 -1.6026361 -1.3598295 1.3503504 0.10691217
-0.7104906 -0.13850372 -1.4414291 -1.2570125 0.7580238 0.021776251 -3.121367 -0.32788756
-1.9176178 -0.30386484 -1.1350826 -0.40645373 -0.095089905 0.26534593 2.9367158 -1.2967827
1.7443771 0.76820505 1.2144499 1.1251751 -3.7465172 -1.3246325 -1.9195796 -3.7535443
-1.740805 1.3479149 -1.9145838 1.5102241 0.73586965 4.369584 -1.4515486 1.3062744
-0.5796821 -0.9053823 0.56456757 0.16140638 -0.79060143 -0.8013913 -0.32697016 -1.7296078
