benchmarks/HalfCheetah_sac/HalfCheetah_sac_s456/pyt_save/model.pt (torch_old, 878563 bytes, 18 tensors)

weight f4 [256, 17]
2.2493248 -1.1267982 0.517295 -1.0648103 2.7063377 1.1109142 2.987682 5.369013
-3.07565 1.3130069 0.63935155 0.21538338 -0.22322002 0.18590984 0.5148779 -0.12820607
0.25350723 0.64773 -5.870378 0.23345323 1.9952142 -0.39587522 0.60352206 1.092962
2.3993676 -0.8232141 -0.43840736 -0.79306763 -0.57052535 -0.12638777 0.07252741 -0.49145666
-0.03429865 0.08139005 -5.2432847 -18.85452 -7.920927 -4.094381 -1.308845 0.5899162
-0.07038608 0.39096957 -1.7553229 0.054178588 -1.8196986 -0.38985872 -0.09103203 -0.006289954
0.078383 0.006965983 -0.06632788 -51.067112 8.0525875 -1.0685829 -1.9566059 0.40620238
-7.4227686 -3.2397091 -0.4451084 -0.079688355 0.17741655 0.26115495 -0.1771597 -0.04235689
-0.055546366 -0.15082622 0.09871728 0.092908576 1.7846433 -0.4186716 -0.21645026 -0.9679529
-1.6788567 -1.677602 0.39877638 0.6086717 -1.7300003 -0.31308407 0.75088376 0.14164086
0.20715432 -0.030901605 0.012991169 0.03666742 0.08492235 3.9116378 -3.7482173 5.144045
-1.7131935 4.484734 -0.7321484 1.3546827 1.2587593 -0.9821546 -4.011158 -1.5646667
0.004719015 0.13230163 0.08740405 -0.41431934 -0.0418301 -0.0030070317 22.114422 3.585706
-0.49797285 1.7836375 0.12271947 -0.9353722 -1.1472447 -0.73148733 -0.39130467 0.68584317
0.07672403 0.020386182 0.029018933 0.11234452 -0.05953601 -0.1079763 0.0723481 8.822042
1.1904196 -7.5860457 -0.9300921 -2.5651128 0.7624768 2.3465862 1.6305083 -0.89903766
1.9966637 -1.0910456 0.16354223 0.07718107 0.077531755 0.03313807 0.08739669 0.01296789
-0.39938876 5.3515687 0.3738297 1.09961 -2.1862283 1.1458868 -3.1225119 -1.2639201
-0.61963433 0.58801425 1.334691 0.23178464 0.3627873 -0.08564498 0.12512514 0.026380463
0.082777135 12.208434 -5.8989115 4.329448 -0.98600006 0.19298314 -0.7119129 -3.9292347
-0.58347183 -0.34523973 2.1186888 -2.0523899 -0.3914006 0.054776352 -0.075382754 -0.117399484
-0.28641173 -0.0054596574 9.679255 -0.1576648 3.8192403 0.34718353 1.4155504 -5.391495
-1.363517 -0.6568729 -0.8567029 2.424629 0.8515845 0.0052528786 0.23806237 0.07405243
-0.057348497 -0.0115311295 0.017417721 1.4180989 -8.1391115 -4.1175237 9.304391 -0.048545897
-1.4150397 -1.9704789 0.5164166 -0.59506977 0.5816026 -0.6897829 0.63305414 -0.12643364
0.057628278 -0.043564573 -0.30116847 0.013600638 20.43544 0.6296412 -1.2822562 0.23350486
2.486757 4.853676 3.2419796 4.1529627 -0.8873934 4.8740315 -1.084191 -0.038265195
-0.14866255 0.028840259 0.5179717 0.22419079 0.1679974 7.5653567 -9.884777 0.7097599
0.21785572 1.3514999 -0.5228511 -6.3185754 -1.2629251 -0.8486754 2.557955 1.0975372
0.47187415 0.35174248 0.2324415 0.37223575 0.077394634 -0.06323167 8.758965 -0.9600043
4.295393 -0.22269997 0.8151933 2.9317274 3.4870555 2.8604548 -3.494481 2.4663968
0.19112627 0.4336788 -0.059307177 0.09275668 0.44439048 0.064755775 -0.03848284 -37.15701
00000000: f0f4 0f40 ec3a 90bf 726d 043f b44b 88bf
00000010: a334 2d40 7032 8e3f 2f36 3f40 f4ce ab40
00000020: 73d7 44c0 9c10 a83f 8bac 233f 768d 5c3e
00000030: ca93 64be 265f 3e3e 0acf 033f 7448 03be
00000040: b3cb 813e a2d1 253f 23da bbc0 5d0e 6f3e
00000050: 2e63 ff3f 28b0 cabe 6c80 1a3f 2ee6 8b3f
00000060: 3d8f 1940 29be 52bf ee76 e0be 7b06 4bbf
00000070: f30d 12bf cc6b 01be 4089 943d 35a0 fbbe
00000080: be7c 0cbd d4af a63d fdc8 a7c0 0fd6 96c1
00000090: 3c78 fdc0 2b05 83c0 3c88 a7bf c004 173f
000000a0: 9426 90bd 2a2d c83e 6cae e0bf 5eea 5d3d
000000b0: e2eb e8bf 909b c7be 006f babd f51b cebb
000000c0: 4487 a03d e742 e43b e9d6 87bd b944 4cc2
000000d0: 66d7 0041 53c7 88bf 1072 fabf c2f9 cf3e
000000e0: 5287 edc0 6557 4fc0 40e5 e3be a633 a3bd
000000f0: afac 353e 1ab6 853e 5a69 35be 6b7e 2dbd
00000100: 9684 63bd 3072 1abe 492c ca3d da46 be3d
00000110: 316f e43f 205c d6be 23a5 5dbe c3cb 77bf
00000120: c7e4 d6bf aabb d6bf 6b2c cc3e e9d1 1b3f
00000130: a670 ddbf 8e4c a0be eb39 403f 4d0a 113e
00000140: 4320 543e 5d25 fdbc e9d8 543c 9430 163d
00000150: c5eb ad3d 4658 7a40 cbe2 6fc0 049c a440
00000160: ed49 dbbf f182 8f40 146e 3bbf 3e66 ad3f
00000170: 061f a13f 7c6e 7bbf 685b 80c0 0047 c8bf
00000180: f8a1 9a3b 147a 073e e500 b33d aa21 d4be
00000190: 0a56 2bbd 9f11 45bb 56ea b041 357c 6540
000001a0: 4cf6 febe 3c4e e43f 5854 fb3d 8d74 6fbf
000001b0: ead8 92bf c142 3bbf 1659 c8be 6b93 2f3f
000001c0: 7d21 9d3d ec00 a73c 1db9 ed3c e214 e63d
000001d0: 08dc 73bd ae22 ddbd 3e2b 943d 1627 0d41
000001e0: ab5f 983f e3c0 f2c0 841a 6ebf cf2a 24c0
000001f0: ae31 433f 782e 1640 7fb4 d03f 5527 66bf
00000200: ad92 ff3f 62a7 8bbf 9d77 273e 1c11 9e3d
00000210: f8c8 9e3d c9bb 073d 09fd b23d 4677 543c
00000220: af7c ccbe 0d40 ab40 9b66 bf3e 05c0 8c3f
00000230: 2aeb 0bc0 6bac 923f 3cd7 47c0 22c8 a1bf
00000240: 5ba0 1ebf 1a88 163f 28d7 aa3f f458 6d3e
00000250: 42bf b93e a366 afbd ce20 003e d71b d83c
00000260: 0f87 a93d bf55 4341 e2c3 bcc0 d78a 8a40
00000270: 806a 7cbf 5f9d 453e ec3f 36bf 9578 7bc0
00000280: 695e 15bf 43c3 b0be 9998 0740 5b5a 03c0
00000290: a965 c8be 2b5d 603d 4662 9abd 246f f0bd
000002a0: 8fa4 92be ede6 b2bb 3ade 1a41 e272 21be
000002b0: 6f6e 7440 0ac2 b13e c130 b53f 2187 acc0
000002c0: ba87 aebf d328 28bf e250 5bbf 1f2d 1b40
000002d0: 7101 5a3f 5720 ac3b 9fc6 733e cda8 973d
000002e0: 42e6 6abd 10ed 3cbc 9caf 8e3c 4484 b53f
000002f0: cd39 02c1 c1c2 83c0 c9de 1441 10d8 46bd
00000300: 0520 b5bf a738 fcbf e133 043f 7e56 18bf
00000310: e8e3 143f 9d95 30bf d60f 223f d277 01be
00000320: a10b 6c3d c470 32bd c132 9abe 36d5 5e3c
00000330: c87b a341 2a30 213f f920 a4bf e61b 6f3e
00000340: 0727 1f40 5051 9b40 987c 4f40 12e5 8440
00000350: 372c 63bf 11f8 9b40 c5c6 8abf f7bb 1cbd
00000360: ff3a 18be 6842 ec3c cb99 043f 4592 653e
00000370: 8307 2c3e 6717 f240 0c28 1ec1 d3b2 353f
00000380: 9215 5f3e f3fd ac3f 92d9 05bf c531 cac0
00000390: 88a7 a1bf ca42 59bf 89b5 2340 197c 8c3f
000003a0: 7d99 f13e 9717 b43e 2505 6e3e af95 be3e
000003b0: 1481 9e3d 9b7f 81bd b824 0c41 d8c2 75bf
000003c0: dc73 8940 760b 64be 82b0 503f 6ca1 3b40
000003d0: eb2b 5f40 b111 3740 94a5 5fc0 72d9 1d40
000003e0: 9bb6 433e 260b de3e 15ec 72bd 37f7 bd3d
000003f0: 2687 e33e ad9e 843d 2fa0 1dbd c7a0 14c2

bias f4 [256]
-6.1696277 -6.291206 -1.1267638 -4.0973096 -4.7807775 -7.353143 2.7543573 -2.4947941
-7.0439363 -3.1794026 -2.0211217 -1.843201 -7.546004 -1.1962183 -3.4139013 -4.489329
-2.1752603 -2.804974 -3.7809765 -5.373234 -3.6163614 0.8507121 -2.6581004 -6.846329
2.2480552 -2.0249722 -7.11323 -5.290409 -5.795908 -5.519318 0.54253256 -6.371628
-4.993279 -6.5605397 -2.9116323 -5.4337206 4.968382 -4.404456 -3.3385952 -7.247002
0.17869288 -8.427163 -2.7010913 -5.2776065 -3.8365002 -4.7914367 1.8270768 -3.4583375
-5.4178224 0.91628265 -6.639541 -3.0133953 -1.4993292 -3.7506588 -3.4826982 -4.108998
-7.281506 -5.2375646 -4.784552 -1.9161538 -4.8396325 -1.3480694 -8.13961 -6.4505296
-5.380807 -4.53589 -6.744533 -6.984811 -5.606408 -2.429538 -4.197294 -3.923942
-1.8404917 -5.444857 -6.3277693 -4.0408316 -5.262777 -8.678848 2.4637976 -7.45391
-5.2188807 -5.0704083 2.0668852 -4.8617277 -7.338049 -6.5023665 -5.0911884 -5.963406
-6.084289 -6.5415506 -6.476132 -4.8145137 -5.2878857 -7.809758 -4.9761696 -2.7719488
-7.6619263 -7.143183 2.7022624 -4.1993556 -1.8432385 -1.919427 -4.752169 -6.691274
-6.1072316 -3.986655 -5.876005 -5.8545527 -6.082076 -5.659004 -2.6358085 -3.269629
-4.9077272 1.4453777 -4.47198 -4.1951747 -2.7691402 -2.4016974 -5.853625 -3.5863533
-5.890989 -6.7404094 5.351656 -5.9118795 -5.5423636 -5.9247537 -1.3683478 -5.2147145
-8.604004 -0.72670513 -5.3835464 -5.401095 -3.0398786 -6.41922 -5.5688167 -5.4181867
-4.6218286 -7.666542 -2.7100925 -1.4756726 -3.6465197 -4.284218 -1.3457162 -4.084585
-5.4792023 -6.5712104 -3.5510468 -10.968086 -0.30062625 -2.9817562 -6.214479 -5.090417
-6.75302 1.313454 -1.6310219 -3.9166555 -6.3226323 -7.3628426 -1.6918147 -5.122999
-3.937729 -8.01821 -2.4755085 -5.27342 -4.8922462 -5.2538457 -5.251715 -4.897461
-3.123428 -0.38385686 -4.3893957 -4.464746 -4.0672135 -0.31909594 -3.2929528 -7.1170745
-1.0825737 -0.29709888 -4.1051254 -5.5779467 -6.690159 -6.3293676 0.5207599 -4.053091
-7.126426 -6.5390973 -4.255159 -12.067416 -4.9634376 -1.3889109 -5.891153 -4.990236
-7.80706 -8.132178 -5.781749 -5.6481476 -0.41586563 -3.7969809 -5.9445667 -7.9848523
-6.6101723 -7.5922446 -1.2796241 0.15485743 -4.7626824 -3.9349687 -2.930543 -1.2357596
-4.1668057 -2.699861 -2.8899179 -3.8207276 -7.4027033 -7.184993 -4.5719595 -1.2718081
-5.9234858 -3.3012512 -2.437434 -4.048746 -1.3167037 -10.261349 -5.7445254 -6.032106
1.3059969 -9.540764 -2.6516676 -0.915195 -4.5967636 -1.2813733 -3.8612463 -3.4751403
-7.056822 -3.437753 -3.9244213 5.881139 -5.4587684 -5.694232 -6.036979 -6.960612
-5.6983733 -3.7423787 -3.2757387 2.368737 -6.1895123 -4.3230195 -5.976173 -5.4405227
-0.4358241 -5.273927 -5.4596825 -9.226611 -6.468086 -3.8041697 -3.5838737 -6.2539163
00000000: 976d c5c0 8f51 c9c0 cc39 90bf 291d 83c0
00000010: 21fc 98c0 f34c ebc0 6447 3040 b5aa 1fc0
00000020: ed67 e1c0 557b 4bc0 0f5a 01c0 03ee ebbf
00000030: dd78 f1c0 ae1d 99bf 5c7d 5ac0 95a8 8fc0
00000040: 7737 0bc0 b284 33c0 85fb 71c0 88f1 abc0
00000050: 7772 67c0 45c8 593f 511e 2ac0 2115 dbc0
00000060: 23e0 0f40 2599 01c0 959f e3c0 084b a9c0
00000070: 1478 b9c0 419e b0c0 6ae3 0a3f 60e4 cbc0
00000080: f1c8 9fc0 f1ef d1c0 2f58 3ac0 0ae1 adc0
00000090: fcfc 9e40 4ef1 8cc0 8bab 55c0 71e7 e7c0
000000a0: 44fb 363e a9d5 06c1 aede 2cc0 27e2 a8c0
000000b0: 3889 75c0 7353 99c0 a7dd e93f 6755 5dc0
000000c0: cd5e adc0 8091 6a3f 1f77 d4c0 78db 40c0
000000d0: 05ea bfbf cb0a 70c0 87e4 5ec0 e97c 83c0
000000e0: 1902 e9c0 219a a7c0 0d1b 99c0 8744 f5bf
000000f0: 45de 9ac0 8a8d acbf d83b 02c1 bd6a cec0
00000100: 922f acc0 0326 91c0 37d3 d7c0 9283 dfc0
00000110: b267 b3c0 8d7d 1bc0 3c50 86c0 de21 7bc0
00000120: 3b95 ebbf 453c aec0 167d cac0 7e4e 81c0
00000130: ab68 a8c0 90dc 0ac1 dcae 1d40 6e86 eec0
00000140: 1201 a7c0 c940 a2c0 d947 0440 4693 9bc0
00000150: 4cd1 eac0 6313 d0c0 04eb a2c0 39d4 bec0
00000160: 7fb2 c2c0 6254 d1c0 793c cfc0 7f10 9ac0
00000170: 5c36 a9c0 8ae9 f9c0 c83c 9fc0 9c67 31c0
00000180: 802e f5c0 f594 e4c0 def1 2c40 1f61 86c0
00000190: 3def ebbf c9af f5bf c511 98c0 eb1e d6c0
000001a0: 716e c3c0 5b25 7fc0 3c08 bcc0 7f58 bbc0
000001b0: 5ea0 c2c0 9016 b5c0 16b1 28c0 9a41 51c0
000001c0: 1a0c 9dc0 2302 b93f 761a 8fc0 df3e 86c0
000001d0: 9839 31c0 69b5 19c0 e550 bbc0 d086 65c0
000001e0: fb82 bcc0 6fb1 d7c0 c440 ab40 1e2e bdc0
000001f0: 0b5b b1c0 9597 bdc0 0526 afbf f1de a6c0
00000200: 00aa 09c1 5909 3abf 0346 acc0 c5d5 acc0
00000210: 5f8d 42c0 406a cdc0 bf33 b2c0 c961 adc0
00000220: 05e6 93c0 5054 f5c0 2872 2dc0 d7e2 bcbf
00000230: 9460 69c0 5018 89c0 6e40 acbf ecb4 82c0
00000240: a055 afc0 5b47 d2c0 5a44 63c0 487d 2fc1
00000250: afeb 99be 18d5 3ec0 03dd c6c0 b2e4 a2c0
00000260: bd18 d8c0 431f a83f 53c5 d0bf 7caa 7ac0
00000270: 0153 cac0 689c ebc0 628d d8bf 9cef a3c0
00000280: c003 7cc0 974a 00c1 bb6e 1ec0 dbbf a8c0
00000290: 488d 9cc0 811f a8c0 0d0e a8c0 00b8 9cc0
000002a0: 3fe6 47c0 e388 c4be ee75 8cc0 33df 8ec0
000002b0: 9d26 82c0 8b60 a3be bdbf 52c0 13bf e3c0
000002c0: c691 8abf 581d 98be 305d 83c0 8a7e b2c0
000002d0: c815 d6c0 2e8a cac0 8550 053f ecb2 81c0
000002e0: af0b e4c0 4940 d1c0 432a 88c0 2314 41c1
000002f0: 7bd4 9ec0 d5c7 b1bf 5384 bcc0 03b0 9fc0
00000300: 6fd3 f9c0 671d 02c1 1604 b9c0 a0bd b4c0
00000310: 57ec d4be bc01 73c0 e439 bec0 e983 ffc0
00000320: 8886 d3c0 abf3 f2c0 b9ca a3bf f292 1e3e
00000330: e567 98c0 87d6 7bc0 048e 3bc0 5f2d 9ebf
00000340: 7956 85c0 86ca 2cc0 6af4 38c0 cd86 74c0
00000350: f2e2 ecc0 76eb e5c0 7e4d 92c0 9cca a2bf
00000360: 328d bdc0 b347 53c0 ebfe 1bc0 548f 81c0
00000370: bf89 a8bf 7c2e 24c1 27d3 b7c0 0307 c1c0
00000380: e82a a73f f8a6 18c1 ecb4 29c0 384a 6abf
00000390: b018 93c0 0a04 a4bf a91e 77c0 b368 5ec0
000003a0: 7cd1 e1c0 2504 5cc0 b829 7bc0 4a32 bc40
000003b0: 3bae aec0 2637 b6c0 ef2e c1c0 55bd dec0
000003c0: 1359 b6c0 2283 6fc0 b4a5 51c0 6399 1740
000003d0: 7c10 c6c0 2d56 8ac0 cf3c bfc0 c318 aec0
000003e0: 5624 dfbe 03c4 a8c0 b8b5 aec0 33a0 13c1
000003f0: 8ffa cec0 8477 73c0 305e 65c0 1520 c8c0

weight f4 [256, 256]
-0.82752043 0.15505846 0.108627714 0.44202366 -0.63186115 0.6218738 0.7714048 -0.037346885
-0.84295785 -1.0033149 0.32699633 -1.4089313 -0.65688 -1.4396347 -0.29851213 -17.339146
0.79935545 0.91953737 -0.14660473 -0.91184235 0.49220076 -2.482218 0.0749243 0.048350215
0.028099844 1.0121351 -4.228136 -0.11733191 -1.1979896 -0.47557983 -0.20825823 -0.687705
0.09784014 -0.67215556 0.4015104 -1.2317666 -2.0442095 -0.19704658 -0.70039785 -0.5937122
-1.354966 -0.60378766 -0.054772824 -0.1420773 0.24617754 -1.9373972 -0.5475573 -0.58722603
-0.14286971 0.24332358 -1.0380269 -0.22019304 -0.90017307 0.006764396 -1.1078216 -0.78293496
-0.14542991 -0.74150234 0.24435368 -5.2272725 -0.25756678 0.31331155 -0.5543796 0.42195156
-0.024353731 -0.3916719 -0.0943579 0.19929975 -0.82377005 -0.03991816 0.07045451 -0.3868936
-0.16752757 -0.63666135 -0.22792023 0.6338514 -0.7973949 -0.73602766 0.49316916 -0.6109801
0.037383024 0.27097118 -0.018496469 -0.7897428 -0.43349567 -0.5142186 -2.052418 -0.5167372
-0.20874356 -2.3891282 -0.19748278 0.04971558 0.69552577 -1.4668694 -0.85098904 -0.29657635
-0.58132076 -0.80720145 -0.13486351 -0.064479895 0.6599542 -0.05069531 -2.9030948 0.22979988
-0.48812255 -0.14649202 -0.17432866 0.27503318 -1.5358711 -1.1005449 -0.034547202 -1.0348536
-0.9497342 -1.5694755 0.9597928 0.029241282 0.98029685 -0.032084115 -0.06395151 -1.2693453
0.72156185 -0.032731045 0.11768338 -0.895209 -1.6445279 0.5545683 -1.356798 -0.07069818
-1.4803755 -0.20942 -0.6928316 -0.38476345 0.38192105 -0.9938654 -0.40915486 -0.653203
-0.5631589 0.1305292 0.36350963 0.099121794 -0.6282132 -0.1020017 -0.6292721 1.4016446
-0.18747863 0.07271041 -0.635781 0.26634184 -0.18899074 -0.58091724 -0.27397949 0.72548527
-2.389645 -0.049165025 -0.30849206 -4.575099 -1.0515122 -2.096346 -0.07830352 0.13273399
-0.7643541 -0.6571231 -0.018670505 -5.211704 -0.41884133 -0.018253818 0.8462395 -0.59854627
-1.7639136 0.27852255 -1.4459728 -0.31342244 0.19803803 -0.9107507 0.16479282 -2.289465
-1.2056451 0.5052598 -0.054913193 -0.4687552 -0.98959637 -1.008462 -2.0263035 0.11517431
-1.2684189 0.14524302 0.46855357 0.1468963 0.4031181 -0.038186103 -1.4140981 0.19535047
-0.42775548 -0.085257694 0.059822395 -0.5353448 0.27262336 -0.024189774 -0.13772029 -0.5360487
0.7792568 -1.3043581 -0.16774786 -0.13006832 0.053049218 0.16309348 -1.1765882 -0.17256804
-1.6777986 -0.67148954 -0.16211154 0.03297074 -2.5442111 0.15365724 -0.023117142 -1.2941835
-0.21089044 -0.16406335 -0.057410322 -0.69675696 -2.2738454 -3.4013557 0.42123592 -0.10474173
-0.4144939 0.10737956 -1.0964165 -1.8721932 0.0478197 -0.15665126 -2.6082532 -0.46566164
-0.13556549 0.32046917 0.36304945 0.13919932 -0.60095185 -0.93288475 -0.67950785 -0.8199268
-0.23687515 -0.045798887 -0.30545133 -1.5922577 -0.8629724 -0.42949829 0.20367458 -0.19271128
0.2188957 -0.86692095 0.22358927 -0.04456166 -1.0062249 0.065043144 0.46086243 -0.15242796
00000000: 61d8 53bf a5c7 1e3e 3578 de3d ed50 e23e
00000010: a7c1 21bf 1f33 1f3f c97a 453f 0cf9 18bd
00000020: 16cc 57bf 9f6c 80bf 106c a73e dc57 b4bf
00000030: 4a29 28bf f345 b8bf 95d6 98be 92b6 8ac1
00000040: 8fa2 4c3f cd66 6b3f 8d1f 16be 806e 69bf
00000050: bd01 fc3e a9dc 1ec0 e971 993d e00a 463d
00000060: a531 e63c a58d 813f e44c 87c0 b64b f0bd
00000070: b957 99bf 337f f3be a541 55be 6f0d 30bf
00000080: 6960 c83d 6312 2cbf c592 cd3e 87aa 9dbf
00000090: 54d4 02c0 94c6 49be 464d 33bf 86fd 17bf
000000a0: 876f adbf d491 1abf 7859 60bd b67c 11be
000000b0: f715 7c3e a2fc f7bf b72c 0cbf 7254 16bf
000000c0: 704c 12be d129 793e 11de 84bf 497a 61be
000000d0: be71 66bf dea7 dd3b 19cd 8dbf 6d6e 48bf
000000e0: 94eb 14be 19d3 3dbf da37 7a3e d145 a7c0
000000f0: cbdf 83be 5f6a a03e d2eb 0dbf 090a d83e
00000100: 7a81 c7bc 3889 c8be b73e c1bd 3c15 4c3e
00000110: 98e2 52bf 3981 23bd 744a 903d eb16 c6be
00000120: 598c 2bbe 3dfc 22bf ec63 69be 1644 223f
00000130: 1222 4cbf 4f6c 3cbf ab80 fc3e 3169 1cbf
00000140: f11e 193d bcbc 8a3e e885 97bc 962c 4abf
00000150: 25f3 ddbe d5a3 03bf d15a 03c0 e448 04bf
00000160: dfc0 55be 7ae7 18c0 ed38 4abe 90a2 4b3d
00000170: fa0d 323f 60c2 bbbf 6bda 59bf dbd8 97be
00000180: 70d1 14bf c1a4 4ebf a919 0abe 090e 84bd
00000190: c2f2 283f e3a5 4fbd 4ecc 39c0 a950 6b3e
000001a0: 33eb f9be 0102 16be 3683 32be 26d1 8c3e
000001b0: 6d97 c4bf a8de 8cbf 5e81 0dbd 1576 84bf
000001c0: c821 73bf 93e4 c8bf fbb4 753f 6a8b ef3c
000001d0: bcf4 7a3f a26a 03bd 02f9 82bd e879 a2bf
000001e0: 47b8 383f fd10 06bd fc03 f13d 6b2c 65bf
000001f0: e47f d2bf 30f8 0d3f 8fab adbf 35ca 90bd
00000200: f27c bdbf 3272 56be 695d 31bf b7ff c4be
00000210: 288b c33e f66d 7ebf bf7c d1be 5038 27bf
00000220: 2f2b 10bf 72a9 053e ef1d ba3e 5e00 cb3d
00000230: 95d2 20bf 44e6 d0bd fa17 21bf 1769 b33f
00000240: 66fa 3fbe 32e9 943d 8bc2 22bf f55d 883e
00000250: ca86 41be feb6 14bf 0a47 8cbe 67b9 393f
00000260: f2ef 18c0 4461 49bd acf2 9dbe 3667 92c0
00000270: f497 86bf 882a 06c0 995d a0bd 6beb 073e
00000280: b6ac 43bf 3839 28bf e3f2 98bc 47c6 a6c0
00000290: 5f72 d6be 0889 95bc 27a3 583f 543a 19bf
000002a0: ecc7 e1bf 829a 8e3e a315 b9bf e878 a0be
000002b0: 7bca 4a3e f526 69bf 73bf 283e 9886 12c0
000002c0: 9452 9abf b558 013f a8ec 60bd ae00 f0be
000002d0: 3056 7dbf 4815 81bf f5ae 01c0 82e0 eb3d
000002e0: 8d5b a2bf 96ba 143e 41e6 ef3e fc6b 163e
000002f0: 7f65 ce3e 0869 1cbd 2b01 b5bf f409 483e
00000300: c402 dbbe 969b aebd 5408 753d 5b0c 09bf
00000310: 4a95 8b3e a229 c6bc 8c06 0dbe 7d3a 09bf
00000320: 607d 473f 35f5 a6bf 18c6 2bbe a130 05be
00000330: 234a 593d fa01 273e 719a 96bf adb5 30be
00000340: 1bc2 d6bf bde6 2bbf 9100 26be 540c 073d
00000350: 5bd4 22c0 5358 1d3e 2960 bdbc cea7 a5bf
00000360: aaf3 57be 3900 28be 1627 6bbd aa5e 32bf
00000370: af86 11c0 d0af 59c0 3cac d73e d582 d6bd
00000380: 8b38 d4be d1e9 db3d 6057 8cbf 07a4 efbf
00000390: 97de 433d 3069 20be 9fed 26c0 346b eebe
000003a0: aed1 0abe 8914 a43e 9ee1 b93e 448a 0e3e
000003b0: fbd7 19bf 89d1 6ebf 3af4 2dbf b9e6 51bf
000003c0: 668f 72be 9d97 3bbd 1e64 9cbe 1acf cbbf
000003d0: c2eb 5cbf 33e7 dbbe 1290 503e 1b56 45be
000003e0: 3226 603e 88ee 5dbf 96f4 643e 4a86 36bd
000003f0: facb 80bf 5735 853d 29f6 eb3e 1316 1cbe

bias f4 [256]
1.014159 1.5141897 -2.0529947 1.1233885 -0.23736292 1.3720299 -0.8068941 -0.18233801
-0.06450833 -0.07935251 0.2065311 -0.4951393 1.2202007 -0.12480901 -8.977983 0.4624902
-0.4650412 3.3655481 -0.09233596 -0.155765 1.4581854 -0.19091612 -0.1256794 1.167656
-1.1870787 -0.49985364 -0.1283265 -0.1338668 -5.2961516 0.081014365 -0.14146236 -1.3607165
0.8921406 -2.2503006 0.23859455 -0.13600928 -0.23706785 -0.2635538 -0.5445675 -1.6284208
-0.16249697 -2.3010297 -0.102699585 -0.1141445 -0.19978681 -0.03959251 -0.15920238 2.197952
4.4072065 -3.5451424 -0.30247414 -0.1079684 -0.13163106 4.1847687 -0.74201524 3.680779
-1.1692561 -2.539051 -0.1311204 -0.45364052 -0.86320984 -0.22336328 1.4175133 -2.2785358
-0.19368306 2.1447957 1.1235428 -4.059793 -3.6960132 -5.4256406 0.40450233 -7.88924
-0.19378662 -0.14532296 -0.12394761 -0.17912544 -0.13340762 -2.4196925 -0.1961982 -0.14608881
-0.1142696 -0.13774703 -0.19622579 -2.6982203 -0.17548099 -0.9960419 0.18553738 2.1217263
-0.14599904 -0.14448564 -0.10444191 0.7439178 -2.532051 1.1250376 -0.20615396 3.7961895
-0.16819625 -0.5399608 2.6190054 0.017405972 -0.22661416 0.70542705 -6.62948 -1.3936771
-1.5569648 -1.2754539 0.50350446 -0.5483279 -0.12065743 -2.2731736 -1.2608017 -7.436974
-3.4269795 5.0939655 -1.9015564 -1.6623399 -0.21767977 -0.5383861 -0.101928666 0.70199025
-0.08160273 -1.0297984 -0.07046247 -0.109844714 -0.59374696 -0.15819909 -1.4887373 -0.08203499
-0.17073913 -0.09861895 -1.0095264 -2.4066336 -0.07577064 -0.2527008 -0.73870945 -0.20242679
-0.1915574 -0.12915875 0.779556 0.8832738 -0.15214515 -0.2568231 -0.13517694 -1.1454297
0.38798034 0.5871887 1.168061 -0.10355892 -0.19119327 -0.15346731 -0.11356499 -3.6304145
-0.16944931 -0.23287351 -2.5979595 -0.16035713 -0.99037707 1.1862856 -0.069751605 -0.5011599
-0.12935358 3.334711 -0.17957151 -0.07020288 -0.109247774 1.1761109 -0.2450028 -2.3845458
-0.46185324 -0.16619897 -1.2529302 -0.25203955 -0.4360796 -0.12222603 -0.7148301 -1.1540552
-3.8085325 -0.16904221 2.1363246 -0.22832167 5.469551 1.0563049 -0.18513484 3.0097196
-2.3656032 0.51150423 1.3249371 3.2193549 -0.08927606 1.4682647 -0.13089912 -0.0030296366
-0.14365257 -0.6015951 -0.17106482 -0.12321841 -0.075072765 -4.2743196 0.20187438 -0.23758626
-0.9695445 1.2437029 -0.11204338 0.044254065 -0.06495682 -0.11613745 -0.35669997 -1.3712496
-1.6830697 -0.25042725 -1.1225642 -0.09864016 -0.14807531 -0.17062145 -2.9681094 -0.64404845
-2.0046692 -0.13769136 -0.14345437 -0.5760112 -3.0686526 -0.23566194 -3.4383962 -0.10738939
-1.3312633 -0.13228282 1.4650204 2.770406 -0.15967816 -0.18603408 1.0198418 -0.17859867
-0.12162557 -0.13665861 -0.16152115 -0.13510467 -0.10317427 -1.7884599 -0.08429623 -0.17534247
2.7470708 -2.8682933 -0.84717494 -0.44625646 2.5142884 0.32437122 -0.07610143 -0.23947836
0.32752746 -0.2063517 -0.34488738 -0.11438048 -1.5080476 -0.43503106 -0.15910603 -0.13891138
00000000: f6cf 813f f8d0 c13f 4464 03c0 32cb 8f3f
00000010: 440f 73be ad9e af3f 9d90 4ebf d1b6 3abe
00000020: f11c 84bd 9283 a2bd e47c 533e e682 fdbe
00000030: 892f 9c3f de9b ffbd d2a5 0fc1 84cb ec3e
00000040: e119 eebe 2465 5740 a31a bdbd dc80 1fbe
00000050: d2a5 ba3f 847f 43be 1ab2 00be c075 953f
00000060: 32f2 97bf d1ec ffbe 0668 03be 6114 09be
00000070: 137a a9c0 dcea a53d 82db 10be f52b aebf
00000080: 5463 643f ed04 10c0 2152 743e 0446 0bbe
00000090: eac1 72be 86f0 86be c768 0bbf 1870 d0bf
000000a0: 9b65 26be 1244 13c0 2954 d2bd 97c4 e9bd
000000b0: ea94 4cbe c12b 22bd f305 23be 3fab 0c40
000000c0: d607 8d40 9de3 62c0 e4dd 9abe 891e ddbd
000000d0: 4bca 06be a0e9 8540 b6f4 3dbf e291 6b40
000000e0: 2faa 95bf d07f 22c0 6d44 06be 9243 e8be
000000f0: 52fb 5cbf 58b9 64be 1371 b53f 88d3 11c0
00000100: da54 46be 5544 0940 40d0 8f3f d3e9 81c0
00000110: 7b8b 6cc0 d99e adc0 ee1a cf3e a774 fcc0
00000120: 0070 46be 8bcf 14be 3fd8 fdbd a96c 37be
00000130: 029c 08be 3edc 1ac0 2ee8 48be 4e98 15be
00000140: 2e06 eabd 8f0d 0dbe 6aef 48be a4af 2cc0
00000150: 4ab1 33be 9afc 7ebf 83fd 3d3e 5dca 0740
00000160: c680 15be 0bf4 13be a4e5 d5bd 6671 3e3f
00000170: 200d 22c0 3b01 903f 061a 53be c5f4 7240
00000180: a33b 2cbe df3a 0abf c99d 2740 f896 8e3c
00000190: 8b0d 68be de96 343f b324 d4c0 0364 b2bf
000001a0: 9f4a c7bf 1342 a3bf abe5 003f 385f 0cbf
000001b0: 3e1b f7bd ad7b 11c0 f361 a1bf b1fb edc0
000001c0: a253 5bc0 c401 a340 3366 f3bf 8ec7 d4bf
000001d0: 72e7 5ebe acd3 09bf fabf d0bd a2b5 333f
000001e0: 551f a7bd 6fd0 83bf a14e 90bd 44f6 e0bd
000001f0: cdff 17bf f1fe 21be f28e bebf f601 a8bd
00000200: 3dd6 2ebe bbf8 c9bd 2938 81bf 4906 1ac0
00000210: a32d 9bbd 0062 81be 101c 3dbf f848 4fbe
00000220: a027 44be 3142 04be fb90 473f 3b1e 623f
00000230: f0cb 1bbe 517e 83be d36b 0abe 719d 92bf
00000240: 5ca5 c63e 0052 163f 0683 953f b316 d4bd
00000250: 2bc8 43be 8926 1dbe c394 e8bd b658 68c0
00000260: 1f84 2dbe 6576 6ebe f844 26c0 a934 24be
00000270: 5a89 7dbf 35d8 973f eed9 8ebd 044c 00bf
00000280: 4475 04be e86b 5540 98e1 37be 87c6 8fbd
00000290: 4cbd dfbd cd8a 963f 04e2 7abe 669c 18c0
000002a0: 0778 ecbe 1030 2abe 0460 a0bf 540b 81be
000002b0: d345 dfbe a451 fabd 1bff 36bf 15b8 93bf
000002c0: ffbe 73c0 6719 2dbe 8bb9 0840 28cd 69be
000002d0: 9006 af40 0035 873f fd93 3dbe 3f9f 4040
000002e0: 0b66 17c0 f1f1 023f 8a97 a93f e909 4e40
000002f0: 5ed6 b6bd 19f0 bb3f 6b0a 06be de8c 46bb
00000300: a919 13be 2302 1abf 9e2b 2fbe ef59 fcbd
00000310: c0bf 99bd 3ac7 88c0 28b8 4e3e d049 73be
00000320: 1134 78bf a831 9f3f 0077 e5bd c043 353d
00000330: 1508 85bd 79d9 edbd 61a1 b6be 1b85 afbf
00000340: d46e d7bf 0038 80be 2fb0 8fbf da03 cabd
00000350: 0ea1 17be 64b7 2ebe 81f5 3dc0 5ce0 24bf
00000360: 804c 00c0 f7fe 0cbe b4e5 12be 7875 13bf
00000370: ce64 44c0 5d51 71be af0e 5cc0 f8ee dbbd
00000380: d666 aabf 2675 07be ca85 bb3f 554e 3140
00000390: ac82 23be b87f 3ebe 2d8a 823f 92e2 36be
000003a0: d416 f9bd 3cf0 0bbe cd65 25be e158 0abe
000003b0: 084d d3bd 41ec e4bf 80a3 acbd fa8c 33be
000003c0: 02d0 2f40 1e92 37c0 75e0 58bf ba7b e4be
000003d0: 1aea 2040 fc13 a63e 11db 9bbd d139 75be
000003e0: aeb1 a73e dc4d 53be 1495 b0be 5040 eabd
000003f0: b407 c1bf 64bc debe b1ec 22be c93e 0ebe

weight f4 [6, 256]
-0.13696294 -0.73544747 -0.20390733 0.057953462 -0.25468394 0.034207106 0.8766005 -0.037223402
0.05302531 0.026982192 0.049474154 0.02327752 0.0030362392 -0.013943993 0.027693052 0.09706344
-0.22758807 0.2628734 -0.07316844 0.0869007 -0.10852654 -0.07658765 0.028256318 0.30451655
0.040361047 -0.5378941 0.03236443 -0.040272474 -0.04542471 -0.18323952 -0.026437685 0.13650298
-0.23536122 0.17887624 0.0064007496 0.03854786 0.011194431 -0.10445184 0.049671575 0.008058975
0.019627938 -0.109256774 -0.0019547555 -0.03279396 0.08929529 0.061999757 -0.01737991 -0.09324373
0.010341068 -0.0523874 0.12658323 0.024589773 -0.13566875 -0.75167376 0.13170435 0.089758396
0.04873425 -0.0468276 0.034133147 -0.14903991 0.014247138 0.023467774 -0.26069367 0.80722064
-0.07878119 0.02426496 0.19655614 -0.162007 -0.41776294 -0.36901698 -0.28429526 0.16636416
0.09176143 -0.19920483 0.0040067057 0.04321405 -0.029299922 0.45599604 0.08703721 0.00072691904
-0.06358512 -0.32347432 -0.040535863 0.0519073 0.122537486 -0.37249398 -0.10875913 -0.11518538
-0.07309771 -0.07197489 -0.08176685 0.16711365 1.1219186 0.07299731 0.14076382 0.03921598
0.026253872 0.030904965 0.00832608 0.101185136 0.15594147 -0.10393415 0.043418128 -0.121747725
0.014686804 0.019415924 0.055580672 -0.23640092 -0.0024272741 0.11695474 0.043367956 -0.029223584
-1.0692868 0.10513886 -0.67479306 0.04251279 -0.14987142 -0.37884632 -0.026099255 -0.07779714
0.044313904 0.09678433 0.075146474 -0.07989129 -0.30436856 -0.0693241 0.038044117 -0.2336686
0.073843844 -0.1165946 0.006761687 1.8649647 -0.0541664 0.039883967 -0.6095772 -0.42168194
-0.05818852 -0.044462252 -0.24761939 0.021533595 -0.05134216 0.33802202 -0.040299814 -0.95065784
-0.09579478 0.08381737 -0.28284734 0.008751266 -0.0453127 0.046986077 0.012842875 0.06009243
0.0012666341 -0.28906772 -0.41368318 -0.021802865 0.084896415 0.13309895 -0.089859754 0.15152125
0.06266571 0.032305982 0.015930321 0.009927606 0.015109302 -0.050938863 0.04285177 0.083169825
-0.07125047 -0.019842114 -0.76698345 0.050688718 0.1155058 0.09047314 0.4087975 -0.12595606
-0.022270564 -0.07346531 0.14280751 -0.18473563 0.018004121 -0.013380287 0.21322338 0.5337492
0.026962694 0.57789797 -0.35001543 0.036648344 -0.060852267 0.010234838 -0.1030668 0.042389337
0.04238518 -0.015787723 -0.052595455 -0.0290457 -8.094183e-05 0.09206126 -0.13787143 -0.042905513
0.22673132 0.3930799 0.08638516 0.25230196 -0.13942051 -0.07668038 -0.1365733 0.040074937
0.20390639 0.025359167 -0.25632405 -0.05223821 0.05235399 0.018802257 0.38332516 0.24570422
0.25839648 -0.04862276 0.027483819 0.25651112 0.22528414 -0.001448471 -0.049144216 -0.040983997
0.14578496 0.0009012432 -0.012285837 -0.057878416 -0.043170583 0.017564302 0.28541866 0.09727485
-0.10952108 -0.0062694564 -0.06262483 -0.0905736 0.010215242 -0.18490079 0.03047757 -0.049094398
0.3752193 -3.2318342 0.1787531 -0.27941158 -0.17068152 0.49393058 0.18209924 -0.16822165
0.0058714068 0.05821804 0.12935713 -0.0016590918 -0.14309354 0.9199825 0.0043054502 -0.041040104
00000000: 0340 0cbe 4946 3cbf 15cd 50be 9c60 6d3d
00000010: ef65 82be c01c 0c3d e468 603f 9177 18bd
00000020: 1131 593d c209 dd3c 69a5 4a3d 7fb0 be3c
00000030: a4fb 463b 5875 64bc 8adc e23c 32c9 c63d
00000040: d90c 69be 5897 863e 56d9 95bd fff8 b13d
00000050: 2a43 debd fcd9 9cbd cb79 e73c 98e9 9b3e
00000060: a051 253d 6eb3 09bf 9190 043d c0f4 24bd
00000070: 430f 3abd 24a3 3bbe d893 d8bc 70c7 0b3e
00000080: 8802 71be 552b 373e 61bd d13b 5ce4 1d3d
00000090: d968 373c d9ea d5bd 6c74 4b3d cb09 043c
000000a0: c5ca a03c 04c2 dfbd 5b1b 00bb f652 06bd
000000b0: 73e0 b63d 75f3 7d3d 5060 8ebc 92f6 bebd
000000c0: 956d 293c 2c94 56bd 099f 013e 7e70 c93c
000000d0: c0ec 0abe b16d 40bf 81dd 063e 40d3 b73d
000000e0: 919d 473d 4cce 3fbd 33cf 0b3d eb9d 18be
000000f0: d46c 693c 7d3f c03c a479 85be 03a6 4e3f
00000100: 0858 a1bd 4fc7 c63c 0346 493e 2ae5 25be
00000110: 06e5 d5be cbef bcbe 268f 91be 5e5b 2a3e
00000120: 6bed bb3d 5afc 4bbe af4a 833b 3701 313d
00000130: 6406 f0bc 5078 e93e 9140 b23d b68e 3e3a
00000140: ea38 82bd 6d9e a5be ef08 26bd c09c 543d
00000150: eff4 fa3d 88b7 bebe 1bbd debd 50e6 ebbd
00000160: 41b4 95bd 9267 93bd 6175 a7bd d71f 2b3e
00000170: 079b 8f3f 9d7f 953d 6424 103e efa0 203d
00000180: 5c12 d73c 692c fd3c 1c6a 083c 273a cf3d
00000190: 1faf 1f3e 6ddb d4bd 35d7 313d df56 f9bd
000001a0: eca0 703c 250e 9f3c 8fa8 633d 1513 72be
000001b0: e712 1fbb f785 ef3d 99a2 313d 4c66 efbc
000001c0: 64de 88bf 0b53 d73d 3dbf 2cbf e421 2e3d
000001d0: e577 19be 25f8 c1be 1bce d5bc 1b54 9fbd
000001e0: 7f82 353d dd36 c63d 65e6 993d 0b9e a3bd
000001f0: 32d6 9bbe cbf9 8dbd 26d4 1b3d d246 6fbe
00000200: 713b 973d 26c9 eebd 2491 dd3b 2ab7 ee3f
00000210: 96dd 5dbd 5f5d 233d 400d 1cbf b2e6 d7be
00000220: 1657 6ebd 0d1e 36bd f08f 7dbe 3967 b03c
00000230: 284c 52bd 3911 ad3e 6b11 25bd 505e 73bf
00000240: 0e30 c4bd 71a8 ab3d 5ed1 90be 7861 0f3c
00000250: cf99 39bd 7974 403d ec6a 523c 7b23 763d
00000260: 3005 a63a af00 94be 48ce d3be ec9b b2bc
00000270: 2cde ad3d 174b 083e 6408 b8bd 6328 1b3e
00000280: e156 803d 4753 043d 4e80 823c 66a7 223c
00000290: 018d 773c 45a5 50bd 5685 2f3d f154 aa3d
000002a0: c4eb 91bd ee8b a2bc 0759 44bf f99e 4f3d
000002b0: 4e8e ec3d fb49 b93d e84d d13e a0fa 00be
000002c0: c270 b6bc fb74 96bd 223c 123e 562b 3dbe
000002d0: 617d 933c fe38 5bbc 3b57 5a3e caa3 083f
000002e0: dee0 dc3c 1ff1 133f 3935 b3be 931c 163d
000002f0: 3a40 79bd 06b0 273c b014 d3bd 71a0 2d3d
00000300: 159c 2d3d 4155 81bc 556e 57bd 3ff1 edbc
00000310: 50bf a9b8 9d8a bc3d 2b2e 0dbe b1bd 2fbd
00000320: 412c 683e c541 c93e b4ea b03d b92d 813e
00000330: 40c4 0ebe 9a0a 9dbd dfd9 0bbe 9e25 243d
00000340: d6cc 503e 07be cf3c e83c 83be bcf7 55bd
00000350: 2371 563d 3107 9a3c 3243 c43e e399 7b3e
00000360: 8b4c 843e a928 47bd bf25 e13c 6d55 833e
00000370: e3b0 663e 9fda bdba 724b 49bd d6de 27bd
00000380: a748 153e 6841 6c3a 894a 49bc eb11 6dbd
00000390: a3d3 30bd 03e3 8f3c 6522 923e 0938 c73d
000003a0: 974c e0bd 0370 cdbb 7241 80bd a77e b9bd
000003b0: d55d 273c a256 3dbe 19ac f93c 3517 49bd
000003c0: be1c c03e 5fd6 4ec0 0d0b 373e 090f 8fbe
000003d0: 23c7 2ebe 78e4 fc3e 3978 3a3e 4c42 2cbe
000003e0: ee64 c03b 0a76 6e3d 3276 043e e275 d9ba
000003f0: 1d87 12be f983 6b3f bc14 8d3b ab19 28bd

bias f4 [6]
0.6623527 -0.3825214 -0.44523478 0.20202944 -0.5188864 -0.3440452
00000000: f28f 293f d8d9 c3be d0f5 e3be cee0 4e3e
00000010: bdd5 04bf b126 b0be

weight f4 [6, 256]
-0.0009772939 0.053739283 0.2761261 0.020502536 0.4603445 -0.011775086 0.258153 -0.046138685
-0.06458374 0.0385147 0.026367221 -0.08619002 0.0059573245 -0.00038865698 -0.024501083 0.016377017
0.21499732 0.07514064 0.08839089 0.07277701 0.035846367 0.0122224 0.04060855 0.479989
0.05036828 0.30732995 0.056349777 0.13444932 -0.0120743 0.918691 0.06521693 0.64786977
0.115948886 0.31597757 -0.010392294 0.3231922 -0.009098123 -0.021972224 0.08450942 -0.0049602836
-0.039579738 -0.044977345 0.053050995 0.044038206 -0.011790915 0.02896569 0.08148115 -0.058242604
-0.014959203 0.26463473 0.09642048 0.1057806 -0.085682414 0.16150744 0.04957507 -0.05286886
0.04258329 0.005165157 0.0044086482 0.3656307 -0.02953435 0.022130089 0.004052669 0.32554308
0.009600115 0.008595403 0.22908475 0.30220193 0.4887808 0.21502623 -0.10922695 0.10443638
0.04395133 0.07153985 -0.022720013 0.021026755 0.079931684 0.002352519 0.012541483 0.16376406
0.083403505 0.21796563 -0.07401888 0.016404161 0.08696115 0.20493822 -0.07865441 0.037332892
0.054763548 0.0075235926 0.071326345 0.05859314 0.6166383 -0.00052097114 -0.0658628 -0.03922774
0.10659794 0.07932081 0.0041881124 -0.07730381 0.16538197 -0.029731557 0.031728275 0.034193803
-0.036466636 0.024698488 0.024335034 0.17268035 0.16216351 0.12978463 -0.02599651 -0.032871034
0.5278241 0.03860128 0.3736249 0.34805566 0.05549368 0.2243703 -0.043813713 -0.040389933
0.16869578 0.041017752 0.09610128 0.05271795 0.068271145 -0.0020754226 -0.007602295 0.0068401205
0.048299335 0.041379754 -0.013089714 0.043878216 0.059554793 -0.034436665 0.15664804 0.50571483
0.28778046 0.041836224 0.045821615 0.013473098 0.018539982 0.64953446 0.07677359 0.22490601
0.50851405 0.021433296 0.10880324 0.011136015 -0.022341449 0.09681652 0.016286755 0.025734602
0.027054183 0.34183297 0.5379309 -0.09666174 -0.043870986 0.07455386 0.1568854 0.06170581
-0.025595084 0.02540112 0.040354155 0.0033841382 0.18859325 -0.03153473 0.008269345 -0.07698751
-0.014015545 0.10812153 -0.023465924 0.24342091 0.18572636 0.1307432 0.31200165 0.35959312
0.038533285 0.21653686 0.05080892 0.17446071 0.007621534 0.019215329 0.062708735 0.07276746
0.06746311 0.52050483 0.033227477 0.028786147 -0.057608835 0.0017351243 0.012994234 0.09503683
0.055459123 0.0072796093 -0.117395364 -0.029933712 -0.029674113 0.8128749 0.053873762 -0.010109919
0.14038584 0.15969773 -0.0155583555 0.76438564 0.16532461 0.038406387 0.27816188 -0.009986068
0.3968629 0.07113212 0.6234711 0.09063813 0.14490294 0.059380423 0.25888428 0.6004131
0.076285146 0.0603397 -0.0072767385 0.3203741 0.53286743 -0.02741629 0.041621428 0.091316365
0.001318943 0.017467469 -0.032712083 -0.051364016 0.012470287 0.1871649 0.15292633 -0.14704406
0.56354123 0.004750979 0.038489502 0.073363595 -0.01644712 0.152351 0.026801314 -0.08348696
0.1889198 0.581205 0.128564 0.31545904 0.06013534 -0.14417034 0.057052657 0.14974461
-0.00096361653 0.116123304 0.24037586 0.04837356 0.25865984 -0.0012570316 0.2431641 0.029298909
00000000: 8b18 80ba b91d 5c3d 6660 8d3e eff4 a73c
00000010: 46b2 eb3e 4aec 40bc a12c 843e ebfb 3cbd
00000020: 7b44 84bd 97c1 1d3d 1200 d83c 6584 b0bd
00000030: a935 c33b a8c4 cbb9 7fb6 c8bc 1829 863c
00000040: 4228 5c3e 56e3 993d 4806 b53d 1d0c 953d
00000050: a4d3 123d 7640 483c 2755 263d 1ec1 f53e
00000060: f84e 4e3d 5a5a 9d3e 06cf 663d 15ad 093e
00000070: 49d3 45bc 552f 6b3f 7490 853d cbda 253f
00000080: 9c76 ed3d d0c7 a13e 7144 2abc 7379 a53e
00000090: 4b10 15bc 18ff b3bc 4613 ad3d e089 a2bb
000000a0: 5d1e 22bd 2a3a 38bd 004c 593d 6861 343d
000000b0: af2e 41bc 7449 ed3c 97df a63d cc8f 6ebd
000000c0: 7217 75bc 347e 873e 1a78 c53d 80a3 d83d
000000d0: 437a afbd 3562 253e 3b0f 4b3d 058d 58bd
000000e0: d16b 2e3d 7a40 a93b 6c76 903b f233 bb3e
000000f0: 05f2 f1bc 294a b53c 40cc 843b 95ad a63e
00000100: cd49 1d3c bcd3 0c3c 3195 6a3e 36ba 9a3e
00000110: 7a41 fa3e d62f 5c3e 61b2 dfbd bee2 d53d
00000120: 4f06 343d 7c83 923d 521f babc 4d40 ac3c
00000130: 39b3 a33d b82c 1a3b cb7a 4d3c c4b1 273e
00000140: 75cf aa3d 6232 5f3e 3697 97bd 0562 863c
00000150: b018 b23d 53db 513e 9015 a1bd 60ea 183d
00000160: be4f 603d 7888 f63b 8c13 923d 5cff 6f3d
00000170: 02dc 1d3f c891 08ba 13e3 86bd 44ad 20bd
00000180: 0550 da3d f372 a23d 6f3c 893b 7651 9ebd
00000190: e459 293e 988f f3bc 82f5 013d cd0e 0c3d
000001a0: 0a5e 15bd 7c54 ca3c 445a c73c 1ed3 303e
000001b0: 310e 263e 43e6 043e a2f6 d4bc c7a3 06bd
000001c0: 7b1f 073f 601c 1e3d c34b bf3e 5a34 b23e
000001d0: 574d 633d 54c1 653e 0276 33bd ea6f 25bd
000001e0: 96be 2c3e 3b02 283d bfd0 c43d c7ee 573d
000001f0: bed1 8b3d d003 08bb ac1c f9bb 1723 e03b
00000200: 86d5 453d d17d 293d 3d76 56bc a5b9 333d
00000210: baef 733d 760d 0dbd 5868 203e 8776 013f
00000220: f657 933e 765c 2b3d 72af 3b3d 45be 5c3c
00000230: 29e1 973c e447 263f 793b 9d3d c34d 663e
00000240: fa2d 023f e194 af3c 3cd4 de3d d573 363c
00000250: 6a05 b7bc bd47 c63d cd6b 853c 5fd1 d23c
00000260: bca0 dd3c bb04 af3e d7b5 093f 97f6 c5bd
00000270: 10b2 33bd b2af 983d 91a6 203e 3bbf 7c3d
00000280: c8ac d1bc 0216 d03c 664a 253d 6bc8 5d3b
00000290: 971e 413e 902a 01bd 267c 073c a1ab 9dbd
000002a0: 75a1 65bc d26e dd3d 9c3b c0bc 5543 793e
000002b0: 0d2f 3e3e 8ce1 053e aebe 9f3e 971c b83e
000002c0: 14d5 1d3d d7bb 5d3e 041d 503d d4a5 323e
000002d0: 10be f93b 7769 9d3c 706d 803d 1b07 953d
000002e0: 192a 8a3d ce3f 053f 8919 083d edd0 eb3c
000002f0: 3ef7 6bbd 1c6d e33a c5e5 543c aba2 c23d
00000300: 1b29 633d ca89 ee3b fb6c f0bd 8b37 f5bc
00000310: 2017 f3bc 9218 503f bcaa 5c3d 13a4 25bc
00000320: 4ec1 0f3e cd87 233e 79e8 7ebc c7ae 433f
00000330: db4a 293e 0450 1d3d 3c6b 8e3e 9b9c 23bc
00000340: 9d31 cb3e b8ad 913d cd9b 1f3f 7ca0 b93d
00000350: 7061 143e e338 733d 7b8c 843e acb4 193f
00000360: 633b 9c3d c326 773d b571 eebb 1308 a43e
00000370: 006a 083f 2198 e0bc 3b7b 2a3d 1304 bb3d
00000380: 62e0 ac3a f017 8f3c 1bfd 05bd 1363 52bd
00000390: 2d50 4c3c 28a8 3f3e b898 1c3e b892 16be
000003a0: 3d44 103f 1aae 9b3b 2ba7 1d3d a73f 963d
000003b0: 1cbc 86bc e701 1c3e 6e8e db3c 36fb aabd
000003c0: 3174 413e dac9 143f 48a6 033e d983 a13e
000003d0: 7950 763d 64a1 13be 0cb0 693d a756 193e
000003e0: 369b 7cba 0ed2 ed3d 1725 763e 5b23 463d
000003f0: 106f 843e fbc2 a4ba 0300 793e 4404 f03c

bias f4 [6]
-1.5148317 -2.021252 -1.5737002 -2.1729796 -1.3272213 -1.1753385
00000000: 01e6 c1bf 315c 01c0 026f c9bf 1912 0bc0
00000010: 63e2 a9bf 7e71 96bf

weight f4 [256, 23]
11.010153 -10.549589 -2.7186463 -1.6045904 -0.538642 -13.770179 0.9090072 -0.7308159
-0.0420134 0.8285965 -1.0783792 -0.35568175 -0.16562444 -0.110180415 -0.46890363 -0.06492545
-0.06504346 -2.0852716 1.7311882 -0.37433502 -1.8429896 0.26313573 0.6151044 -2.4563196
0.61464137 -0.13958089 -0.8362219 -0.09661477 -0.33602968 0.0927246 0.17882568 1.0048327
-0.069127604 0.63739294 -0.22461027 -0.14702442 -0.072860025 0.027031481 0.050707504 0.06094831
-0.24730107 0.015680164 0.009728386 -0.08797575 0.28252468 0.22653563 14.91435 -1.9573681
-6.1691713 -4.0852456 1.3229872 3.6365435 -3.159088 0.6722223 -0.146394 1.6864089
-0.9737091 -0.46652094 -0.44696194 0.11070669 0.12888251 -0.19889554 0.04525165 3.686499
-2.190788 3.2108784 2.7480388 0.6800397 -0.13472268 4.445059 -2.8464415 -5.4199767
5.304127 5.2735057 -2.6659567 0.14497977 -0.21654247 -0.7761815 -2.6709127 0.3396768
0.21348889 -0.36554497 0.69526416 0.41141158 0.027645512 0.4669862 -3.7903683 -2.5538065
5.0386467 -1.1824043 -1.5800872 0.87199914 3.6884928 0.03555385 -0.19169584 0.4194237
-1.209478 -3.730383 -1.0625429 -0.9631704 -0.7712765 6.6109867 -0.47632232 0.19407952
0.13915311 0.11660128 -0.4784024 -0.26269934 -0.13558951 2.3317447 -1.0400306 1.0075935
-5.4267693 -2.5060666 -1.4168003 1.4028342 0.8045334 3.889245 5.351391 3.0959134
-2.7967482 -3.7979274 -0.91439795 -0.3224305 4.14537 -1.5800867 0.14804158 0.07058313
0.23355961 0.08866138 0.06299179 0.05743829 -0.13674815 0.7134096 0.35608035 2.661099
3.119693 2.3523204 -2.3170795 -8.117794 -0.41564292 6.956338 6.8954616 0.11548074
0.5242359 2.5801091 -0.7998953 0.49193007 1.5337375 0.11472685 0.16852102 -0.21215947
-0.016310275 0.29437828 0.14917438 -1.0505029 -0.46905985 -1.7324435 0.017271524 -4.0208626
-0.26829535 6.5658565 -4.1934686 2.430083 1.6835576 -1.6479186 -0.358764 1.9564358
2.1847382 -1.7418153 -0.36527163 1.4796389 0.6055559 0.22843471 0.22905944 0.90122604
0.77557915 0.4809543 -0.9449999 -1.801996 2.6533864 3.3310437 0.9457652 2.184406
2.329513 -5.5719275 -12.873151 1.6091304 2.4778717 -2.5915785 -3.2415967 -0.91090125
-0.27297652 -0.32225317 1.6194963 1.0234399 -0.041940093 -0.023858618 0.03930583 -0.12339143
-0.10299688 -1.6429019 -1.9596187 0.4433027 0.91795665 0.60906667 0.057926394 1.4499544
1.5253311 2.7333448 1.817431 1.838808 -0.49104628 -2.6424341 5.682382 -4.2303066
0.4080469 -2.1647174 -0.70032775 -0.27609366 -0.19971053 -0.6497991 0.53785104 0.025701733
-1.1114639 1.0838305 0.76836395 0.42739674 -3.397309 1.3785597 9.604035 -2.244818
3.069277 -3.710235 -0.37382415 -5.06273 0.010261391 1.561084 -0.9346184 -0.90801525
-0.7331533 0.09719159 0.69371396 -0.20331925 -0.4661253 -0.25144002 0.015580338 2.2554185
-0.2646782 -2.920534 -2.7650847 2.2181885 0.5854585 16.150707 -12.634574 -2.8592992
00000000: 9629 3041 1ecb 28c1 4dfe 2dc0 3863 cdbf
00000010: 71e4 09bf a752 5cc1 b2b4 683f c016 3bbf
00000020: 3e16 2cbd e61e 543f 5408 8abf eb1b b6be
00000030: 7499 29be 45a6 e1bd 2314 f0be a2f7 84bd
00000040: 8135 85bd 1775 05c0 9397 dd3f d7a8 bfbe
00000050: 15e7 ebbf bab9 863e 7b77 1d3f 5734 1dc0
00000060: 2359 1d3f 4bee 0ebe a312 56bf f7dd c5bd
00000070: 150c acbe 65e6 bd3d 141e 373e 5c9e 803f
00000080: c692 8dbd 2f2c 233f 3c00 66be 928d 16be
00000090: a337 95bd 2071 dd3c acb2 4f3d efa4 793d
000000a0: 7e3c 7dbe b073 803c cf63 1f3c a12c b4bd
000000b0: 13a7 903e f5f8 673e 2da1 6e41 0a8b fabf
000000c0: da69 c5c0 55ba 82c0 a557 a93f 21bd 6840
000000d0: 7f2e 4ac0 c316 2c3f 4fe8 15be 3fdc d73f
000000e0: 0045 79bf d5db eebe 32d8 e4be 30ba e23d
000000f0: c7f9 033e 46ab 4bbe cb59 393d 9aef 6b40
00000100: df35 0cc0 087f 4d40 dedf 2f40 1517 2e3f
00000110: bef4 09be ec3d 8e40 192c 36c0 7370 adc0
00000120: 69bb a940 8fc0 a840 099f 2ac0 9475 143e
00000130: 4fbd 5dbe d5b3 46bf 3cf0 2ac0 1eea ad3e
00000140: d59c 5a3e b628 bbbe d5fc 313f 8aa4 d23e
00000150: d778 e23c d118 ef3e 6595 72c0 9171 23c0
00000160: 983c a140 0659 97bf 4c40 cabf 563b 5f3f
00000170: 4410 6c40 eaa0 113d ea4b 44be b4be d63e
00000180: 2dd0 9abf 98be 6ec0 6801 88bf 5692 76bf
00000190: 6072 45bf 348d d340 85e0 f3be c8bc 463e
000001a0: 277e 0e3e a7cc ee3d 29f1 f4be 8780 86be
000001b0: fad7 0abe 4e3b 1540 b91f 85bf d3f8 803f
000001c0: 18a8 adc0 6563 20c0 b659 b5bf 1290 b33f
000001d0: e7f5 4d3f 64e9 7840 983e ab40 7223 4640
000001e0: ecfd 32c0 3e11 73c0 fc15 6abf 9c15 a5be
000001f0: dfa6 8440 4840 cabf 3698 173e e38d 903d
00000200: 402a 6f3e 1994 b53d d701 813d 6a44 6b3d
00000210: b507 0cbe 03a2 363f 2a50 b63e 724f 2a40
00000220: 0da9 4740 6b8c 1640 084b 14c0 7ce2 01c1
00000230: 26cf d4be 529a de40 9fa7 dc40 2b81 ec3d
00000240: 5334 063f 8220 2540 f0c5 4cbf 42de fb3e
00000250: 8351 c43f e9f5 ea3d c690 2c3e 5540 59be
00000260: 209d 85bc c0b8 963e 2bc1 183e e176 86bf
00000270: 9d28 f0be b5c0 ddbf 037d 8d3c e8aa 80c0
00000280: 025e 89be 7f1b d240 e530 86c0 7b86 1b40
00000290: d17e d73f ffee d2bf eaaf b7be 7d6c fa3f
000002a0: c0d2 0b40 cef3 debf e204 bbbe cf64 bd3f
000002b0: b605 1b3f caea 693e 8f8e 6a3e c0b6 663f
000002c0: 5b8c 463f a43f f63e 83eb 71bf cea7 e6bf
000002d0: 15d1 2940 d22f 5540 ab1d 723f 4fcd 0b40
000002e0: be16 1540 3b4d b2c0 6df8 4dc1 fcf7 cd3f
000002f0: 7395 1e40 6cdc 25c0 5276 4fc0 d330 69bf
00000300: 94c3 8bbe 5efe a4be a84b cf3f 1400 833f
00000310: 60c9 2bbd 2673 c3bc 26ff 203d a5b4 fcbd
00000320: 07f0 d2bd 9c4a d2bf c9d4 fabf 92f8 e23e
00000330: 35ff 6a3f cbeb 1b3f 3a44 6d3d 1b98 b93f
00000340: 0d3e c33f 1fef 2e40 94a1 e83f 0f5e eb3f
00000350: 6b6a fbbe a41d 29c0 13d6 b540 ac5e 87c0
00000360: 86eb d03e bb8a 0ac0 ae48 33bf 265c 8dbe
00000370: eb80 4cbe 3c59 26bf 9bb0 093f 718c d23c
00000380: 7344 8ebf f5ba 8a3f 80b3 443f bfd3 da3e
00000390: 836d 59c0 a574 b03f 21aa 1941 19ab 0fc0
000003a0: 096f 4440 7e74 6dc0 e165 bfbe e201 a2c0
000003b0: 651f 283c 9ad1 c73f 2743 6fbf b073 68bf
000003c0: efaf 3bbf 620c c73d 3d97 313f ec32 50be
000003d0: faa7 eebe bfbc 80be ad44 7f3c c758 1040
000003e0: e783 87be 07ea 3ac0 26f7 30c0 cdf6 0d40
000003f0: 9ce0 153f a634 8141 3727 4ac1 c2fe 36c0

bias f4 [256]
-4.283836 9.287099 -6.2939243 -4.6878877 -5.69933 -3.0570898 -4.873996 -5.6758184
1.0551174 -2.1731422 -0.79777193 0.82991743 -7.346727 -6.3084145 -4.1535707 -3.4416308
-3.5148335 -7.139838 7.632692 -0.23125052 -4.8861704 9.477116 -4.7727666 5.907007
-1.10154 -3.7031298 -5.430829 -3.7692316 -4.8831253 -1.9417977 -2.6949582 -3.5536592
-5.1446085 -2.0172958 -0.7071334 -7.0206885 -8.762096 -2.3933616 -1.8517656 -4.6022778
-6.3954883 -5.4252133 -2.4870129 0.06868902 -5.1161923 -8.048591 -5.9962554 -7.9762645
0.29629463 5.3119173 -8.327969 -4.761622 -2.2809272 -6.183452 -6.472106 0.059832036
-5.605766 -1.7999573 -4.373045 -5.2167535 3.688451 -6.582634 -0.0106354905 -4.09682
-3.818403 -0.99873817 3.2291915 -3.072744 -5.4045653 3.9930596 -4.230585 -5.1393137
-2.5367088 3.4146578 -0.781739 -2.2352607 -6.123165 7.544979 -4.319045 -0.61637753
-2.5864167 -5.2136436 -3.9152107 -4.7537 -4.810928 -6.081934 -3.5280325 -2.1030867
-4.592109 -7.2517843 -4.169112 -3.941849 -3.5472534 6.1164885 -9.387739 -0.3323902
-6.6425524 -0.37895355 -4.7023916 7.793795 4.3779917 -3.7494001 -5.5770125 4.7616878
-0.8248754 6.7526255 -2.1691937 8.725665 -1.8010128 -1.1877053 -2.2492142 -6.489311
3.5814586 -8.667341 -4.6540804 -7.8687477 -6.0182943 9.093552 -6.6271 -0.84558594
-4.6586013 -3.012389 -2.2477336 -4.941196 -5.0947022 11.596251 0.8152532 -8.56836
1.6419379 8.789834 -10.664401 -9.419812 -5.399559 -5.0413547 -3.0083706 -6.251888
-5.520569 -9.152086 6.211461 -2.4648385 -3.028985 -1.3181757 -1.6567999 -3.4896739
10.45088 -0.36956084 -5.0186405 -6.386635 -1.9366478 -2.4503787 8.427455 -3.6133611
-0.089375354 -7.189417 5.4747734 -5.7732706 -3.9898355 -2.8646886 -4.6086473 -2.308035
-6.1190453 0.43827778 -0.05578051 -9.789193 -6.4023767 -4.614911 -3.3220675 -1.299686
-0.8340576 0.6639909 5.2219105 0.15192975 3.3854272 6.1505027 -4.313411 -3.0366242
-5.26764 4.042159 -5.4537144 1.4077288 -4.776364 -8.370611 -5.438772 -2.4287848
-6.0809436 -0.38463187 -0.40546903 8.552813 -4.48943 -3.5609488 -4.0838475 6.338986
-8.475201 -0.42972735 -5.2089057 -5.8687243 -5.9208164 -5.1019454 -4.700444 -6.080732
-4.5203686 5.823669 -2.0513842 -1.779064 -12.658521 4.9643464 -4.825488 -5.8996606
8.222834 -2.7235904 -7.9639435 2.9889903 -2.6274276 -4.5028644 1.5975558 -5.463997
-3.8018064 -4.335572 -6.0438323 -2.362495 -5.51454 -1.6055694 -7.6317463 -1.9458605
4.771199 -4.3217797 -0.3714539 -3.4700613 9.249997 -4.419708 -6.852912 -6.869048
-5.1986547 -2.4802978 -7.01314 -7.6384 -1.4843599 -8.675136 5.9646285e-05 -5.56888
4.7627153 3.0692837 -2.178469 -1.1073543 -2.6033394 -6.0023546 -3.343022 3.7432408
-3.4052217 -4.4767327 -6.768772 -3.7330785 7.003743 -7.226282 -0.28811377 -0.09499301
00000000: 2f15 89c0 f597 1441 d467 c9c0 2d03 96c0
00000010: e960 b6c0 5ca7 43c0 c6f7 9bc0 4ea0 b5c0
00000020: 160e 873f c314 0bc0 c83a 4cbf 7875 543f
00000030: 6318 ebc0 88de c9c0 0dea 84c0 ae43 5cc0
00000040: 08f3 60c0 8e79 e4c0 033f f440 f0cc 6cbe
00000050: 825b 9cc0 44a2 1741 81ba 98c0 3406 bd40
00000060: 43ff 8cbf 1400 6dc0 5ac9 adc0 173b 71c0
00000070: 9042 9cc0 d48c f8bf 327a 2cc0 276f 63c0
00000080: a2a0 a4c0 601b 01c0 b206 35bf 7ba9 e0c0
00000090: 8c31 0cc1 d62c 19c0 a806 edbf dc45 93c0
000000a0: d7a7 ccc0 599b adc0 382b 1fc0 d4ac 8c3d
000000b0: d9b7 a3c0 07c7 00c1 53e1 bfc0 8f3d ffc0
000000c0: eeb3 973e 3afb a940 5c3f 05c1 355f 98c0
000000d0: b6fa 11c0 d7de c5c0 7e1b cfc0 7012 753d
000000e0: 6f62 b3c0 0065 e6bf fcef 8bc0 a5ef a6c0
000000f0: 950f 6c40 f0a4 d2c0 7b40 2ebc 2619 83c0
00000100: b760 74c0 4ead 7fbf 13ab 4e40 d6a7 44c0
00000110: 33f2 acc0 4a8e 7f40 f460 87c0 4275 a4c0
00000120: 7059 22c0 c189 5a40 0c20 48bf 830e 0fc0
00000130: f8f0 c3c0 7870 f140 9e35 8ac0 ebca 1dbf
00000140: da87 25c0 2bd6 a6c0 d092 7ac0 4f1e 98c0
00000150: 1ff3 99c0 349f c2c0 49cb 61c0 f998 06c0
00000160: 8ff2 92c0 9e0e e8c0 5e69 85c0 4147 7cc0
00000170: 3306 63c0 46ba c340 2e34 16c1 0c2f aabe
00000180: ca8f d4c0 3306 c2be fe79 96c0 c566 f940
00000190: 8218 8c40 2cf6 6fc0 e376 b2c0 bf5f 9840
000001a0: 092b 53bf 8215 d840 12d4 0ac0 539c 0b41
000001b0: 9687 e6bf ba06 98bf 20f3 0fc0 70a8 cfc0
000001c0: 9e36 6540 6ead 0ac1 3aee 94c0 c8cc fbc0
000001d0: de95 c0c0 307f 1141 3411 d4c0 5278 58bf
000001e0: 4313 95c0 fbca 40c0 deda 0fc0 471e 9ec0
000001f0: cd07 a3c0 3e8a 3941 6fb4 503f 0118 09c1
00000200: 052b d23f 29a3 0c41 63a1 2ac1 8db7 16c1
00000210: 30c9 acc0 c752 a1c0 2589 40c0 770f c8c0
00000220: 80a8 b0c0 f26e 12c1 4ac4 c640 eabf 1dc0
00000230: e4da 41c0 fbb9 a8bf 0512 d4bf d156 5fc0
00000240: ce36 2741 1437 bdbe b498 a0c0 505f ccc0
00000250: 13e4 f7bf 01d3 1cc0 dbd6 0641 4f41 67c0
00000260: 6d0a b7bd b40f e6c0 5831 af40 a2be b8c0
00000270: 7759 7fc0 0f57 37c0 0a7a 93c0 d8b6 13c0
00000280: 38cf c3c0 f265 e03e 1b7a 64bd 89a0 1cc1
00000290: 45e0 ccc0 5aad 93c0 c19c 54c0 1c5c a6bf
000002a0: cd84 55bf 4ffb 293f e419 a740 7993 1b3e
000002b0: d7aa 5840 ebd0 c440 7707 8ac0 0d58 42c0
000002c0: 8290 a8c0 5e59 8140 d484 aec0 7530 b43f
000002d0: f9d7 98c0 06ee 05c1 6c0a aec0 3671 1bc0
000002e0: 1797 c2c0 78ee c4be a399 cfbe 52d8 0841
000002f0: 69a9 8fc0 96e6 63c0 e1ae 82c0 f9d8 ca40
00000300: 6c9a 07c1 3905 dcbe 5baf a6c0 97cc bbc0
00000310: 5477 bdc0 2343 a3c0 0a6a 96c0 5b95 c2c0
00000320: dca6 90c0 7f5b ba40 e149 03c0 5fb8 e3bf
00000330: 4d89 4ac1 eddb 9e40 666a 9ac0 05ca bcc0
00000340: ba90 0341 4e4f 2ec0 a0d8 fec0 9e4b 3f40
00000350: c627 28c0 7717 90c0 b57c cc3f 10d9 aec0
00000360: cc50 73c0 01bd 8ac0 1367 c1c0 1e33 17c0
00000370: 1d77 b0c0 4c83 cdbf 4437 f4c0 f511 f9bf
00000380: aaad 9840 054c 8ac0 352f bebe 7c15 5ec0
00000390: fdff 1341 3f6e 8dc0 0e4b dbc0 3ecf dbc0
000003a0: 615b a6c0 33bd 1ec0 a56b e0c0 c66d f4c0
000003b0: 81ff bdbf 5bcd 0ac1 b62c 7a38 4434 b2c0
000003c0: 2a68 9840 256f 4440 096c 0bc0 c9bd 8dbf
000003d0: 1d9d 26c0 4a13 c0c0 13f4 55c0 4291 6f40
000003e0: 27ef 59c0 6541 8fc0 c899 d8c0 c2ea 6ec0
000003f0: aa1e e040 b43d e7c0 a683 93be b28b c2bd
